src/logs/dae-pinns-best/model.pth (torch_old, 959676 bytes, 72 tensors)

Y.net.0.0.weight f4 [100, 4]
000000 65 96 45 3a f0 08 8d bb db b3 23 bd 4f de 34 3d
       0.0007537364 -0.004304044 -0.039966445 0.044157322
000010 cc 96 54 3e aa 17 cb be 0a 1a e1 3e fa 47 74 3e
       0.2076065 -0.39666492 0.4396518 0.23855582
000020 0b 23 c8 bd fa 16 4e bd 5b 4b 4e 3e 1d dc f8 3e
       -0.09772309 -0.05031488 0.20145933 0.48605433
000030 83 ac b4 be 1b 6a d9 3e f7 ac 00 3e ff f8 f5 3d
       -0.35287866 0.42463765 0.12565981 0.12010383
000040 97 db 2a be 9e ab 74 3c 01 af 89 bd 1d 77 a1 3e
       -0.1668533 0.014933495 -0.067228325 0.3153619
000050 d6 1d 3d be 33 ab 7f 3c 2e c7 2c 3e 27 bb bf be
       -0.18468413 0.015604782 0.16872856 -0.37447473
000060 f0 d7 ad be cb cd 83 be 38 a4 db bd 62 09 38 3f
       -0.3395381 -0.25742945 -0.107246816 0.7188932
000070 4c 7a 39 3e 25 ff f4 bc 2b bb 7c 3e a8 66 c9 bd
       0.18113059 -0.029906819 0.24680774 -0.09834033
000080 ec ae 3c be 3c 5b 29 be cb 21 c7 bd 81 96 e8 3e
       -0.18426102 -0.1653871 -0.09723242 0.45427325
000090 42 ae 3c 3d cc a6 79 3d a5 38 c9 3d d1 64 bb 3d
       0.046064623 0.060950086 0.09825257 0.091500886
0000a0 ad 38 9e 3e 1c 07 e3 bd 96 28 c4 bd ce c3 b9 be
       0.30902615 -0.110853404 -0.09578054 -0.362822
0000b0 22 20 96 bd 50 2f 29 bd f6 05 08 3c ac 57 7b bc
       -0.073303476 -0.041304886 0.008302202 -0.015340727
0000c0 b4 83 6f 3e ac 51 ec bd 39 fe fc be 46 fb d0 be
       0.23390085 -0.11539015 -0.49412706 -0.40816706
0000d0 83 f3 fe bd b6 a7 63 bd f2 56 0b 3e 49 12 2e 3e
       -0.1244879 -0.055579863 0.13607386 0.16999163
0000e0 0d dc 98 3e 17 ba a6 3d 50 e5 32 3d f2 43 a6 bd
       0.29855385 0.081409626 0.04367572 -0.08118428
0000f0 ef b9 49 be 33 8a 68 be ad e2 0c be 92 d1 77 3d
       -0.19699834 -0.22708969 -0.13758345 0.060502596
000100 f5 d4 e7 3e cf bb 3e 3e 18 f1 98 be 11 82 e4 3a
       0.4527966 0.18626331 -0.2987144 0.0017433782
000110 27 0d 75 3e 02 50 11 3d 4a ca 09 be 1f f3 dd 3e
       0.23930798 0.035476692 -0.13456073 0.4334955
000120 41 8c d4 bd 88 f4 85 bb 72 7c 1c 3e de f7 c1 be
       -0.10378314 -0.0040879883 0.15281847 -0.3788442
000130 1b fa eb 3d bd ea e5 bd ef 3b 0d bf 01 d3 ae 3c
       0.11522313 -0.112264134 -0.55169576 0.021340849
000140 bb 60 b1 bd 29 25 c6 3e 69 ac 49 3e 24 04 b4 bc
       -0.08661028 0.38700226 0.19694676 -0.02197463
000150 37 47 ee 3d c6 5a af bd f3 30 12 3e 4f c2 09 3f
       0.11634677 -0.085622355 0.14276485 0.53812116
000160 bc 85 2c 3e 62 7c db bd ed 51 10 be c6 15 56 be
       0.1684789 -0.107170835 -0.14093752 -0.20906743
000170 3d 64 9f 3e 11 75 f3 bc 45 6d 4f be 64 a6 69 3e
       0.31131163 -0.029718908 -0.20256527 0.22817379
000180 c6 91 ba bd f4 6a d6 3d 91 ab ab 3e e2 1a f0 be
       -0.09109835 0.104696184 0.33529332 -0.4689551
000190 f7 d8 f5 be 85 88 12 3e 22 85 b3 be 71 e7 11 3f
       -0.48017094 0.1430989 -0.3506251 0.56993777
0001a0 a2 db 65 bc 28 4e 1e bd eb 45 2c 3d 8d 11 28 3e
       -0.014029415 -0.038648754 0.042058866 0.16412945
0001b0 f9 bf 03 3e d0 64 46 be 73 f6 e6 bd 4d 27 79 3e
       0.128662 -0.19374394 -0.11277475 0.24331398
0001c0 f2 a5 a4 3d b3 87 be 3e 82 9f 1d be 26 fd d6 be
       0.08039464 0.37212905 -0.15392879 -0.41990012
0001d0 fe 56 b7 be 68 40 2a 3e 53 51 97 be 43 c2 43 3e
       -0.35808557 0.16626132 -0.29554233 0.19117074
0001e0 b8 55 9d 3e 8d 9b 0b be 04 f6 54 bd 82 29 66 be
       0.3072946 -0.13633557 -0.05199243 -0.22476771
0001f0 f7 c0 97 3e 5f 71 20 3e ab 57 9e 3c 0e 27 49 3e
       0.29639408 0.15668248 0.019328913 0.19643804
000200 a4 1e d7 bd 2d da 48 3b 82 b2 83 3e 9e f3 54 3e
       -0.10503891 0.003064762 0.25722128 0.20796058
000210 df b5 ba bd f7 dc 07 be 67 b9 a5 3e 16 3d e9 be
       -0.091167204 -0.13267885 0.32368013 -0.45554417
000220 0e 41 29 bd 03 90 2e 3d db 20 30 be 7f ea 0a 3d
       -0.041321807 0.04261781 -0.17200033 0.03391504
000230 6c f6 f9 3d 1e 24 de bd dd 6c ae be c3 8c 86 3e
       0.12205204 -0.108467326 -0.3406743 0.26279268
000240 8a ec 2f be 0b 2a 66 3d 0d a1 5c 3d 7d 58 19 be
       -0.17180076 0.05619244 0.053864527 -0.14975162
000250 5c a5 78 3e f2 b3 3f 3e 17 3b 09 3f b7 18 b0 be
       0.2428183 0.18720987 0.5360579 -0.34393856
000260 20 00 a6 3d b9 be 87 be 1c b7 3d 3e 02 f0 f5 be
       0.081054926 -0.26512697 0.18526882 -0.48034674
000270 69 dc 34 bd 67 b6 11 bd 3f 14 c1 3e c0 0f ee be
       -0.044155512 -0.035574343 0.3771076 -0.4649639
000280 5e fb 64 bd 42 4e 83 bd fa 72 9a be 35 14 8c be
       -0.055903785 -0.06411411 -0.30165845 -0.27359167
000290 e9 a7 38 3e 32 59 80 bc df 9e 86 3e 6c 38 04 3f
       0.18032803 -0.015667532 0.26293084 0.5164859
0002a0 f8 6f 95 bc 99 9e 82 be 0f c3 2a 3e b6 66 8a 3e
       -0.018241867 -0.25511625 0.16675971 0.27031487
0002b0 c4 36 15 bd 2c 77 29 be 98 c1 20 be 1f 14 90 3d
       -0.03642918 -0.16549367 -0.1569885 0.07035088
0002c0 14 16 9b bd b0 98 b3 3d 4f dc 4c bd 34 98 95 be
       -0.075725704 0.08769357 -0.05001479 -0.29217684
0002d0 b4 56 d5 3d d7 e4 79 3e 25 e2 e7 bd 0e a6 61 3e
       0.10416928 0.24403702 -0.113224305 0.22036001
0002e0 7d 9d 4b 3e af 54 13 be 1c f2 aa be 44 2e ef 3e
       0.19884296 -0.14387773 -0.3338784 0.46714985
0002f0 b3 18 09 be 1b 80 0d 3e 89 80 ac be 10 48 d2 3e
       -0.13388328 0.138184 -0.33691815 0.41070604
000300 f7 fd df 3e 23 ed 30 3f b4 f0 58 3d a3 13 9d 3e
       0.43748447 0.6911184 0.052963927 0.30679044
000310 10 47 29 be d4 ee 85 3e bd da cc be 61 9e b8 bd
       -0.16531014 0.26158774 -0.40010634 -0.090145834
000320 f3 f4 86 3d 6f ec ac 3d 3d cd c9 3b 83 66 90 bd
       0.06589689 0.08443534 0.0061584995 -0.070508026
000330 57 9a ff 3e f5 1f 3e 3d 8e 11 86 bd 8f fc 0c bf
       0.4992244 0.046417195 -0.06546317 -0.55072874
000340 74 e0 1e bd 95 d4 fb bc 09 29 c0 be 5b f6 1d 3e
       -0.038788274 -0.030741015 -0.37531307 0.15426008
000350 3b 7b 47 be c0 ee 0a 3e 9e 7b 2f be 58 49 98 be
       -0.19480602 0.13567638 -0.17137 -0.29743457
000360 4d f5 d4 3e 57 a3 3b be 68 1f d1 bd ce 6c a2 be
       0.415934 -0.18324028 -0.102110684 -0.31723636
000370 57 40 07 bc 19 81 67 be 3d 52 6a 3e 1c 7f 26 be
       -0.008255086 -0.2260784 0.22882934 -0.16259426
000380 d9 77 12 3d 69 c0 0c be b9 01 04 bf 6c 6b 83 3e
       0.035758827 -0.13745274 -0.5156513 0.25667894
000390 89 c3 ad bd 7c c3 20 3d 6d 5b 8d be 13 c3 e6 3d
       -0.08484561 0.03924893 -0.27608815 0.11267676
0003a0 3b 85 0a bd d7 3f 33 3d 5e c1 d7 be 62 8c 90 3e
       -0.033818465 0.043762054 -0.42139715 0.28232104
0003b0 d5 a4 9b be ca 43 94 3d e4 4f 8f be 94 47 d8 3e
       -0.30399194 0.07239492 -0.2799064 0.4224211
0003c0 f1 31 c3 3d 7f 73 fc bd b0 47 d7 bd cf c6 a9 be
       0.0953101 -0.12326717 -0.1051172 -0.3315949
0003d0 97 8b 19 be 92 a0 15 3e b9 e0 87 3e 94 45 da 3e
       -0.14994656 0.14612034 0.26538637 0.4263121
0003e0 1a 02 38 3e 92 88 ae 3c 71 47 2a bf 6b 10 45 3d
       0.17969552 0.021305356 -0.6651526 0.04811136
0003f0 3d 8b da bd 4b de 37 bd 14 33 e0 3d 3e 80 9c 3e
       -0.10671089 -0.04488973 0.109472424 0.3056659

Y.net.0.0.bias f4 [100]
000000 49 40 ed 3d 0d 99 f9 3d 15 3e 89 bc 7a 8f 1f 3e
       0.11584527 0.12187395 -0.016753236 0.15582076
000010 75 a3 43 3d 6b 87 d7 3d 21 3f 6b 3e ea a9 03 3e
       0.047763307 0.10523876 0.229733 0.12857786
000020 c6 94 a5 3d 78 22 2f bd db f5 cd 3d a0 17 9e bd
       0.08085017 -0.04275748 0.10056659 -0.0771935
000030 c3 11 99 3d ed 68 28 3e a9 01 0f 3e 34 ed 4d 3e
       0.07474091 0.16446276 0.13965477 0.20110017
000040 2e da fd 3d 0f 7c 81 3e 47 8c a7 bd 48 a1 db 3c
       0.1239513 0.25289962 -0.08181053 0.026810303
000050 36 59 8e 3c 0c f3 8a bd 46 e7 da bc 2d 47 f6 3d
       0.017376523 -0.06784639 -0.026721608 0.120252945
000060 c3 54 d8 3c 0d a1 d3 3d 6b a0 5a bd 78 17 07 3e
       0.026407605 0.103334524 -0.053375643 0.13192546
000070 90 bc 26 3d ca e0 6b 3c a1 f2 1b 3e 45 a5 f9 3d
       0.04070717 0.014396856 0.15229274 0.12189726
000080 1e 81 c5 3d 4a 5b d1 3d 60 20 23 be 92 55 82 3a
       0.09643768 0.1022249 -0.15930319 0.0009943715
000090 95 ee ff 3c 4f b6 c9 3a a0 8b 15 bd c9 f0 61 3d
       0.031241694 0.0015389415 -0.03651011 0.05516127
0000a0 58 5c 4f 3d ac 89 2b bd c9 a4 a7 3d c9 84 29 bb
       0.050625175 -0.04187934 0.08185727 -0.00258665
0000b0 93 bb 95 3d 92 25 cc bd 06 27 9b bd 35 2e 01 3e
       0.073111676 -0.099681035 -0.075758025 0.12615283
0000c0 db 6e 13 be ed 57 1b 3c 50 78 44 3d 5a 03 1a 3d
       -0.14397757 0.009481412 0.0479663 0.037600853
0000d0 8c 84 49 bd 15 01 81 3e d1 64 7c 3c 16 61 b9 bb
       -0.049198672 0.25196138 0.015404896 -0.0056573255
0000e0 85 2c 50 3e 95 90 ba 3c f2 bb b5 3d 37 95 fb bd
       0.20329483 0.02277402 0.08873738 -0.1228432
0000f0 ac 77 a2 3d 97 6e 39 3c 9d f8 c4 3c e3 86 43 3e
       0.07932982 0.011317871 0.02404433 0.19094424
000100 ff ac 86 3d 27 1b dc 3d 54 ac 08 3d 92 df 13 3d
       0.06575965 0.107473664 0.03336747 0.036101885
000110 72 84 66 3e fb 53 c6 bd 02 5d ee 3c b0 be 3e 3c
       0.22511461 -0.09683987 0.029097084 0.011642143
000120 dd e8 a0 3d 66 4c 17 3d ee 89 71 3d 05 91 db bd
       0.07856915 0.036938094 0.05896943 -0.1072102
000130 f8 3c 35 be 6f 99 a2 3b b8 a4 e6 bc 22 8f e2 3d
       -0.17699039 0.0049621384 -0.028154716 0.11062457
000140 f4 5e d9 3d 81 4a 11 3d 18 5e 11 3e 53 ab ac 3d
       0.10613814 0.035471443 0.1419605 0.08431115
000150 3a c2 ef 3d 1c 5a 1d 3d 01 4a 13 3d 61 33 02 3e
       0.11706968 0.038416013 0.035959247 0.12714912
000160 2a 77 d4 bc 0f b1 c1 bd bb b9 27 3e 74 7a 2d 3d
       -0.025935728 -0.09457599 0.16379444 0.04235311
000170 c1 8b a4 bd e4 5a 04 bd 27 c7 5e be fa b4 a0 bb
       -0.080344684 -0.032313243 -0.21755658 -0.0049043866
000180 ae 21 1b 3e 7e 57 12 be a9 eb b2 3d 25 6f 1e 3e
       0.15149567 -0.14291188 0.08736355 0.15472086

Y.net.1.0.weight f4 [100, 100]
000000 65 73 ef bc 6d 35 27 3d 99 5c 73 be 3f 1a 6c 3e
       -0.02922983 0.040822435 -0.23765792 0.23056887
000010 60 68 79 3c 8b 42 05 3e 70 92 0f be 26 e2 b7 3d
       0.015222639 0.13013665 -0.14020705 0.08978681
000020 16 4e 47 be 90 f0 06 3e 85 88 b4 3d 9e d6 ab bd
       -0.19463381 0.13177705 0.088151015 -0.08390544
000030 9c 3c bc 3d f4 86 49 bd 1e 55 1c 3d 47 e6 88 3d
       0.09191248 -0.049200967 0.03816711 0.06684547
000040 6b c7 d0 3e 23 cf 1d 3c 47 b4 aa 3d cb 42 28 3e
       0.40777144 0.009631905 0.083351664 0.1643173
000050 7a 60 60 3e 6c 29 9f 3d 28 ed e7 3c 70 9e 5c bd
       0.21911803 0.077715725 0.028311327 -0.053862035
000060 2f 40 b8 bd 37 b1 2f 3e bb 9a 71 be 34 7c 6c bd
       -0.08996617 0.17157446 -0.23594181 -0.057735637
000070 c1 6b b4 3d 93 a8 96 bd 1b db b4 bd 1e e9 c3 bc
       0.08809615 -0.07356372 -0.088308536 -0.02391487
000080 c9 ab a0 bd 84 80 0f be 10 90 58 3e 27 04 3a bd
       -0.078452654 -0.14013869 0.21148705 -0.045414116
000090 3d 77 2b bd 1a 74 f0 3d db b2 0c 3d 4b b6 0a be
       -0.04186176 0.117408946 0.034350257 -0.13546102
0000a0 ac 35 cb bd cd 37 71 be 57 ca 5d be 2b 61 90 3d
       -0.099223465 -0.23556443 -0.21659218 0.07049783
0000b0 cc 30 19 3d 30 50 c9 3c 4d 8a 14 3e 33 6a 0a 3e
       0.037400052 0.02457437 0.14505883 0.13517074
0000c0 da fc d5 3d 29 7d 27 be 0d 09 00 3e 86 b5 5f bd
       0.10448618 -0.16356339 0.12503453 -0.054616474
0000d0 25 00 ef be 8c 3c 4d 3d ee e7 b2 3b 57 29 0a bc
       -0.46679798 0.05010657 0.005459777 -0.008432708
0000e0 6e e9 67 be 67 66 72 3e 07 8b 01 bd f0 f8 bc bd
       -0.2264764 0.23671876 -0.031626727 -0.092271686
0000f0 49 b6 c1 3d 8f 59 86 b9 63 32 3f 3c fb 04 c2 be
       0.09458596 -0.00025625198 0.011669728 -0.37894425
000100 10 18 a9 3e 74 63 19 3d 91 ba 15 3e 08 75 a9 be
       0.3302617 0.03744836 0.1462195 -0.330971
000110 69 52 42 3e c4 b7 63 bd 85 97 72 3e 5d 79 80 3d
       0.1897675 -0.055595174 0.23690613 0.06273148
000120 5f c1 2a be 62 70 be be 27 b0 31 be 09 bd 06 3c
       -0.16675328 -0.37195116 -0.17352353 0.00822378
000130 4d cb 2f bc bc a0 8a 3d 61 87 ad bd b4 ba 0e 3e
       -0.010729623 0.06768939 -0.08473087 0.13938409
000140 90 e7 18 be 98 9c b0 be 33 49 c1 3c 5a b6 a9 3e
       -0.14932084 -0.34494472 0.023594474 0.33146936
000150 58 0d 9b 3d b9 38 0f be d8 26 58 bd 5a e0 d3 3e
       0.075709045 -0.13986482 -0.05277142 0.41382104
000160 01 a8 90 3e a3 59 c5 3d 31 63 0b be 73 ed 58 bd
       0.28253177 0.096362375 -0.13612057 -0.052960824
000170 70 cd 14 bd 41 74 1b be 22 1f 10 be 52 85 7e 3e
       -0.036328733 -0.15181066 -0.14074376 0.24855545
000180 b2 8e 0c 3e 66 7d a2 3a 7e 80 2d 3e 37 b1 9b 3d
       0.13726309 0.0012396991 0.16943547 0.076021604
000190 fd c2 16 3b 9d 17 9c bd 10 85 9d 3e 63 e6 9d bc
       0.0023004406 -0.076216914 0.3076558 -0.019274896
0001a0 21 2e 80 be 32 55 76 3e 90 67 ed 3d 75 d2 61 be
       -0.25035194 0.24055937 0.115920186 -0.22052939
0001b0 68 99 67 be eb 67 32 be 9c 8f 6c bb d9 22 b0 bc
       -0.22617114 -0.17422454 -0.003609634 -0.021500992
0001c0 0b d2 67 bd 7f e7 50 be 63 fa 19 bc 82 a3 21 3e
       -0.056596797 -0.20400809 -0.009398076 0.1578503
0001d0 e1 f0 a8 3e 83 a5 c0 3d a3 9d ae 3e 71 93 e9 3b
       0.32996276 0.09406569 0.34104642 0.007128172
0001e0 63 21 a7 be 78 65 b9 be a2 8a b0 3d 8e a2 18 be
       -0.3264266 -0.36210227 0.08620192 -0.1490576
0001f0 76 86 5b 3d 0a 57 18 3e 28 95 32 be 67 99 d0 3e
       0.05359503 0.14876953 -0.17439711 0.40742037
000200 45 8a 3c bd 37 9a ae be 0a 21 99 be f2 1a 5f bd
       -0.0460303 -0.34102032 -0.2990802 -0.054469056
000210 90 40 99 bc 1a cc 8f bd 9f 04 30 be 98 56 0f be
       -0.018707544 -0.07021351 -0.17189263 -0.13997877
000220 33 cb c7 3c 55 3d 93 3e 3f 65 8f bc 05 3d 46 3e
       0.024388885 0.2875773 -0.017504333 0.19359215
000230 8f 95 73 be 25 b3 c4 be 5e ba 8a 3e 04 65 8a bd
       -0.23787521 -0.38417926 0.27095312 -0.067575485
000240 a2 20 47 3e 55 91 4a 3d dc 51 e3 3e aa c2 12 3e
       0.19446042 0.049455006 0.4439839 0.14332071
000250 7f bb 64 be e7 20 63 be c6 e9 07 3d a4 78 18 3e
       -0.22337149 -0.2218052 0.033181928 0.14889771
000260 b5 6f 05 3c 1d 18 03 3d 9a cc 7e 3e b1 11 ee 3d
       0.008144309 0.032005418 0.24882737 0.11624468
000270 df ac 67 3d 8d 80 98 3e d7 d9 8e bd 24 2e ab 3d
       0.056561347 0.29785576 -0.069751434 0.0835841
000280 9c 1e 26 3e d5 1d a9 3d ca 8b b0 3e 6f e9 8d be
       0.16222614 0.08257643 0.3448165 -0.27717158
000290 1c 74 b2 3e 16 3e ac 3e bd 3b 48 be 5b 8b 0b bd
       0.3485421 0.33641118 -0.19554038 -0.034068447
0002a0 d9 fc 14 be 0b 4c 06 3e 04 df 9d 3e 8a 6c 74 be
       -0.14549579 0.13114946 0.3083421 -0.2386953
0002b0 70 9a 84 bd 6f 14 97 3e be e2 15 be b0 2b 67 3d
       -0.06474769 0.29507777 -0.14637277 0.056438148
0002c0 c5 7c ec be e4 a2 4f 3e 97 f8 42 3e cb 7f 32 bc
       -0.46188942 0.20276982 0.19040142 -0.010894726
0002d0 d5 9d 85 3d 78 f8 14 be 81 a3 11 3e 18 9e 00 3e
       0.06524245 -0.14547908 0.14222528 0.12560308
0002e0 d7 b9 5f be 03 91 27 3e 12 e1 0c b9 80 9b fb bd
       -0.21848236 0.16363911 -0.00013435286 -0.12285519
0002f0 95 88 09 3e b8 3e b9 be 7c 37 c0 bd 78 43 7a 3d
       0.13431008 -0.36180663 -0.09385583 0.0610995
000300 f5 94 81 3e 99 ce 70 be 92 86 8c be ae ba 05 be
       0.25308958 -0.23516311 -0.2744642 -0.13059494
000310 af a3 24 3e ee 09 95 be ad c5 1a 3d d1 8f 52 be
       0.16078065 -0.29109138 0.037786175 -0.20562674
000320 f6 54 b8 3d 76 07 d0 3a 66 84 03 3e f6 a7 a5 3e
       0.0900058 0.0015871364 0.12843475 0.32354707
000330 bc 94 fc bd 22 3b fe 3e fe d8 c1 3d 16 6c 4c 3d
       -0.12333056 0.4965449 0.09465216 0.049907766
000340 5c b5 8a be ff 8a 66 3e da 38 06 be d6 b9 8d bd
       -0.2709149 0.2251396 -0.13107625 -0.06920211
000350 54 66 24 3e b6 a2 b2 3d 1a e1 7e be 2f ed 9e bd
       0.1605466 0.08722441 -0.24890557 -0.07760083
000360 73 89 26 bd a0 54 46 be 99 2d 54 3d 6b 77 f7 bc
       -0.040658426 -0.1936822 0.051801298 -0.03020831
000370 a2 f5 50 bd 91 a4 4e 3e 7f 43 0e 3f a4 b4 88 3e
       -0.051015504 0.20179965 0.5557174 0.26700318
000380 12 42 b3 be ac 6d c8 39 55 80 8d bd b4 ce 19 be
       -0.35011345 0.00038228685 -0.06909243 -0.15020257
000390 ef 61 5f be c8 bf 82 3d 2c 9a 71 be ee 8a 24 3e
       -0.21814702 0.063842356 -0.23593968 0.16068622
0003a0 3f 2e 64 be ca f3 14 bd c4 a5 9f 3d d9 ac 04 3e
       -0.22283266 -0.036365308 0.07795289 0.12956561
0003b0 47 dd f7 3a dd 12 dc bd c0 09 76 3e b9 16 0e be
       0.001891055 -0.107457854 0.24027157 -0.13875856
0003c0 49 92 72 bd de 4b ed be ab d1 17 3e 19 d6 ce 3e
       -0.05922154 -0.46346945 0.14826076 0.4039772
0003d0 89 aa 7b 3e a4 bc 8e 3d 76 23 c2 3e f3 ce 06 bc
       0.24576773 0.06969574 0.3791768 -0.0082280515
0003e0 18 5e 47 3b 81 88 a7 be c8 d1 56 be a2 5c 9b 3d
       0.0030421074 -0.32721332 -0.20978463 0.07586028
0003f0 3c ae c2 be 72 c1 4f 3e e1 77 a2 3e 74 a9 61 3e
       -0.38023555 0.20288637 0.31732085 0.22037297

Y.net.1.0.bias f4 [100]
000000 40 58 bb ba 57 4d fc bd 5f fe 71 be 28 13 42 3e
       -0.0014293268 -0.12319439 -0.23632191 0.1895262
000010 3a 03 ef 3d f8 bf 4c bc c9 36 0b 3e dd d1 8c bc
       0.11670537 -0.012496941 0.13595118 -0.017189914
000020 c2 7b 11 3e 51 b4 91 bc 9f b4 ce 3d 62 fc 87 3b
       0.14207366 -0.017786177 0.100930445 0.0041499594
000030 78 1d 26 3e 4f b8 4a bb d2 1c a5 3c f8 6e 51 3d
       0.16222179 -0.003093261 0.020155344 0.05113122
000040 7e 23 34 bb 71 cb f7 3d bb 30 0f 3e f8 99 69 bd
       -0.0027486975 0.1209935 0.13983433 -0.0570316
000050 ab 04 9c bd 27 47 82 3c 70 6c 80 3e c0 d9 a7 3c
       -0.07618078 0.015903069 0.2508273 0.020489573
000060 12 01 85 3d 0c ea c2 bb 3a 57 a7 3c 7a bf a1 3e
       0.06494345 -0.0059483107 0.020427335 0.31591398
000070 28 7f 46 3e b3 d1 86 3c 6b a1 fa 3d 2b 54 52 bd
       0.19384444 0.016457414 0.12237819 -0.0513498
000080 7e e9 01 3b f4 48 e1 bc ff 1a 84 3d 79 9d 07 3c
       0.001982301 -0.027500607 0.064504616 0.0082772905
000090 d1 63 c0 bd 9b 48 7d 3d 49 be a7 3d ec ce 58 bd
       -0.093940385 0.06183682 0.08190591 -0.05293171
0000a0 8c f2 01 bc 2f ec 49 3d 1c f6 31 bd b7 fa c5 3e
       -0.007931363 0.049297508 -0.0434476 0.38667843
0000b0 c5 a5 d4 3d 22 85 21 3d 78 e2 30 bc 4c e4 7c 3e
       0.103831805 0.039433606 -0.010796182 0.24696463
0000c0 44 5b ab 3d 8e 48 f7 3d be 8b ab 3d be f6 3b bd
       0.08367017 0.120743856 0.08376263 -0.04588961
0000d0 ba c1 f8 bd 71 ef 80 3b 80 75 f5 bd 43 76 08 3d
       -0.121463254 0.0039347936 -0.11985302 0.03331591
0000e0 5a 79 02 3e be 92 99 3d 3f e2 28 3e 8a af d5 3d
       0.12741604 0.07498692 0.16492556 0.10433872
0000f0 22 6d 2c bd 90 a6 36 3d 3f 7a f8 3c 1f e4 5e bd
       -0.042096265 0.04459244 0.030331729 -0.054416772
000100 88 83 ee 3d 5a a0 be 3d 4c d9 c3 3d 32 ef 84 bd
       0.11646181 0.093079284 0.095629305 -0.064909354
000110 74 eb 85 3e 7a 6b 40 bc 61 c6 89 bd c7 e1 22 3e
       0.261562 -0.011744374 -0.06727291 0.1590644
000120 51 2a 9d 3d f3 44 ae 3d 16 9b fe 3d 34 8b fa bd
       0.07674087 0.08509245 0.12431924 -0.12233582
000130 50 fc e0 3d d3 36 47 3e 13 dd 8c be 06 22 aa bd
       0.10985625 0.19454508 -0.27512416 -0.08307271
000140 d3 a5 0d 3d 69 0e f5 ba 9b 6d 78 3d d6 d1 b7 3d
       0.03458197 -0.0018696311 0.060651403 0.0897557
000150 99 9c 97 bd 13 64 b6 bc ca 93 e1 3c 13 af 4e bd
       -0.074029155 -0.022264516 0.027536292 -0.050459933
000160 04 6a 23 3d 21 51 8c bc 8f 63 37 3e 00 06 b1 3d
       0.039896026 -0.017128529 0.17909072 0.086437225
000170 d3 88 40 3d e3 a7 3b bd 90 17 16 3c 9a 5d 73 bc
       0.047005486 -0.045814406 0.009160891 -0.014853859
000180 2c f0 16 bd 0a 95 0e 3e dd 95 16 3e 86 08 50 3e
       -0.03685014 0.13924041 0.14705606 0.20315751

Y.net.2.0.weight f4 [100, 100]
000000 fb b5 13 be 89 e1 af bc ad a2 d3 be 24 63 16 3e
       -0.14424889 -0.021469848 -0.4133505 0.14686257
000010 45 6f 6d 3e ef 09 b1 3b cc 55 74 be 11 3d 81 3e
       0.23186977 0.0054027955 -0.23860854 0.25241902
000020 55 68 0b 3d 28 ef 6d be 8f 25 c6 3b 55 cf 1a 3e
       0.034035046 -0.23235762 0.006046958 0.15118153
000030 79 20 5b bd 1e ab 28 be 5f 1e fc bb f6 52 a9 bd
       -0.053497765 -0.16471526 -0.00769405 -0.08267777
000040 54 b0 b9 be 70 de 80 3e 54 05 f1 bd e4 81 68 3d
       -0.3626734 0.25169706 -0.117685944 0.0567645
000050 24 eb 11 3e 37 28 fc 3e ee d1 8e be f1 f0 f8 3d
       0.14249855 0.49249431 -0.2789454 0.12155331
000060 39 eb ba 3d 84 f7 8e be c5 62 0a be c7 5f 8b be
       0.091268964 -0.27923214 -0.1351424 -0.2722151
000070 46 30 2e bd 9d 75 2d 3e 8a 25 be 3d 85 b5 31 3e
       -0.042526506 0.16939397 0.09284504 0.173544
000080 53 19 ec bd f3 ad 4a be e8 ed 80 bc 61 87 18 3d
       -0.11528268 -0.19792919 -0.015738443 0.037238482
000090 ed f0 33 be e9 90 94 bd c3 6e 54 3e ba 15 6d bd
       -0.17572375 -0.07254202 0.20745377 -0.05788205
0000a0 1a b8 54 3e 0c 76 96 be 1b 86 43 3c 60 b3 2b bd
       0.20773354 -0.29386938 0.011933829 -0.041919112
0000b0 9b de c4 be 8a 23 94 be a9 d5 5f be 37 e0 5e be
       -0.38451084 -0.28933364 -0.21858849 -0.21765219
0000c0 b9 93 26 be 75 2e 29 3e 15 61 e3 3d 36 fd 87 be
       -0.16267289 0.16521628 0.11102501 -0.26560372
0000d0 5c d7 ad bb e7 c0 0f be be 51 b7 be 13 c6 d9 be
       -0.005305214 -0.1403843 -0.35804552 -0.4253393
0000e0 71 eb 2b be 3b 35 21 be c8 60 71 be ec 57 04 be
       -0.16789033 -0.15742962 -0.23572075 -0.12924165
0000f0 54 b3 cb 3c 30 d5 a5 bd 0f a7 62 be a2 56 33 3e
       0.024865784 -0.08097303 -0.2213404 0.17513517
000100 10 d8 99 3c 29 5f 52 3c 53 51 93 bd c2 b0 ef 3e
       0.018779784 0.012840071 -0.07193246 0.46814543
000110 2c 0d 3e 3f 1a 93 74 bd e4 d6 b1 bd 36 09 44 3e
       0.7423885 -0.0597106 -0.08683565 0.19144139
000120 c2 88 c3 3e 40 d1 52 be b2 fe 0e 3e 84 2c d9 be
       0.38190275 -0.20587635 0.13964346 -0.42416775
000130 8b 9c ea 3e f1 5d be 3e ea 12 0b 3e 48 22 af be
       0.45822558 0.37181047 0.13581434 -0.34205842
000140 e6 68 44 be 8b 9d d4 3e 43 28 ac be cd b5 96 3d
       -0.1918064 0.41526446 -0.33624467 0.073588945
000150 44 5b b1 3c f4 07 06 be c9 47 2d be 0b bc 76 bc
       0.021649964 -0.13088971 -0.16921915 -0.015059481
000160 32 27 40 be 64 d9 19 be e6 8c 0e bd 70 44 dc bd
       -0.18764952 -0.15024334 -0.03480234 -0.10755241
000170 9c 97 bf 3b 4e 8c a1 3c 09 39 09 3e f6 11 5a 3c
       0.0058469307 0.019720223 0.13400663 0.013309946
000180 2d b8 8e be a0 93 c2 bd 8a c2 ac be 3b 32 66 bc
       -0.2787489 -0.095008135 -0.33742172 -0.014050062
000190 a6 05 90 3e d2 fb ad bc 2a 4b 78 be 32 10 19 3e
       0.2812931 -0.021238241 -0.24247423 0.14947584
0001a0 97 50 76 3d 02 a1 26 3d 48 a0 3b be 06 65 6e 3e
       0.06013545 0.040680893 -0.18322861 0.23280725
0001b0 69 76 76 3e 79 92 01 bf 70 5a 59 3e b4 df 28 3e
       0.24068607 -0.50614125 0.21225905 0.16491586
0001c0 d7 a2 18 3e 26 35 ef bd 1b 90 5d 3e dd bc 7d be
       0.14905868 -0.11680059 0.21637003 -0.24779077
0001d0 b8 12 86 3e 52 19 8a 3c 84 0e 03 bd 5c 3f fc 3d
       0.26186156 0.016857777 -0.031996265 0.12316772
0001e0 b8 6c 4d 3e 4e 28 02 3f ab 79 16 be 5d 99 8e bc
       0.20061004 0.5084275 -0.1469485 -0.017407114
0001f0 40 1d 2a 3d 7f 71 d7 be 39 08 f8 bc 5c 9e b9 be
       0.0415318 -0.42078778 -0.030277358 -0.3625363
000200 a1 cf 84 3e a4 df 28 3e 79 19 c5 bd 23 4a 7a 3e
       0.25939658 0.16491562 -0.09623999 0.24442343
000210 f8 99 b1 bd ce 84 81 be 95 5b 3b 3e 4d 41 87 3b
       -0.08671945 -0.25296634 0.18296655 0.0041276575
000220 54 19 53 3e d9 75 2a 3e 83 03 ff 3b 7d 88 fe 3c
       0.2061513 0.16646518 0.007782401 0.031070942
000230 46 d2 d1 3c 84 f9 a6 bd 2c 71 1d 3d 30 3c 2e bc
       0.025612962 -0.0815306 0.038438007 -0.010634467
000240 18 f7 98 be f2 e9 60 bd 17 16 d3 bb 78 37 9d bd
       -0.29876018 -0.054910608 -0.0064418423 -0.076765954
000250 a3 5a 7c be cd d8 03 be c0 cd 07 bd 61 f4 22 be
       -0.2464395 -0.12875672 -0.033155203 -0.15913536
000260 00 fb 18 3d cb a2 8f be 4f ae 1f bf 3f ef c0 bd
       0.037348747 -0.2805389 -0.6237535 -0.094206326
000270 f9 8b 16 be a8 64 1d be a0 5b bc bd 24 90 83 bc
       -0.14701833 -0.15370429 -0.091971636 -0.016059943
000280 93 2e e2 bc ee 2c c6 bd 71 78 93 3c 50 93 18 3e
       -0.027610099 -0.096765384 0.018001767 0.14899945
000290 c6 24 94 3d cc cd 4d be e0 6b 05 3e bd eb 4f 3e
       0.072335765 -0.20098037 0.13029432 0.20304771
0002a0 ce 97 9f 3e e6 ba 99 3e e9 3b 27 bd 8d ae 9a bc
       0.31170505 0.30025405 -0.04082862 -0.01888206
0002b0 43 a9 3e 3e ff 7a 57 3d ca 4d 32 3e 6b 89 3d be
       0.18619256 0.052607533 0.17412487 -0.18509452
0002c0 14 74 52 3e f5 46 08 3d 5c 03 62 3e 32 d6 96 3d
       0.20552093 0.033270795 0.22071594 0.07365073
0002d0 fd 6e 0b bc 90 0a 28 3e a0 f8 64 be 86 8f 0d 3e
       -0.008510348 0.1641028 -0.22360468 0.13824281
0002e0 f1 be b6 3d b6 38 e5 bd fb 1e 51 3e 3b c6 22 be
       0.08923138 -0.111924574 0.20421974 -0.15895931
0002f0 e0 65 93 3e 26 61 0f 3e fe 91 f9 bc f8 88 b0 be
       0.28788662 0.14001903 -0.030465122 -0.344795
000300 8b dd 63 be 52 aa 50 3e ca fe 95 3d 69 c2 3c 3e
       -0.2225248 0.20377472 0.07323988 0.18433537
000310 72 96 a5 be ed 68 d7 3d 2e 36 5b bd db 1c 90 3d
       -0.32341343 0.1051806 -0.053518467 0.07036754
000320 90 43 cd bd 73 9f dc be 50 63 6b be 6e f6 91 be
       -0.10022652 -0.430904 -0.22987103 -0.28508323
000330 ea 1f 0c 3e 3d 3d 4d bd 01 94 0c bf f3 d6 ba bd
       0.13684049 -0.05010723 -0.54913336 -0.091230296
000340 e9 a3 d1 bd f0 43 fb bd ca 9b 0d 3e 9a ae a7 3d
       -0.102363415 -0.122688174 0.1382896 0.081875995
000350 76 e6 06 3f 62 65 e4 3e a9 0d 5b be 18 64 bc 3d
       0.52695405 0.446086 -0.2139193 0.09198779
000360 69 f7 70 3e 98 8f 48 3e c2 ef 8d 3e 86 01 ac be
       0.2353188 0.19586027 0.27721983 -0.33594912
000370 c6 6c fc 3d a5 93 1c 3e 70 b6 12 be 69 b7 e8 3e
       0.123254344 0.15290697 -0.14327407 0.4545243
000380 1d 40 a4 3e 79 40 ad 3d 26 0a 22 3e 53 37 c3 be
       0.32080165 0.08459563 0.15824184 -0.38128147
000390 ef b2 50 be fc 4f 0f 3f 0b 70 89 be 15 a7 f5 bc
       -0.20380758 0.5598142 -0.26843295 -0.029986897
0003a0 17 eb 8f 3d 2d 30 b3 be 6a 5a a3 3c 61 e4 01 3e
       0.07027262 -0.34997693 0.019940574 0.12684776
0003b0 88 0b bb 3e 8f ae bb be 9b da 73 be 1d e9 34 bc
       0.36532235 -0.36656615 -0.2381386 -0.011041907
0003c0 36 78 86 3e 9b c6 5b 3e 84 9b 08 be ac 1c 2e be
       0.2626359 0.2146248 -0.13340575 -0.17003125
0003d0 da 02 1f 3d 54 43 a2 3d 81 1f 6e bc 3f be 17 3e
       0.03882108 0.07922998 -0.014533878 0.14818667
0003e0 e0 69 97 3e f3 b4 41 3e 2c fb 82 3d cf e7 6c 3e
       0.29572964 0.18916683 0.063955635 0.23135303
0003f0 5f 2a 0b 3e 6b a5 b0 3e 7a d3 ad be a1 b9 c8 3d
       0.13590382 0.34501204 -0.33950406 0.09801031

Y.net.2.0.bias f4 [100]
000000 f7 e7 cb 3d 82 81 ce 3d 3a 48 7d be 16 ba a9 3d
       0.09956353 0.100832954 -0.24734583 0.08287446
000010 fc f3 02 3e 89 dc c6 3d 52 7f 5f 3e f1 c1 ea 3d
       0.12788385 0.097100325 0.21825913 0.11462773
000020 6d 61 22 3e 80 ef 2e 3d c8 6e 35 3e 82 aa bc 3d
       0.15857477 0.042708874 0.17718041 0.09212209
000030 a2 64 90 3c 6d 1c 3e bd 35 17 4b 3d 43 4a 90 3d
       0.01762611 -0.046413828 0.04958268 0.07045414
000040 fd f3 c9 3d 4f 29 fd 3c 6b 7c 43 3e 7a 57 9a 3d
       0.0986099 0.030903487 0.1909043 0.07536216
000050 6c 02 06 3e ea 34 00 3e 07 66 07 bf af fb 20 3d
       0.13086861 0.12520185 -0.52890056 0.039302524
000060 a0 57 53 3d ea e7 77 3e 21 48 f7 3d 0e e2 27 3e
       0.051597238 0.24209562 0.12074304 0.16394827
000070 e5 ac cd 3d 33 64 b2 3d e8 46 47 3d 34 b5 52 bd
       0.10042743 0.08710518 0.048651606 -0.05144234
000080 e2 64 1a 3c f4 7f c0 3d d6 29 91 3e 14 5d 8d 3d
       0.009423466 0.09399405 0.2835223 0.06902519
000090 6e 56 b4 3c 12 c6 33 3e a5 6b 6c 3d c1 9c b4 bb
       0.02201387 0.17556027 0.057719845 -0.0055118506
0000a0 b0 57 93 3d f8 c7 4e bd 62 e7 60 3d 3a cd 4d 3e
       0.071944594 -0.050483674 0.054908164 0.20097819
0000b0 d9 43 87 bd 2f d7 0d 3e 8a a4 2f 3e b7 e2 91 3d
       -0.06604738 0.13851617 0.1715261 0.071233205
0000c0 99 a0 7e 3e 15 8c 5c 3e e9 28 a9 3d 7a 54 84 3e
       0.2486595 0.21537812 0.08259756 0.258457
0000d0 10 1e ea 3d 7b fe fb 3c 7e 11 01 be a6 e2 2e 3e
       0.11431515 0.030760994 -0.12604329 0.17078647
0000e0 a4 f4 b3 bc 3b ef 50 3e c4 ad 99 3e b3 48 e8 3d
       -0.02196724 0.20403759 0.30015385 0.11341991
0000f0 93 da 54 3d 52 9a 99 3d f5 90 4c 3d d9 8c 6f bd
       0.05196626 0.075001374 0.04994293 -0.058483932
000100 42 41 0d 3e 8b b2 01 bd 50 f8 48 3e 40 2d 39 3d
       0.13794425 -0.031664412 0.19625974 0.04520917
000110 cd eb a0 3d 1b 5f 47 3e bc 00 82 ba f8 86 17 3e
       0.078574754 0.19469874 -0.0009918432 0.1479758
000120 39 e2 01 3d 7c 64 e7 3d a7 f9 40 3e 0a 3c 06 3e
       0.031709883 0.11298463 0.18845235 0.1310884
000130 38 c9 21 3e 62 1b bd bd 56 aa 47 3e 87 33 37 3e
       0.15799415 -0.092337385 0.19498572 0.1789075
000140 85 a6 21 3c e7 89 ca 3d 0c 15 e4 3d 76 e4 26 3d
       0.0098663615 0.09889584 0.11136827 0.04074522
000150 b1 82 a0 3d db 95 2c 3e 6e af 0e 3e 8e 0d 0d bd
       0.078374274 0.1685404 0.13934109 -0.034436755
000160 36 be 48 3e 3a 77 e0 bd 96 36 c0 3e af 43 b4 3d
       0.1960381 -0.10960241 0.37541646 0.08801972
000170 c7 ee 7b 3e 1e f8 bf 3d 56 e2 2a 3e de a6 3f 3e
       0.24602805 0.093734965 0.16687903 0.18715999
000180 0d c5 1c bc ed fe 67 3d 59 97 10 3e f0 99 74 3e
       -0.009568465 0.0566396 0.14120235 0.23886847

Y.net.3.0.weight f4 [100, 100]
000000 14 14 3f be 9c 78 9e 3e f6 27 26 bd 39 79 3d be
       -0.18660003 0.30951393 -0.040565453 -0.18503274
000010 bc d0 27 3c 32 e5 d0 bc 03 cb 4f bd ca 12 c0 3e
       0.010242637 -0.025499914 -0.050730716 0.37514335
000020 02 72 d4 3c 5d 9a 2d be df a4 01 3e 78 55 b0 bd
       0.02593327 -0.16953416 0.1266055 -0.08610052
000030 ca 53 bf 3d 65 1f 5f be c1 ed ca 3d e3 9d 5d 3e
       0.09342153 -0.2178932 0.09908629 0.2164226
000040 41 60 b6 3d 98 01 3b 3e 91 bc c9 3e 61 0d 14 be
       0.08905078 0.18262327 0.39401677 -0.14458229
000050 20 2e 58 bd ec 1c 4c be ff 66 88 be 1e 2a 9a 3d
       -0.052778363 -0.19932908 -0.2664108 0.075275645
000060 f0 c9 0b bc fa 7f 06 3e c1 5e 1c be 20 68 a7 3b
       -0.008532032 0.13134757 -0.15270521 0.005108848
000070 28 d2 44 3e 94 67 12 be 9b 8b df bd f1 0c 50 3e
       0.19220793 -0.14297324 -0.109152995 0.20317437
000080 4c 04 e1 3e ca 1d da 3d 26 47 aa bc 31 65 ac be
       0.4394859 0.10650213 -0.02078588 -0.33670953
000090 6e a8 f3 bd d4 9d 3d 3b f7 42 76 3e 04 97 df 3d
       -0.1189736 0.0028933184 0.24048983 0.10917476
0000a0 cf 68 88 be 6a 20 00 bf f4 12 d6 be a0 d4 c8 bd
       -0.26642463 -0.5004946 -0.41811335 -0.0980618
0000b0 14 cc 1e be 76 39 04 be 9d 15 c6 3d 17 97 4e be
       -0.15507537 -0.12912545 0.09672091 -0.20174824
0000c0 79 02 a4 3d dc 37 d4 3e e8 30 a8 bd c2 25 bf 3e
       0.08008284 0.41448867 -0.08212453 0.37333494
0000d0 78 5d f8 bd 94 3c f5 bd 9f 1f 93 be 1e a0 02 be
       -0.12127203 -0.11974445 -0.28735062 -0.12756392
0000e0 85 20 57 be f9 ec 8a be cd aa 22 3e ce 94 11 3e
       -0.21008499 -0.2713392 0.15885468 0.1421692
0000f0 3c 4b 08 bd e3 a0 2e 3d fc 82 1a bd 21 61 e9 3d
       -0.033274874 0.042633902 -0.037722573 0.11395479
000100 2e 0e 9b be 19 8e 40 be 46 95 71 3e 0b 52 83 be
       -0.30284256 -0.18804206 0.235921 -0.2564853
000110 07 6f 90 3d 3c f2 e7 3d 07 95 11 be 19 67 d2 3e
       0.07052427 0.113254994 -0.14217006 0.41094282
000120 48 19 aa 3e 1d df c5 bd c2 70 75 3d 94 8a c3 be
       0.33222413 -0.09661696 0.059921987 -0.38191664
000130 e2 e3 f4 3e 6d 6e 16 3e 7e 02 a9 3e 1b 86 92 be
       0.4783011 0.14690562 0.33009714 -0.2861794
000140 15 31 56 bd 4e 0e 99 be 32 5e 2a 3e 91 b9 b7 3d
       -0.052292902 -0.29893726 0.16637495 0.08970941
000150 10 b6 7d 3d 8c 18 ed 3d e3 8a c9 3e 4d 6c 40 bd
       0.061941206 0.115769476 0.39363775 -0.046978284
000160 a5 78 33 bc c7 04 56 bd f8 b8 2d be b9 2d 29 3d
       -0.010954057 -0.05225065 -0.16965091 0.04130337
000170 58 b7 d2 3d 5d a5 58 3e 89 3c 60 bc 07 6f 1e 3f
       0.10288876 0.21156831 -0.013686308 0.61888164
000180 d9 82 09 be e9 8a 08 3f 05 a4 a1 3d fd c0 85 be
       -0.1342882 0.5333696 0.07892612 -0.261238
000190 06 2f d1 bd d3 e0 f9 be 98 cc 56 3e e1 2d 38 be
       -0.10214047 -0.4880434 0.20976484 -0.17986251
0001a0 44 23 77 3e f9 18 c2 3d e3 d0 73 be 87 9c 09 bf
       0.24134547 0.094774194 -0.23810153 -0.53754467
0001b0 75 8d d9 be 82 9b b6 bd ac 06 e9 bd 7c 9c 10 bd
       -0.42490736 -0.089163795 -0.11378226 -0.035305485
0001c0 61 c3 25 3e f4 6a 16 be 0c ed 9e 3e 70 e6 35 3e
       0.16187812 -0.14689237 0.31040227 0.17763686
0001d0 6e a7 dd 3c d1 a9 ac 3c 14 8e 03 3f b5 4a 4b 3e
       0.027057376 0.021077069 0.5138867 0.19852717
0001e0 07 e6 34 3d 4f 5e 1a be b0 fd 5a 3e 7f 05 4a bd
       0.044164684 -0.15075038 0.21385837 -0.049321648
0001f0 e2 d3 02 3e ef f9 97 bc 25 74 ce be ba 6b 60 3d
       0.1277614 -0.018551795 -0.40322986 0.054790236
000200 7f f5 e4 3c 9b ba 2e 3e 9d e4 13 be b5 25 e1 bd
       0.027949093 0.17063372 -0.14442678 -0.1099352
000210 90 68 1c be a0 75 b5 3d 76 b8 89 bd 41 c7 17 bc
       -0.15274262 0.08860326 -0.06724636 -0.009263814
000220 24 f7 a9 3b a2 77 64 be a6 5c b5 3c b1 dc df 3d
       0.005186932 -0.22311261 0.022138905 0.109307654
000230 7b ee 8d bc 03 36 e6 bd cd af 44 3d 25 70 f6 3c
       -0.01732563 -0.11240771 0.04801922 0.030082772
000240 9e 9c 10 3d 48 b7 80 3d b8 71 1a 3e 70 d3 20 3e
       0.03530561 0.06284958 0.15082443 0.15705657
000250 cb f3 b3 3d 91 02 8b be fd cd 2e 3e ed b8 01 3d
       0.08786734 -0.27150396 0.17070766 0.0316705
000260 11 82 50 be 0c 05 2e be a2 4e b1 3e eb 5d 36 bd
       -0.20362116 -0.16994113 0.34630305 -0.04452316
000270 83 6e b5 bd 56 20 c7 3d 50 7e 2c 3e 45 8c 16 3d
       -0.08858969 0.097229645 0.1684506 0.036754865
000280 07 56 04 3e a5 3b 7d 3e fb 04 5e 3e 84 60 0a 3d
       0.12923442 0.24729784 0.21681587 0.03378345
000290 96 12 09 3e 9b fe 5f bd 3f 43 07 be e5 e9 80 bd
       0.13385996 -0.05468617 -0.13209246 -0.06294612
0002a0 6c 12 82 be 7b 22 3f 3e ce 11 cf bd 2e 2d b7 be
       -0.2540468 0.18665497 -0.10110818 -0.35776657
0002b0 ba f5 72 be ae 00 d3 3e 5f 10 d2 be c4 15 e0 be
       -0.2372655 0.41211456 -0.41028115 -0.43766606
0002c0 9d ba 8a be 2b e7 13 be 81 e7 c6 3d 80 2d 2b 3e
       -0.270955 -0.14443652 0.097121246 0.16716576
0002d0 e3 6b 96 bd 84 1e 65 be da 30 d0 3e 9e 68 6a be
       -0.073447965 -0.22374922 0.4066227 -0.22891471
0002e0 66 14 e7 bd da e0 80 3e e2 78 c6 3e 52 fe 46 3e
       -0.112831876 0.25171548 0.387641 0.19432953
0002f0 16 de 55 3d d9 fa 06 3e 45 7c e7 bb c9 48 ca 3c
       0.05221375 0.13181628 -0.0070643746 0.02469291
000300 70 c4 ed bd aa 0d 7c 3e 02 e6 23 be 63 a9 da bd
       -0.11609733 0.24614587 -0.1600571 -0.10676839
000310 82 4f ad 3d 20 79 40 bf bb b4 34 be c1 0a cc bd
       0.084624305 -0.7518482 -0.17647068 -0.09962989
000320 a4 d1 3d 3c 28 83 8d bd e2 e0 d6 3d 0d d6 58 3d
       0.011585627 -0.06909782 0.10492112 0.05293851
000330 b3 79 d3 3b 49 94 fe bc 3e 50 4e 39 e7 66 d0 bd
       0.0064537167 -0.031076567 0.00019675583 -0.10175877
000340 81 98 67 3d 53 52 ab 3d d9 e1 5d 3e 42 59 a5 3d
       0.056541923 0.083653115 0.21668185 0.08073665
000350 79 67 85 3e a6 cf f3 be 11 e2 93 3c b3 7b 5a 3e
       0.26055506 -0.4761936 0.018052133 0.2133625
000360 87 a3 76 3e 2e d8 0f 3f fc cc bc bd 3c 86 b3 3d
       0.24085818 0.5618924 -0.09218785 0.087658376
000370 cb f9 60 be 97 4b f5 bc 27 32 5e bf bc 68 8e be
       -0.21970288 -0.02994327 -0.86795276 -0.2781428
000380 e9 ca 27 3e 8d 83 c4 3c e1 86 be bd 99 46 d0 3c
       0.16385998 0.02398851 -0.0930307 0.025424289
000390 e6 d8 c5 3d 96 3f 0d 3e 92 00 dd bb 19 1e ae bd
       0.09660511 0.13793787 -0.0067444528 -0.085018344
0003a0 0a fe 31 be 52 91 0d be bc 2a d1 bd 50 7a 3c 3c
       -0.17382064 -0.13824967 -0.10213229 0.011503771
0003b0 01 ca 95 be d2 de 0f 3e 07 a9 e7 bd 29 ed 9f bb
       -0.2925568 0.14049843 -0.11311536 -0.0048805666
0003c0 22 ef 04 be 40 ff e4 3d bf 2e 42 3d d5 31 7d be
       -0.12981847 0.111814976 0.04740786 -0.2472604
0003d0 f6 db f4 be 52 ee 92 bd ae 52 1c 3e a3 03 53 3d
       -0.47824067 -0.07174362 0.15265915 0.05151714
0003e0 20 dd 85 bd 9a 95 20 3e b7 fc ba 3e 78 52 d8 3d
       -0.06536317 0.15682068 0.3652093 0.10562605
0003f0 a0 cc a7 3d 8f c8 b8 be 16 f8 30 be 8f 8a 06 3e
       0.08193326 -0.36090514 -0.17282137 0.13138793

Y.net.3.0.bias f4 [100]
000000 95 0f 15 3e 02 e7 9a 3c 9e ed 67 3d 88 c0 e5 3d
       0.14556725 0.018908981 0.056623094 0.11218363
000010 32 a3 3a 3e 4f fb 90 3d 7f ad 33 3e dc 93 09 3d
       0.18226317 0.07079183 0.17546652 0.033588275
000020 ee 4b 03 3e b5 fc b1 3d fa f2 17 3e 3c 54 20 3e
       0.12821934 0.08690778 0.14838782 0.15657133
000030 b1 76 c6 3d 25 8c fe 3d b8 d7 b8 3d e5 25 d6 3d
       0.09690607 0.12429074 0.0902552 0.104564466
000040 e6 cd 3b 3e fd d7 2b 3e ba f6 34 3e 36 fe 03 3e
       0.18340263 0.16781612 0.17672244 0.12889943
000050 46 11 03 3e 93 11 42 3d 92 de 18 3d 67 77 56 3d
       0.12799558 0.04738004 0.037321635 0.052359965
000060 2f af c9 3d 07 5d 58 3e b2 6a 10 3e 94 ae 4f 3e
       0.09847867 0.21129237 0.14103201 0.2028144
000070 56 a2 b3 3d 8d 93 2f 3e 0e 34 c0 3d 49 9e 97 3d
       0.087711975 0.1714613 0.09384929 0.074032374
000080 4a d2 f1 3d 52 96 4b 3e e6 83 54 3e 78 e2 33 3e
       0.118076876 0.19881561 0.2075344 0.1756686
000090 b9 16 b9 3d e4 c9 2c 3e 67 ef 04 3e 85 b5 20 3d
       0.09037537 0.1687389 0.1298195 0.03923561
0000a0 a8 65 2f 3d ac 6f 58 3d 26 90 27 3d e9 a4 63 3d
       0.042821556 0.052840874 0.040908955 0.055577192
0000b0 82 10 5e 3e 1a c5 fb 3d 25 c9 64 3e 2e 5d 82 3e
       0.21685985 0.122934535 0.22342356 0.25461715
0000c0 53 82 35 3e ba e5 0d 3e 03 4d 88 3d f1 86 32 3e
       0.17725496 0.13857165 0.06655314 0.17434289
0000d0 a4 93 39 3d f0 9f 35 3e 5f 1b 83 3e f9 fc bf 3d
       0.045306817 0.17736793 0.2560682 0.093744226
0000e0 73 0d 21 3e 3e 75 24 3e 67 c7 f2 3d 0b cd a0 3d
       0.15727787 0.1606035 0.11854439 0.07851609
0000f0 30 14 b4 3d c9 f1 ec 3d e3 56 03 3e df f7 7b 3d
       0.08792913 0.11569554 0.12826113 0.061515685
000100 81 3a 01 3e 27 a8 fc be 6f f8 ac 3d 63 d6 34 3d
       0.12619974 -0.4934704 0.084458224 0.044149768
000110 2b 68 1c 3e 66 49 30 3e 06 8a ff 3d 1e 77 02 3e
       0.15274112 0.172155 0.12477498 0.12740752
000120 48 a2 a0 3d 8b c1 98 3c ff f8 28 3e 49 5b d5 3d
       0.07843453 0.018646976 0.16501234 0.10417802
000130 66 1b 82 3e a0 22 5c 3e 75 07 8e bd 59 ad 0f 3e
       0.25411528 0.21497583 -0.06935016 0.1403097
000140 ec 81 87 3d 00 e1 24 3d b8 00 cb 3d 80 be c6 3d
       0.066165775 0.04025364 0.099122465 0.09704304
000150 37 f0 2e 3e 07 8f 1e 3e 1b f3 0d 3e 5a 84 c4 3d
       0.17083822 0.15484248 0.13862269 0.095955566
000160 88 f9 22 3e e3 ad 28 bd 10 d3 19 3e 76 ee 94 3d
       0.15915501 -0.041181456 0.1502192 0.07272045
000170 cb 17 14 3e a6 56 86 3d fd 4a 11 3e 2c a9 f4 3d
       0.14462201 0.06559496 0.14188762 0.119463295
000180 b5 2c a3 3d e2 57 02 3e 1e e9 2b 3e 3c 4f 59 3e
       0.079675116 0.12728837 0.16788146 0.21221632

Y.net.4.weight f4 [404, 100]
000000 e2 c1 e7 3f 01 91 55 3e 6d 43 bc 3e 4f b8 10 3f
       1.8106043 0.20856096 0.36770192 0.5653123
000010 3c b6 23 3e 97 a0 d1 3d df e8 f1 3e 56 46 8d 3e
       0.15987486 0.10235708 0.4724798 0.27592725
000020 68 7d c0 3f 4d 2c ea 3e d7 a0 20 3f 4a 54 9d 3d
       1.5038271 0.45736924 0.6274542 0.076820925
000030 fa 51 34 bf a9 15 a6 be b2 8d 79 bf 95 06 a5 3f
       -0.70437586 -0.324384 -0.97481835 1.2892634
000040 38 8f 97 3d 93 04 0d 3f 80 05 c9 bf 29 9f 0d bf
       0.07400364 0.55085105 -1.5704803 -0.55320984
000050 e4 0b 00 bf 10 fb 90 bf 9a 85 81 bf b9 b9 b9 be
       -0.50018144 -1.1326618 -1.0118897 -0.36274508
000060 51 98 ce bd c7 24 c8 3f 04 59 0c 3f 3a da db bd
       -0.10087646 1.5636224 0.5482333 -0.10734983
000070 90 e5 33 bd 8f 3a ac be 6b 6b da 3f 23 19 18 40
       -0.0439201 -0.33638427 1.7064031 2.3765342
000080 bc c0 25 3f 9a 6c 7f 3e 0d b3 34 be 55 ad 12 bc
       0.64747214 0.24943772 -0.17646427 -0.008952458
000090 c1 4d 00 bf bf a9 17 3e a8 5f 00 bd 01 43 0a bf
       -0.50118643 0.14810847 -0.031341225 -0.5400849
0000a0 77 23 f9 3e 8d dd c0 be 3b 0f 55 3e 6d 58 ef 3f
       0.4865987 -0.3766903 0.20806591 1.869886
0000b0 f3 a8 79 bf fb d9 cb bf 87 51 e3 bd 75 a4 1e 3f
       -0.9752342 -1.5925897 -0.110995345 0.6196969
0000c0 72 55 a9 bd b7 67 84 be 3e 45 34 3f 15 e7 09 be
       -0.082682505 -0.25860378 0.70418155 -0.13467057
0000d0 8f ed bd 3d 12 a1 2e bf 34 80 ef bd 1a b4 97 3d
       0.09273826 -0.68214524 -0.11694375 0.074073985
0000e0 ec d6 e6 be c0 d9 91 be 12 93 0e bf f0 9f 9f be
       -0.45085847 -0.28486443 -0.5569316 -0.3117671
0000f0 fc d4 42 be 77 4d 83 3e e6 98 b9 3e 64 2b 32 40
       -0.1902656 0.25645038 0.36249465 2.7838984
000100 c3 4c 9f bd d8 77 95 3d e2 cc 84 bf 17 c3 6d 3e
       -0.07778313 0.07298249 -1.0375025 0.23218952
000110 15 6d 90 be 8f 99 20 3f d2 59 8f bd 9c f8 55 bf
       -0.28208223 0.6273431 -0.06999554 -0.8358247
000120 47 77 9a 3d c2 39 2c 3e 93 a8 f9 bd 5a c6 8d 3f
       0.075422816 0.16818908 -0.12190356 1.1076157
000130 a0 24 3f 3f 23 58 8c bf ae da 12 3f 55 8f 8d bf
       0.7466526 -1.0964397 0.5736493 -1.1059366
000140 49 93 22 bf 45 95 c4 3e 97 08 8c bf 8f 59 3e 3f
       -0.6350599 0.38395134 -1.0940121 0.74355406
000150 da 61 4a bb 7f 76 8f bf 6e b2 e1 be 97 5c 83 3e
       -0.0030881078 -1.1208037 -0.44081444 0.25656578
000160 42 f0 36 bf 08 1b 4d bc e4 59 3c 40 3f 16 ee be
       -0.71460354 -0.012518652 2.9429865 -0.46501347
000170 1a 70 da 3e 1f ce 97 3e 0e c8 02 bf 23 32 03 bf
       0.42663652 0.29649445 -0.5108651 -0.5124838
000180 e7 e9 91 3e 47 08 f5 bd 96 5c 4b 3e 6f 0e 83 3f
       0.28498766 -0.119644694 0.19859537 1.023878
000190 8e 15 00 40 bf 39 1b bd b2 d9 87 3e 79 af c5 3e
       2.0013156 -0.037896868 0.26533276 0.38610438
0001a0 a4 67 4f 3e e6 75 09 be b5 a0 29 3f 23 0d 41 3e
       0.2025438 -0.13423881 0.66260844 0.18852668
0001b0 8a cd b7 3f c2 ad 59 3e 68 37 1b 3f 6b 44 10 3e
       1.43596 0.2125769 0.6063142 0.140886
0001c0 b5 72 2c bf 40 3a 04 bf 21 99 71 bf b6 6d 9e 3f
       -0.6736253 -0.5165138 -0.9437428 1.2377231
0001d0 54 20 7a bc b0 35 49 3f 61 19 ee bf c3 a3 51 bf
       -0.015266497 0.78597546 -1.8601495 -0.81890506
0001e0 0a b2 c4 be 08 9a a9 bf 44 e2 74 bf b1 b9 d0 be
       -0.38417083 -1.3250132 -0.95657754 -0.4076667
0001f0 e3 e8 05 be 64 45 9a 3f 7e 2a 3f 3f 05 c7 e3 bd
       -0.1307712 1.2052426 0.7467421 -0.11121944
000200 09 54 11 be 1d 9c 10 bf ae 81 ae 3f 9d 5f 1e 40
       -0.14192213 -0.5648821 1.3633325 2.4745858
000210 24 5d ea 3e 21 6c de 3e 11 34 6a be cc 50 cc 3c
       0.45774186 0.4344187 -0.22871424 0.02494087
000220 39 a6 bd be 49 d6 51 bc 78 12 a8 3c 41 b9 25 bf
       -0.3704088 -0.012807437 0.02051662 -0.647358
000230 cc 0c 06 3f ed 7f a8 be ef eb 02 3e 58 4f dd 3f
       0.52363276 -0.329101 0.12785314 1.7289839
000240 82 38 4c bf 0c f6 eb bf fc d2 1b be c2 f2 e8 3e
       -0.79773724 -1.8434463 -0.15217203 0.4549771
000250 ac 8b 26 3e 76 5a 61 be 6f 5e 56 3f bb e8 32 be
       0.16264218 -0.22007164 0.83737844 -0.17471592
000260 fb 80 62 3c b7 e7 10 bf 4d 41 98 be bf a7 df 3d
       0.013824697 -0.5660357 -0.2973732 0.10920667
000270 4d 91 ca be 8d d4 98 bd 18 eb e2 be a6 dd 8b be
       -0.3956398 -0.07462416 -0.44319987 -0.27317542
000280 29 90 92 be e6 11 95 3e d3 9e 97 3e 80 35 38 40
       -0.2862561 0.29115218 0.2961336 2.8782654
000290 03 08 71 be b0 a3 c2 3d 53 df 92 bf 66 8e fc 3d
       -0.23538212 0.09503877 -1.1474403 0.12331848
0002a0 7f df 5e be 6d 63 12 3f 90 81 93 bd 5d ff 46 bf
       -0.21764944 0.5718296 -0.072024465 -0.77733403
0002b0 ce d4 ec bc a2 95 b1 3e 23 af 0c be ea 11 65 3f
       -0.028910067 0.34684473 -0.13738684 0.8948046
0002c0 94 5b e6 3e ca 55 8b bf e8 78 26 3f 92 1b 6f bf
       0.44991744 -1.0885556 0.6502824 -0.93401444
0002d0 f9 e0 25 bf 24 ca 03 3f 4f 75 84 bf eb ea f9 3e
       -0.64796406 0.5148032 -1.03483 0.4881204
0002e0 66 0d 54 bd a8 a1 a0 bf 1f 4e 35 be 3a 65 d3 bd
       -0.05177059 -1.2549334 -0.17705582 -0.10322042
0002f0 f9 97 13 bf 2c 94 96 3b 6d 6b 36 40 e4 39 13 bf
       -0.57653767 0.0045953 2.8503067 -0.5751021
000300 12 d2 f7 3e 2f d7 d1 3e 45 91 74 be 1a 6d 1b bf
       0.48402458 0.40984485 -0.23883541 -0.6071335
000310 53 3c 50 3e c1 3a 6c be 9e 32 27 bd 3a 22 56 3f
       0.20335512 -0.23069288 -0.040819757 0.83645976
000320 25 20 f3 3f 0d a4 3d 3e 5c 49 9e 3e 67 f6 df 3e
       1.8994185 0.18519612 0.30915344 0.43742678
000330 44 d8 2f bb d3 05 a6 3d 7b 38 06 3f 5e 2a 7e 3e
       -0.0026831785 0.0810658 0.5242993 0.2482085
000340 8c b3 b8 3f ae 43 b5 3e 4c 59 3c 3f 49 39 98 3d
       1.4429793 0.35403198 0.73573756 0.07432801
000350 dd 76 38 bf 3a 93 aa be 0b 61 5e bf 3c 35 a0 3f
       -0.7205637 -0.3331545 -0.86866826 1.2516246
000360 12 e3 12 3d 6c 89 03 3f 7a 67 d6 bf a8 7f 1c bf
       0.035861082 0.51381564 -1.6750329 -0.6113229
000370 69 75 f6 be dd 40 94 bf ec 23 80 bf de 53 92 be
       -0.48136452 -1.1582295 -1.0010962 -0.2857961
000380 fe 7f 45 bd 45 3b b8 3f 88 31 3d 3f c6 71 22 be
       -0.048217766 1.4393088 0.73903704 -0.15863714
000390 d9 fe 15 3d 8b 4a c1 be ef 64 cf 3f 76 b0 1d 40
       0.036619995 -0.37752184 1.6202677 2.4638953
0003a0 e7 9a 20 3f 68 24 8d 3e 17 b1 41 be d3 57 3d 3d
       0.6273636 0.27566838 -0.1891521 0.046226334
0003b0 6a af e6 be 38 f4 03 3e a9 e7 b0 3d 3c af 22 bf
       -0.45055705 0.12886131 0.08637936 -0.63548636
0003c0 d2 f9 03 3f 79 a9 9b be 18 27 4e 3e 25 f9 dd 3f
       0.5155307 -0.30402735 0.201321 1.7341658
0003d0 8b f0 69 bf 3d cc da bf ba c1 14 be d4 fc 1e 3f
       -0.91382664 -1.7093579 -0.14527026 0.62104535
0003e0 81 a9 d8 bd 6c 9f 3b be 63 79 27 3f a5 14 91 bd
       -0.10579205 -0.18322533 0.65419596 -0.07084016
0003f0 d9 46 8d 3d d2 54 23 bf 1f e1 78 bd 98 13 2e 3e
       0.06898279 -0.638013 -0.060761567 0.16999662
