src/logs/RK-4/model.pth (torch, 696621 bytes, 78 tensors)

Y.net.0.0.weight f4 [100, 4]
0.07996617 -0.32998866 -0.06779031 -0.24059725 0.1622354 -0.1083604 -0.21664287 -0.37077838
-0.0956189 -0.097547315 0.084852204 -0.05819526 -0.30865774 -0.070848174 -0.07557449 0.21055837
-0.21047525 -0.012008049 -0.00898142 -0.17721991 -0.05124231 0.15912697 -0.03075333 0.13642369
0.17939013 0.065322556 0.11677116 -0.00943799 0.042169046 0.03318112 0.044012208 0.10928656
-0.32879126 -0.17626531 -0.15425156 0.120639645 0.1379968 -0.06922639 -0.028746907 -0.044072837
-0.0038349666 -0.10994256 -0.043216906 -0.09499634 0.007481246 -0.1526425 0.24633035 -0.075761
0.16876766 0.14006111 -0.20839661 0.076652065 -0.067406505 -0.17795184 -0.1751925 0.07620701
-0.1945294 -0.14967827 -0.27459255 0.03709074 -0.14858413 -0.028171295 -0.18893367 -0.106581785
0.3548421 0.028355569 0.035918232 -0.09925867 -0.019354967 0.12738195 0.10956362 -0.017546585
0.27122664 -0.14856967 -0.07789158 -0.22268079 0.083633795 -0.09634809 -0.07577558 -0.047344487
-0.4502275 0.18937775 -0.23479763 -0.008222498 -0.048693124 -0.16643867 0.07598846 -0.08063273
-0.10096374 -0.011582825 0.07539658 0.4863617 -0.22316928 -0.043883298 0.060555264 -0.045463096
0.06580466 -0.19590785 -0.013346806 -0.34212217 0.046899065 0.14620624 -0.10991605 -0.10614
0.048517134 -0.021194763 0.23871231 0.24256653 0.033674754 0.07254968 -0.17846827 0.115241304
-0.16317537 -0.07949192 -0.20246603 -0.13013068 0.02373279 -0.2097475 -0.05018233 -0.09144768
0.10394175 0.2249066 0.09221094 -0.0040397113 0.07715168 -0.106891744 0.09020612 0.12206582
0.06707934 0.08230123 -0.11615255 -0.088651165 -0.28124914 0.049321156 0.048174 0.14108227
0.02155092 -0.08023625 -0.08649375 0.1908357 -0.38806802 -0.24949697 0.1422861 0.23539524
-0.03308342 -0.07318203 0.25117767 0.07676001 0.1160481 0.19430293 -0.055777047 0.120867655
-0.090864934 -0.09242641 -0.03918532 -0.1274333 -0.04368891 0.19587517 0.038737178 0.18999612
-0.0030308368 -0.14142382 -0.11535219 0.23239683 0.16034982 -0.13626233 -0.07485762 0.08718937
-0.2187177 0.22030994 -0.0474641 0.23496912 -0.15498507 -0.17438133 0.00026931247 -0.07895189
-0.09113894 -0.073180795 0.19084384 0.14443035 0.29088774 0.20454365 -0.13763122 0.122656934
-0.12841573 -0.051621817 0.013090814 0.05417833 -0.009204812 -0.194994 0.080246076 -0.10120114
0.012161999 -0.012501082 -0.079917625 -0.059201162 -0.34333873 -0.09296846 -0.031136045 -0.01722832
0.16933735 0.015662288 -0.032584686 -0.20363568 0.26588568 -0.1662697 0.11808268 -0.0751077
0.13734281 -0.15613654 -0.066298604 0.067339174 -0.01111237 0.07619657 0.12697326 0.17895861
0.047741346 -0.06974126 -0.091162376 0.09450652 0.18300472 0.115064144 0.17075498 -0.06131556
0.04151489 -0.21226823 0.030976407 -0.23730811 0.09546737 -0.19715872 0.038391396 -0.09332104
0.049848754 -0.0028468834 -0.10352764 -0.07578922 0.24869516 0.0075550745 -0.10634021 -0.12229998
-0.14323281 -0.07698972 -0.065714985 -0.09391904 -0.00878864 -0.028078564 0.056337677 -0.07059758
0.14346386 0.2992971 -0.25976175 -0.14281482 -0.05470881 -0.14209521 0.044293173 -0.21893285
00000000: 4ec5 a33d 46f4 a8be a5d5 8abd 205f 76be
00000010: 0921 263e 0fec ddbd a1d7 5dbe aad6 bdbe
00000020: d8d3 c3bd e3c6 c7bd fec6 ad3d 275e 6ebd
00000030: 6308 9ebe d918 91bd ccc6 9abd 9d9c 573e
00000040: d386 57be 68bd 44bc ce26 13bc 2379 35be
00000050: 75e3 51bd 2ef2 223e 68ee fbbc a7b2 0b3e
00000060: 0cb2 373e d5c7 853d b825 ef3d cda1 1abc
00000070: 73b9 2c3d ede8 073d 2546 343d a2d1 df3d
00000080: 5457 a8be e57e 34be 1ff4 1dbe eb11 f73d
00000090: 084f 0d3e 91c6 8dbd a27e ebbc b885 34bd
000000a0: 1054 7bbb 9129 e1bd 3604 31bd 718d c2bd
000000b0: 3d25 f53b 514e 1cbe 063e 7c3e 9528 9bbd
000000c0: 6ed1 2c3e 2e6c 0f3e ec65 55be c2fb 9c3d
000000d0: 6c0c 8abd 0239 36be aa65 33be 6c12 9c3d
000000e0: b732 47be 4345 19be 6597 8cbe 76ec 173d
000000f0: 7026 18be 7dc7 e6bc d477 41be 8d47 dabd
00000100: ddad b53e f049 e83c ff1e 133d 2148 cbbd
00000110: 4f8e 9ebc 6a70 023e e462 e03d dbbd 8fbc
00000120: 38de 8a3e a622 18be 9f85 9fbd 6f06 64be
00000130: 3248 ab3d 2652 c5bd 3a30 9bbd 4bec 41bd
00000140: 3884 e6be 3eec 413e ca6e 70be a8b7 06bc
00000150: 7172 47bd e66e 2abe d69f 9b3d c622 a5bd
00000160: 14c6 cebd e4c5 3dbc 8669 9a3d 6704 f93e
00000170: 7d86 64be f9be 33bd cc08 783d 8337 3abd
00000180: 98c4 863d 119c 48be 90ac 5abc a32a afbe
00000190: 3c19 403d 17b7 153e ab1b e1bd ee5f d9bd
000001a0: e7b9 463d a4a0 adbc 0071 743e 5c63 783e
000001b0: 8aee 093d ed94 943d 63c0 36be a203 ec3d
000001c0: 7217 27be a9cc a2bd 4153 4fbe fa40 05be
000001d0: 456b c23c 0cc8 56be fd8b 4dbd ec48 bbbd
000001e0: 6adf d43d ea4d 663e 17d9 bc3d 8e5f 84bb
000001f0: b301 9e3d 0fea dabd fcbd b83d a5fd f93d
00000200: e560 893d 8c8d a83d 63e1 edbd be8e b5bd
00000210: e3ff 8fbe fb04 4a3d 1a52 453d df77 103e
00000220: 8e8b b03c e752 a4bd a323 b1bd 6f6a 433e
00000230: dab0 c6be 227c 7fbe 73b3 113e 730b 713e
00000240: 7b82 07bd 76e0 95bd 5c9a 803e 5a34 9d3d
00000250: a0aa ed3d 59f7 463e 7976 64bd 7689 f73d
00000260: 6517 babd 0f4a bdbd c980 20bd e07d 02be
00000270: 24f3 32bd 8093 483e e0aa 1e3d 588e 423e
00000280: 01a1 46bb 68d1 10be c53d ecbd 6ff9 6d3e
00000290: be32 243e 5a88 0bbe f44e 99bd 5790 b23d
000002a0: 88f7 5fbe ee98 613e b769 42bd bf9b 703e
000002b0: 68b4 1ebe 0591 32be 8232 8d39 87b1 a1bd
000002c0: 0da7 babd d0df 95bd 916c 433e 8de5 133e
000002d0: 3def 943e e473 513e 33ef 0cbe 8f33 fb3d
000002e0: 6a7f 03be 6671 53bd db7a 563c 19ea 5d3d
000002f0: c8cf 16bc 82ac 47be 0e58 a43d 8b42 cfbd
00000300: 1f43 473c 57d1 4cbc daab a3bd eb7c 72bd
00000310: 18ca afbe 3f66 bebd 0511 ffbc 6822 8dbc
00000320: c566 2d3e 334e 803c 8577 05bd df85 50be
00000330: 2b22 883e 9b42 2abe 55d5 f13d 11d2 99bd
00000340: 98a3 0c3e 42e2 1fbe 90c7 87bd 1fe9 893d
00000350: a810 36bc f30c 9c3d 4705 023e ed40 373e
00000360: 6e8c 433d 81d4 8ebd 57b3 babd a28c c13d
00000370: 9765 3b3e c0a6 eb3d 65da 2e3e 0626 7bbd
00000380: 840b 2a3d d85c 59be 3cc2 fd3c e600 73be
00000390: 6584 c33d fae3 49be 4c40 1d3d 1a1f bfbd
000003a0: 352e 4c3d c792 3abb 4d06 d4bd 6137 9bbd
000003b0: f2a9 7e3e 8f90 f73b e5c8 d9bd 6978 fabd
000003c0: 9fab 12be c9ac 9dbd 9495 86bd a058 c0bd
000003d0: 3afe 0fbc 0405 e6bc 56c2 663d 7795 90bd
000003e0: 31e8 123e 783d 993e 7eff 84be 0c3e 12be
000003f0: 5816 60bd 6881 11be c26c 353d ef2f 60be

Y.net.0.0.bias f4 [100]
-0.003010444 -0.041576914 -0.07395925 0.029678151 0.12530193 -0.13415483 -0.026421607 -0.010583678
0.014785376 -0.034572978 -0.08668763 0.06419975 -0.062473606 -0.055110183 0.030937843 -0.0254181
-0.011141896 -0.0062065604 -0.03784477 -0.07942904 -0.015172219 -0.0135874795 -0.02915172 -0.17185098
-0.053350832 -0.012319495 -0.003702542 -0.002956288 0.038547963 -0.12952287 -0.19650547 -0.023281371
-0.2874452 -0.006613532 -0.085587 -0.063361414 -0.09409943 -0.019380907 -0.0988821 -0.04984271
-0.07408764 -0.014190536 0.0065704803 -0.028983425 -0.016600419 -0.006374537 -0.048528187 -0.14868467
-0.008648535 -0.11689695 -0.0074379323 0.061853144 -0.12038004 0.016082024 -0.046984315 -0.029778713
-0.0798295 -0.012357585 -0.09855693 -0.0412608 0.027118482 -0.0062110913 -0.01907391 -0.03113684
-0.045278244 -0.111360185 -0.19185461 -0.031787895 -0.010856373 -0.06568098 -0.0012907694 -0.045460522
-0.01950064 -0.10456173 -0.09080625 -0.0385778 -0.026036361 -0.059805565 0.043552782 0.02431275
-0.0036772608 -0.020383984 0.04557747 -0.053544346 -0.15780017 -0.020682614 0.016298965 -0.04189796
-0.034550738 -0.07694671 -0.06544547 0.11625413 -0.023298256 -0.096829526 -0.054348025 -0.18388012
-0.13212647 -0.048625857 0.0041915337 0.008337335
00000000: df4a 45bb 8e4c 2abd f277 97bd 981f f33c
00000010: 264f 003e e25f 09be 2072 d8bc 2a67 2dbc
00000020: 5d3e 723c 659c 0dbd 4989 b1bd 297b 833d
00000030: 53e4 7fbd 37bb 61bd 5c71 fd3c 9f39 d0bc
00000040: 808c 36bc 6760 cbbb 1e03 1bbd b1ab a2bd
00000050: e694 78bc 059e 5ebc 97cf eebc b4f9 2fbe
00000060: 6786 5abd b5d7 49bc 59a6 72bb 48be 41bb
00000070: 78e4 1d3d a5a1 04be bb38 49be 93b8 bebc
00000080: 042c 93be 54b6 d8bb 3d48 afbd a1c3 81bd
00000090: 34b7 c0bd b5c4 9ebc b382 cabd df27 4cbd
000000a0: 43bb 97bd 6c7f 68bc 2f4d d73b a66e edbc
000000b0: 9afd 87bc 7ee1 d0bb 7ec5 46bd cb40 18be
000000c0: 96b2 0dbc ab67 efbd e6b9 f3bb b959 7d3d
000000d0: cf89 f6bd 73be 833c a072 40bd 7df2 f3bc
000000e0: a67d a3bd 7877 4abc 37d8 c9bd 1601 29bd
000000f0: 9427 de3c 6986 cbbb e340 9cbc b012 ffbc
00000100: ae75 39bd cf10 e4bd 8975 44be 0634 02bd
00000110: eede 31bc c083 86bd 092f a9ba d034 3abd
00000120: cebf 9fbc 7624 d6bd a1f8 b9bd c103 1ebd
00000130: 354a d5bc aef6 74bd 6764 323d 882b c73c
00000140: 33fe 70bb 50fc a6bc 71af 3a3d 5151 5bbd
00000150: 5e96 21be 966e a9bc 6885 853c 329d 2bbd
00000160: 1385 0dbd 3d96 9dbd 4608 86bd a516 ee3d
00000170: fcdb bebc 8f4e c6bd 099c 5ebd 124b 3cbe
00000180: 294c 07be e82b 47bd 2259 893b 5199 083c

Y.net.1.0.weight f4 [100, 100]
-0.13574567 -0.03529868 -0.26276165 -0.37494993 0.11633613 0.005515358 -0.022266302 -0.0063896
0.09924184 0.001615315 -0.16525243 0.00596362 -0.14848937 -0.08295969 -0.1488914 -0.023446916
-0.16087787 0.17872074 0.11476568 -0.09497052 -0.30179188 -0.070615225 -0.0086673 0.025930632
0.012139533 0.14191024 0.1433155 0.18884887 -0.1476789 -0.0008846039 -0.0035580508 -0.052910134
-0.037552394 -0.026329765 0.123882964 -0.009998903 -0.10066028 0.009907289 0.03907595 0.023337873
0.07931553 0.0008881684 -0.0019220329 0.07045528 -0.017728841 0.041466374 0.13990736 -0.16554947
-0.053243723 -0.04119834 0.038902983 0.03939898 0.036010426 -0.15714256 0.08340146 0.07466776
0.022252014 0.062140424 0.14816548 0.07427647 0.08061082 -0.09490569 -0.07865599 0.19620384
-0.050729908 0.11158523 0.13376877 -0.10729575 -0.17351457 0.10857356 0.1204195 0.02296455
-0.23749766 -0.06283865 0.01672192 -0.12872708 0.11382638 0.019206462 -0.21690747 -0.1820169
0.060360376 -0.0358822 -0.01938927 -0.10693175 -0.172062 0.12932533 -0.1297612 0.05265262
0.09748085 -0.03798121 -0.093314566 0.039027926 -0.09543136 0.077387705 0.21882804 -0.006407614
-0.02196169 -0.05009312 -0.07008403 -0.0030342473 -0.08600979 0.24118279 -0.026096843 0.13541888
0.121181175 -0.17354818 0.1274224 -0.009892617 0.053706188 0.054834522 -0.040687654 -0.05122373
-0.15183903 -0.048489597 0.012241276 -0.11446805 0.0070532425 -0.016758574 -0.079042695 0.058423776
-0.10374686 0.1275223 -0.10885751 -0.006277797 0.0029930403 -0.0478136 0.06549476 -0.11364917
0.002191221 0.017431175 0.13768327 0.15157959 -0.056064285 -0.02380449 0.00024218226 0.026394054
-0.03929554 -0.10495357 0.054099437 0.08339827 0.039974786 -0.07851134 -0.030073635 0.05836798
0.018617969 -0.043648753 0.09047551 0.047713652 0.09651684 0.16263084 -0.050670464 0.021587862
-0.11169081 0.006148487 0.21199441 -0.10342161 -0.06228983 0.14365548 0.021823525 -0.0630033
-0.1894033 -0.14294925 -0.008630588 -0.0899082 -0.14645037 0.08895832 0.18463449 -0.16579048
0.15638289 0.23353443 -0.081940725 -0.07564368 0.06436307 0.062597655 -0.057575084 -0.13883445
0.059932712 0.03887488 -0.19108741 -0.016241152 0.22987974 0.017079975 0.100183375 0.10805123
-0.21624066 -0.07551769 -0.13761912 -0.012260067 0.1412612 0.017932585 0.06813231 0.028714517
-0.13044962 -0.06811606 0.016977996 0.38145143 0.061456885 -0.2808699 0.18531707 0.17934263
0.054627735 0.09861465 -0.061749388 -0.06297636 0.12461415 -0.05129807 -0.07767137 -0.03636232
0.24841717 -0.0027765983 0.028142858 -0.006620108 0.070073314 0.051063795 0.21441947 0.086869344
-0.071984164 -0.019844733 -0.012162039 0.15681492 0.05121412 0.1287442 -0.027863543 -0.17296432
0.005937039 -0.15482919 -0.069738634 -0.04645016 -0.1942081 -0.14049952 0.0725877 -0.0812284
0.113701925 0.109926715 0.040985283 0.0048853825 -0.12623452 0.04613267 0.055405036 0.21415536
-0.0007665349 0.032832798 -0.010853606 0.01568163 -0.00083615445 -0.07171597 0.029302008 -0.06885922
-0.05069592 -0.051592845 -0.18301588 -0.075751 0.020005114 -0.0848477 0.11509858 0.027717426
00000000: ea00 0bbe 5995 10bd b288 86be 70f9 bfbe
00000010: a341 ee3d 2dba b43b d267 b6bc da5f d1bb
00000020: 4e3f cb3d fab8 d33a ef37 29be 786a c33b
00000030: 990d 18be c5e6 a9bd fd76 18be bf13 c0bc
00000040: 2bbd 24be 9202 373e 450a eb3d e77f c2bd
00000050: 7784 9abe b79e 90bd 4b01 0ebc 7a6c d43c
00000060: e4e4 463c eb50 113e 4cc1 123e 9961 413e
00000070: 2339 17be c3e4 67ba 302e 69bb 4cb8 58bd
00000080: 8ad0 19bd 85b1 d7bc 5ab6 fd3d 70d2 23bc
00000090: fa26 cebd 2f52 223c 1a0e 203d 112f bf3c
000000a0: 2e70 a23d f9d3 683a b9ec fbba dc4a 903d
000000b0: 133c 91bc a5d8 293d e043 0f3e cd85 29be
000000c0: 1716 5abd 97bf 28bd bc58 1f3d d360 213d
000000d0: ab7f 133d fbe9 20be 62ce aa3d 69eb 983d
000000e0: db49 b63c f586 7e3d b1b8 173e 431e 983d
000000f0: 4917 a53d ea5d c2bd 6416 a1bd a9e9 483e
00000100: 2aca 4fbd cc86 e43d aefa 083e e0bd dbbd
00000110: cead 31be d15b de3d 809e f63d 2720 bc3c
00000120: 9632 73be 8db1 80bd 68fc 883c 08d1 03be
00000130: ce1d e93d df56 9d3c fe1c 5ebe a362 3abe
00000140: 713c 773d 37f9 12bd 3fd6 9ebc 09ff dabd
00000150: 0531 30be dc6d 043e 1fe0 04be 46aa 573d
00000160: 0aa4 c73d 2f92 1bbd b51b bfbd bfdb 1f3d
00000170: 8471 c3bd 727d 9e3d 7514 603e f6f6 d1bb
00000180: 01e9 b3bc 722e 4dbd 3788 8fbd 39da 46bb
00000190: e725 b0bd 9ff8 763e 0cc9 d5bc 3fab 0a3e
000001a0: d62d f83d 9db6 31be 057b 023e a514 22bc
000001b0: 05fb 5b3d 2a9a 603d 19a8 26bd f9cf 51bd
000001c0: b17b 1bbe 079d 46bd a28f 483c 3a6e eabd
000001d0: e31e e73b 4749 89bc 23e1 a1bd c54d 6f3d
000001e0: 3c79 d4bd 3595 023e b0f0 debd fab5 cdbb
000001f0: e226 443b 32d8 43bd 1e22 863d e5c0 e8bd
00000200: 979a 0f3b d3cb 8e3c d8fc 0c3e ae37 1b3e
00000210: aaa3 65bd a201 c3bc 4ef2 7d39 5838 d83c
00000220: 5cf4 20bd e6f1 d6bd 5f97 5d3d b6cc aa3d
00000230: 9abc 233d 8eca a0bd fc5c f6bc 4313 6f3d
00000240: b684 983c 09c9 32bd 394b b93d 646f 433d
00000250: 9faa c53d b388 263e d58b 4fbd 07d9 b03c
00000260: 27be e4bd 3f79 c93b 1015 593e b6ce d3bd
00000270: 9f23 7fbd 6c1a 133e 40c7 b23c e007 81bd
00000280: f0f2 41be 4a61 12be 4f67 0dbc ca21 b8bd
00000290: 16f7 15be c82f b63d d310 3d3e fbc4 29be
000002a0: d622 203e a623 6f3e 8ad0 a7bd 13eb 9abd
000002b0: c9d0 833d 3333 803d dad3 6bbd 9e2a 0ebe
000002c0: 017c 753d 443b 1f3d 6bac 43be 2a0c 85bc
000002d0: 9865 6b3e 4eeb 8b3c f12c cd3d f749 dd3d
000002e0: 316e 5dbe 05a9 9abd 07ec 0cbe 73de 48bc
000002f0: c7a6 103e 5be7 923c f488 8b3d b53a eb3c
00000300: 9694 05be 6f80 8bbd 7015 8b3c 9a4d c33e
00000310: 37ba 7b3d 2ece 8fbe c2c3 3d3e 98a5 373e
00000320: 55c1 5f3d 7af6 c93d edec 7cbd c0f9 80bd
00000330: b435 ff3d ed1d 52bd 2b12 9fbd a8f0 14bd
00000340: 1261 7e3e 97f7 35bb da8b e63c 7eed d8bb
00000350: 9982 8f3d 4528 513d c790 5b3e 8ee8 b13d
00000360: 6f6c 93bd 6c91 a2bc 4a43 47bc 1794 203e
00000370: e6c5 513d 85d5 033e 1642 e4bc 8f1d 31be
00000380: 7e8b c23b 8b8b 1ebe 21d3 8ebd 8642 3ebd
00000390: 7dde 46be 1bdf 0fbe dca8 943d 135b a6bd
000003a0: 8edc e83d 4221 e13d 2fe0 273d 8f15 a03b
000003b0: 9f43 01be 9cf5 3c3d 64f0 623d 8b4b 5b3e
000003c0: 49f1 48ba af7b 063d 53d3 31bc c376 803c
000003d0: 6031 5bba d3df 92bd c40a f03c 1006 8dbd
000003e0: 86a6 4fbd 0553 53bd 8468 3bbe 5723 9bbd
000003f0: c4e1 a33c a2c4 adbd ceb8 eb3d a80f e33c

Y.net.1.0.bias f4 [100]
-0.0018749782 -0.0092127435 -0.05613896 -0.0012551541 0.0017282445 -0.034481984 0.03546819 -0.015063252
0.00737116 -0.0007686306 0.005843376 -0.01965232 -0.029427728 0.045906562 -0.02522551 0.0029683248
0.012524702 -0.015722824 -0.00611585 -0.0021467195 0.0071911556 0.023841249 -0.088502154 0.00056775264
-0.11945727 -0.014186239 -0.07845219 0.014065065 0.04677511 -0.089728296 -0.005023533 -0.052578975
-0.05134132 -0.01991003 -0.0027926161 -0.030989844 0.0018520964 0.0043127956 0.037498415 -0.03462276
-0.01121361 -0.014351992 -0.041897736 0.005059597 -0.05902084 -0.07295978 -0.01054927 -0.0045279483
-0.0114171235 -0.01628142 -0.013000952 -0.003972098 -0.009328933 0.009391243 -0.011023794 -0.00085117103
-0.017117463 -0.003641171 -0.029055957 -0.06736283 0.0016166528 0.0074696788 0.012511399 0.0028584036
-0.0010660063 -0.011350354 0.0018728955 -0.029374462 -0.009646336 -0.010843235 -0.014330972 0.019543009
0.030045444 0.017437099 -0.0138107585 0.0024471337 -0.035492882 -0.011187647 0.0047290507 -0.0121836765
-0.03725556 -0.006803787 0.013096849 0.011914491 0.0002541786 0.02604862 -0.01604093 -0.032251306
0.004665141 -0.00023173209 -0.029947728 -0.013398473 0.004028231 0.0026072122 -0.028692303 0.033073492
-0.01476996 -0.043266214 0.021789348 0.023022542
00000000: d4c1 f5ba 0cf1 16bc f7f1 65bd fc83 a4ba
00000010: 4386 e23a fb3c 0dbd 1847 113d dccb 76bc
00000020: c689 f13b ed7d 49ba ca79 bf3b e7fd a0bc
00000030: 6b12 f1bc 8508 3c3d bba5 cebc 3a88 423b
00000040: 6834 4d3c 27cd 80bc 7867 c8bb faaf 0cbb
00000050: c9a3 eb3b b94e c33c 9e40 b5bd 3cd5 143a
00000060: 03a6 f4bd 666d 68bc 8bab a0bd 2971 663c
00000070: 4297 3f3d 78c3 b7bd 739c a4bb 0d5d 57bd
00000080: 474b 52bd 5c1a a3bc 5304 37bb 6ade fdbc
00000090: 0bc2 f23a 5a52 8d3b f097 193d 98d0 0dbd
000000a0: 4ab9 37bc 9e24 6bbc f69c 2bbd faca a53b
000000b0: d6bf 71bd f06b 95bd d8d6 2cbc 2f5f 94bb
000000c0: e30e 3bbc 9d60 85bc f201 55bc 6028 82bb
000000d0: 62d8 18bc badd 193c 259d 34bc 1f21 5fba
000000e0: ec39 8cbc b6a0 6ebb c206 eebc 86f5 89bd
000000f0: dee5 d33a 35c4 f43b 9cfc 4c3c 0e54 3b3b
00000100: 3cb9 8bba d6f6 39bc f27b f53a b6a2 f0bc
00000110: aa0b 1ebc d3a7 31bc 74cc 6abc a918 a03c
00000120: dd21 f63c 3fd8 8e3c 8546 62bc 1760 203b
00000130: fc60 11bd 644c 37bc 27f6 9a3b 0b9e 47bc
00000140: 4999 18bd 4df2 debb 2b94 563c ff34 433c
00000150: 4643 8539 ea63 d53c 4568 83bc f219 04bd
00000160: 0ade 983b 1cfd 72b9 f054 f5bc 4585 5bbc
00000170: 40ff 833b c3dd 2a3b 1f0c ebbc 1278 073d
00000180: b4fd 71bc ea37 31bd 937f b23c c599 bc3c

Y.net.2.0.weight f4 [100, 100]
0.061297107 0.09611514 -0.08547007 0.080590226 0.022249354 0.14815854 -0.18423896 -0.24346384
0.04782624 -0.054601707 0.012193762 0.037262823 -0.22114354 -0.05639232 -0.07792776 0.031660236
0.08382649 -0.0921411 0.28430334 -0.13556392 0.16938393 -0.08452702 -0.07396679 -0.0029682033
0.017059777 -0.041462626 0.03270314 -0.18293324 -0.018707756 0.031486318 0.10755831 -0.09530066
-0.08561897 -0.14959718 0.16711146 -0.19391237 -0.038542554 0.05227034 -0.068157054 0.16550688
-0.025369037 -0.07850168 0.108062014 -0.10001666 -0.112405956 0.15454347 -0.09897577 -0.060167313
0.21174663 -0.22665524 0.14810815 0.07796471 -0.1252136 -0.0929571 -0.15401495 0.009057634
0.2467321 -0.03806766 0.027778834 0.014379685 -0.027629975 0.32479772 0.14556932 -0.036090493
-0.20117164 -0.010472293 -0.09918661 -0.13426408 -0.17147435 -0.0725603 -0.025420995 -0.11281139
0.08078685 -0.053736906 0.0649326 -0.021034425 -0.0700645 -0.025278175 -0.13727733 0.0403499
0.09424981 0.28084108 -0.04000241 0.071880825 -0.08845365 -0.1314996 -0.08928312 -0.0011295909
0.06850747 -0.16409835 -0.033205997 -0.18642409 0.056788098 0.08097413 -0.017897364 0.12704061
0.0021928106 0.10866662 0.009356529 -0.10032197 0.039710667 0.1179318 -0.067783974 0.1182195
-0.03916901 0.054827824 -0.017898874 0.017810997 0.09676086 0.056431744 -0.0060247625 0.08050341
-0.010521469 0.011527863 0.0049969996 0.31003165 0.06431141 -0.1861985 -0.08107383 0.13583298
-0.036375314 0.081722505 0.10326421 -0.010570849 0.06348023 0.14012721 0.0469764 -0.0653102
0.044056993 -0.0034115617 0.104439706 -0.027679147 -0.03427497 0.05379256 -0.054435264 0.075885355
-0.0348387 -0.073199935 0.055157725 0.008190849 -0.046860438 -0.2177477 -0.119643 0.18740885
-0.008183832 0.030347086 -0.007143689 0.092468634 0.07884597 0.06650784 0.058614146 0.06367903
-0.12819333 -0.09662319 0.010710876 -0.059449233 0.206277 0.0310382 0.15665291 -0.18048427
-0.057418432 0.2406483 -0.19313617 0.058140423 -0.06850895 0.09585556 0.18046059 -0.10865221
-0.17500643 0.14001979 -0.10611733 0.04051226 0.053566437 -0.050690614 -0.13232136 0.18147494
-0.0037209566 0.031306215 -0.00076636375 0.08216395 0.015092492 0.18479307 0.083751306 0.23144457
0.08477897 -0.0188172 0.013493173 -0.056842554 0.12575032 -0.10591353 0.09724392 -0.058262777
-0.03844195 -0.016986428 -0.03817641 0.016034143 0.035015497 -0.021480475 -0.11134174 0.2367034
-0.030768912 0.21506238 0.15493442 -0.16444163 0.03106325 0.22585084 -0.089252196 -0.12665004
-0.09604899 0.088968106 0.053880878 0.067513295 0.006554028 -0.10451231 -0.09360243 0.026996888
0.026281172 0.08319255 -0.13395265 0.03360057 -0.07641155 0.045328073 -0.16142055 0.010162189
-0.18482555 0.14251532 0.1972512 -0.11376931 0.0007148305 0.13357876 -0.011727442 0.2649005
-0.11724589 -0.020640269 0.08825903 -0.15015759 0.010822682 0.0835231 -0.020575544 0.037824735
-0.20381886 0.25247684 -0.08963755 -0.059866127 -0.1100276 0.0046284385 -0.16158225 0.16595224
-0.10159569 -0.16058232 -0.16838872 0.0256819 -0.058243454 -0.27642858 -0.23908219 -0.008600187
00000000: ad12 7b3d 04d8 c43d ef0a afbd 7d0c a53d
00000010: 4744 b63c dfb6 173e 23a9 3cbe 964e 79be
00000020: 73e5 433d 0aa6 5fbd 58c8 473c e7a0 183d
00000030: 7473 62be a2fb 66bd 9798 9fbd 2aae 013d
00000040: 39ad ab3d 79b4 bcbd 3590 913e 45d1 0abe
00000050: fb72 2d3e 811c adbd e77b 97bd 3086 42bb
00000060: f2c0 8b3c b7d4 29bd baf3 053d da52 3bbe
00000070: 0241 99bc ccf7 003d 8847 dc3d fe2c c3bd
00000080: 0059 afbd 0130 19be 441f 2b3e f790 46be
00000090: ccde 1dbd 6d19 563d ed95 8bbd a37a 293e
000000a0: bad2 cfbc 7dc5 a0bd 9e4f dd3d 89d5 ccbd
000000b0: 1835 e6bd a540 1e3e cfb3 cabd 0072 76bd
000000c0: 1cd4 583e 5018 68be aaa9 173e f6ab 9f3d
000000d0: fe37 00be 4b60 bebd 18b6 1dbe 7866 143c
000000e0: 57a7 7c3e d6ec 1bbd 7090 e33c c598 6b3c
000000f0: 4258 e2bc e34b a63e 2010 153e a0d3 13bd
00000100: f0ff 4dbe fb93 2bbc 5922 cbbd 867c 09be
00000110: f996 2fbe 7f9a 94bd b13f d0bc a809 e7bd
00000120: 9373 a53d 3b1b 5cbd 62fb 843d 6350 acbc
00000130: fa7d 8fbd 2d14 cfbc 6e92 0cbe f045 253d
00000140: 0b06 c13d 67ca 8f3e 91d9 23bd 4136 933d
00000150: 3027 b5bd d5a7 06be 12da b6bd c80e 94ba
00000160: a54d 8c3d 6609 28be 0303 08bd f5e5 3ebe
00000170: a39a 683d c4d5 a53d 7e9d 92bc ef16 023e
00000180: 42b5 0f3b 9b8c de3d 214c 193c 9b75 cdbd
00000190: a7a7 223d 3a86 f13d 53d2 8abd 111d f23d
000001a0: af6f 20bd 2493 603d a9a0 92bc 5ee8 913c
000001b0: 8f2a c63d f924 673d 5f6b c5bb f9de a43d
000001c0: 3d62 2cbc 5ddf 3c3c dfbd a33b 78bc 9e3e
000001d0: b3b5 833d d2aa 3ebe 090a a6bd cd17 0b3e
000001e0: 48fe 14bd 215e a73d 307c d33d 5b31 2dbc
000001f0: ec01 823d 827d 0f3e 536a 403d 5bc1 85bd
00000200: 1b75 343d 8294 5fbb 7ce4 d53d 61bf e2bc
00000210: e963 0cbd 9655 5c3d 83f7 5ebd c869 9b3d
00000220: 06b3 0ebd d9e9 95bd 11ed 613d e932 063c
00000230: bbf0 3fbd 41f9 5ebe 6407 f5bd 1be8 3f3e
00000240: 7b15 06bc 749a f83c 9b15 eabb 3260 bd3d
00000250: ff79 a13d 4335 883d 6315 703d 276a 823d
00000260: 1d45 03be 61e2 c5bd ac7c 2f3c 0a81 73bd
00000270: 473a 533e d343 fe3c 9f69 203e ded0 38be
00000280: 972f 6bbd 826c 763e 7dc5 45be a724 6e3d
00000290: 6c4e 8cbd eb4f c43d a9ca 383e 0d85 debd
000002a0: e334 33be 5961 0f3e 0b54 d9bd 2ff0 253d
000002b0: 7b68 5b3d f6a0 4fbd 407f 07be 91d4 393e
000002c0: 4bdb 73bb f23a 003d cde5 48ba 9345 a83d
000002d0: 8046 773c 653a 3d3e ce85 ab3d ceff 6c3e
000002e0: 99a0 ad3d 8726 9abc 7812 5d3c bdd3 68bd
000002f0: b1c4 003e 31e9 d8bd d227 c73d f3a4 6ebd
00000300: 4e75 1dbd 1f27 8bbc de5e 1cbd 095a 833c
00000310: 696c 0f3d d2f7 afbc 2307 e4bd 6062 723e
00000320: 160f fcbc 5039 5c3e 21a7 1e3e 6363 28be
00000330: 5b78 fe3c 7145 673e dbc9 b6bd 8cb0 01be
00000340: 55b5 c4bd e934 b63d 32b2 5c3d 6944 8a3d
00000350: 2cc3 d63b 8d0a d6bd a1b2 bfbd 9428 dd3c
00000360: 9d4b d73c db60 aa3d e22a 09be c0a0 093d
00000370: a97d 9cbd eea9 393d 6e4b 25be 4f7f 263c
00000380: e942 3dbe 89ef 113e 38fc 493e e2ff e8bd
00000390: 7663 3b3a dfc8 083e 7524 40bc 0aa1 873e
000003a0: 9d1e f0bd c815 a9bc 26c1 b43d e9c2 19be
000003b0: 9e51 313c 290e ab3d 0b8e a8bc 1cee 1a3d
000003c0: e4b5 50be a544 813e e493 b7bd 2f36 75bd
000003d0: 2656 e1bd 28aa 973b d175 25be 62ef 293e
000003e0: 6711 d0bd b16f 24be 186e 2cbe d962 d23c
000003f0: b090 6ebd 0c88 8dbe f6d1 74be cce7 0cbc

Y.net.2.0.bias f4 [100]
-0.030430513 -0.00446625 -0.006874359 -0.01817747 -0.009478745 0.03577799 0.012541714 -0.011308917
-0.001990651 0.01365974 0.0055112536 0.007000387 -0.031165224 0.020059045 -0.012116363 -0.079797216
0.0066016577 -0.004339626 -0.013372503 -0.008267581 0.0068036416 -0.023288444 -0.0078768255 -0.058269512
-0.000586628 -0.01159129 0.006973524 0.013564847 -0.025738861 -0.011752164 0.0146316765 -0.0076476214
0.0137977125 0.015041974 -0.011176808 0.034578763 -0.008423283 -0.01098873 0.017294284 0.0038070409
0.0042440626 -0.008932028 -0.010191682 0.046998505 -0.012549562 0.008573221 -0.004158119 0.0353051
-0.009845047 -0.00069037743 -0.10233895 -0.01786423 -0.0411384 -0.0089749405 0.022393962 0.028649714
0.018214231 -0.0030900408 0.0017336778 0.010824218 0.09624769 0.07044975 0.067229405 -0.005357948
-0.026603213 -0.019326808 0.012457674 -0.002496809 -0.025569255 -0.0021381073 -0.0008831652 0.025364494
-0.023369642 -0.0050566173 0.0084572015 -0.0077934805 0.0013715266 -0.050508473 0.004467485 0.023328692
0.0039481143 -0.0031891756 -0.0044565415 -0.03704187 0.008908652 0.0016062334 0.0064623463 0.014943095
-0.028969908 0.0045930427 -0.002147702 0.052480668 0.03273072 -0.00075199315 0.041612677 -0.05882732
0.0096389875 -0.023719978 -0.010952252 -0.006823197
00000000: 6949 f9bc 9f59 92bb 4e42 e1bb ebe8 94bc
00000010: bd4c 1bbc f18b 123d c37b 4d3c 0949 39bc
00000020: 9575 02bb 1acd 5f3c bf97 b43b 8163 e53b
00000030: 364e ffbc de52 a43c b683 46bc b96c a3bd
00000040: b852 d83b 6c33 8ebb 5818 5bbc c074 07bc
00000050: 15f1 de3b 68c7 bebc cd0d 01bc 03ac 6ebd
00000060: f0c7 19ba 65e9 3dbc 2982 e43b 183f 5e3c
00000070: 4eda d2bc 268c 40bc b3b9 6f3c e698 fabb
00000080: cd0f 623c 9d72 763c ee1e 37bc 76a2 0d3d
00000090: cf01 0abc 130a 34bc beac 8d3c 8c7f 793b
000000a0: c711 8b3b a457 12bc 03fb 26bc 8181 403d
000000b0: ae9c 4dbc b276 0c3c d540 88bb 159c 103d
000000c0: 1f4d 21bc 72fa 34ba 1597 d1bd 0158 92bc
000000d0: bd80 28bd a10b 13bc 8b73 b73c ceb2 ea3c
000000e0: 0336 953c 4882 4abb 933c e33a 1058 313c
000000f0: 821d c53d f547 903d 92af 893d ba91 afbb
00000100: fbee d9bc 4153 9ebc 461b 4c3c 81a1 23bb
00000110: 9d76 d1bc 7d1f 0cbb 3784 67ba 33c9 cf3c
00000120: b171 bfbc fbb1 a5bb 1390 0a3c 7460 ffbb
00000130: ccc4 b33a f9e1 4ebd fb63 923b d01b bf3c
00000140: 2f5f 813b 7d01 51bb 2e08 92bb 37b9 17bd
00000150: 98f5 113c 4088 d23a 17c2 d33b e2d3 743c
00000160: 4d52 edbc 3c81 963b 76c0 0cbb f8f5 563d
00000170: a610 063d 6821 45ba 0e72 2a3d eaf4 70bd
00000180: d8ec 1d3c 6650 c2bc 1371 33bc 2095 dfbb

Y.net.3.0.weight f4 [100, 100]
-0.08876845 0.07839525 0.08703331 0.052899133 0.090837225 0.075619146 -0.016474685 -0.16834167
0.23734847 0.17441754 0.058143612 -0.023391863 0.03006951 0.018774737 0.1878316 0.06885099
0.038636137 -0.00087947823 -0.0035871267 -0.05052128 -0.13095099 0.058824558 -0.07560401 0.0993103
-0.02547442 -0.047371317 -0.13655113 0.0543128 0.25522014 -0.15367086 -0.033797327 0.24224253
0.11996415 -0.04240776 -0.072201096 -0.067963086 0.040955763 0.04390078 0.14528854 0.059902627
0.10769625 0.112122506 0.02068375 0.1715229 0.05745655 0.16579756 0.07439351 -0.006977556
-0.0702569 0.060778234 -0.025351692 -0.0038247444 -0.13662605 0.11614789 0.12467241 0.28504622
0.08147519 0.11691986 0.07919044 0.049583912 -0.17638735 -0.11266775 0.032626204 -0.094714485
0.15406513 -0.09628655 -0.020933168 -0.14178558 0.16958994 0.013960017 -0.09511877 -0.09565027
0.21956864 0.11113908 0.27546015 0.17652461 -0.05530062 -0.12379868 -0.03981967 0.1321787
-0.00036134422 -0.115699 -0.1205298 0.052651133 0.04582861 0.11581444 -0.086343385 -0.08147215
0.08175533 -0.025383057 -0.11443863 0.075918786 -0.17276467 0.0021684102 0.0020867146 -0.088051416
-0.1503558 0.116783336 5.2074625e-05 0.06763272 0.08419566 -0.083635025 0.03392928 0.05113787
-0.07109795 0.04084304 -0.08258401 -0.07787018 -0.05130422 0.10430045 -0.07262931 -0.08702679
-0.061584823 -0.058944996 0.07932093 -0.048402466 0.08303205 -0.07682804 0.054849796 -0.12990844
0.089140765 -0.028185107 -0.01860005 -0.032256115 -0.06440204 0.05228601 0.12324068 0.058489926
-0.08608958 -0.0641286 0.03098267 -0.05194618 -0.17215395 0.034891453 0.08235318 -0.018486507
-0.072987266 0.06659388 -0.23976864 -0.107215516 -0.076894805 0.06071155 0.028303545 -0.022665767
-0.009565368 -0.095619105 0.08528148 0.029654557 -0.07644017 0.09959073 0.058002964 0.067597814
-0.048627283 0.037321057 -0.11317084 -0.04959419 0.026273755 0.041982286 0.038355593 0.15947019
0.03554941 0.11708326 0.025298903 0.042859778 0.05384339 -0.04121905 0.17661554 -0.0002323791
-0.0009851903 0.08118089 0.077480674 0.042727802 -0.101292714 0.00037412517 0.069860846 -0.027147131
-0.12719159 0.063341156 -0.10820422 0.15883008 -0.08113757 -0.027716912 -0.14566538 -0.022676213
0.10759223 -0.13173948 0.044910055 -0.15427761 -0.16226444 -0.00041040324 -0.030569786 -0.054242417
-0.047780216 -0.19466674 0.071265906 0.03864999 0.08926332 0.109594986 -0.14088343 -0.005311714
0.14712688 -0.22103196 -0.074631594 -0.03530668 -0.0390268 0.04214617 0.089903265 -0.022458313
0.06688348 0.17854263 0.16299719 0.00959835 0.1256624 -0.03959952 -0.04716476 -0.07091558
-0.16596694 -0.023569683 0.014227078 -0.2042363 0.065074556 -0.08572738 -0.11723499 -0.14564781
-0.0071655125 0.024588913 -0.024472646 -0.20025536 -0.010306344 0.01667239 -0.12473882 -0.0008008914
-0.067753136 0.030029567 -0.060872957 -0.0904319 0.043942478 -0.083422005 -0.27497187 -0.111817285
0.17231822 -0.06632188 0.16864884 0.14475152 0.2678402 0.029547412 -0.34457973 0.061071645
-0.0662528 0.019236322 -0.075690605 0.053565927 0.112243414 -0.10788478 -0.046913844 0.004581045
00000000: 3ccc b5bd b08d a03d 853e b23d c3ac 583d
00000010: de08 ba3d 36de 9a3d ebf5 86bc c261 2cbe
00000020: 7a0b 733e 839a 323e ff27 6e3d 4ba0 bfbc
00000030: 5554 f63c 7acd 993c ed56 403e bf01 8d3d
00000040: ed40 1e3d c98c 66ba 0016 6bbb 67ef 4ebd
00000050: 0418 06be 05f2 703d 46d6 9abd 3363 cb3d
00000060: bbaf d0bc 6d08 42bd 0fd4 0bbe 1977 5e3d
00000070: 37ac 823e e55b 1dbe 116f 0abd 6d0e 783e
00000080: c4af f53d c2b3 2dbd 2bde 93bd 3b30 8bbd
00000090: 3bc1 273d 4ed1 333d 85c6 143e 755c 753d
000000a0: da8f dc3d 7ca0 e53d f870 a93c b3a3 2f3e
000000b0: 8f57 6b3d d6c6 293e a05b 983d fba3 e4bb
000000c0: d9e2 8fbd 99f2 783d 5aae cfbc 90a8 7abb
000000d0: b3e7 0bbe f2de ed3d 4054 ff3d 94f1 913e
000000e0: 77dc a63d ae73 ef3d 992e a23d 8018 4b3d
000000f0: e39e 34be 59be e6bd 0ea3 053d abf9 c1bd
00000100: 40c3 1d3e e231 c5bd 097c abbc 3d30 11be
00000110: fca8 2d3e 8eb8 643c a1cd c2bd 4ae4 c3bd
00000120: 9ad6 603e e39c e33d 1d09 8d3e dec2 343e
00000130: e782 62bd 2a8a fdbd f319 23bd da59 073e
00000140: cd72 bdb9 99f3 ecbd 54d8 f6bd b7a8 573d
00000150: c8b6 3b3d 1f30 ed3d cdd4 b0bd dfda a6bd
00000160: 576f a73d 21f0 cfbc cd5e eabd 4f7b 9b3d
00000170: 39e9 30be e31b 0e3b 43c1 083b 4d54 b4bd
00000180: dff6 19be 1a2c ef3d b46a 5a38 0683 8a3d
00000190: c66e ac3d d748 abbd 6ef9 0a3d f175 513d
000001a0: cd9b 91bd 084b 273d ce21 a9bd 677a 9fbd
000001b0: 6024 52bd 799b d53d adbe 94bd 1a3b b2bd
000001c0: 5e40 7cbd 4f70 71bd 0373 a23d aa41 46bd
000001d0: b50c aa3d 0558 9dbd 2eaa 603d b806 05be
000001e0: 6f8f b63d 74e4 e6bc 225f 98bc fd1e 04bd
000001f0: 37e5 83bd db29 563d 9c65 fc3d 2293 6f3d
00000200: bc4f b0bd db55 83bd 5ecf fd3c 85c5 54bd
00000210: 2049 30be 57ea 0e3d c9a8 a83d 0471 97bc
00000220: 597a 95bd 5f62 883d e985 75be cf93 dbbd
00000230: 067b 9dbd adac 783d d6dc e73c 8fad b9bc
00000240: 10b8 1cbc f3d3 c3bd 0ea8 ae3d 1dee f23c
00000250: aa8c 9cbd 3af6 cb3d 8494 6d3d b970 8a3d
00000260: 672d 47bd f7dd 183d 1dc6 e7bd 4723 4bbd
00000270: 0f3c d73c 9ef5 2b3d c11a 1d3d 274c 233e
00000280: 429c 113d 59c9 ef3d a53f cf3c bc8d 2f3d
00000290: e38a 5c3d 4ed5 28bd b4da 343e caaa 73b9
000002a0: 8021 81ba 2b42 a63d 30ae 9e3d 5903 2f3d
000002b0: 8e72 cfbd 3b26 c439 3413 8f3d a963 debc
000002c0: 833e 02be 02b9 813d 2d9a ddbd 5aa4 223e
000002d0: 742b a6bd 940e e3bc 4e29 15be 77c3 b9bc
000002e0: 5159 dc3d b7e6 06be 9bf3 373d f3fa 1dbe
000002f0: a628 26be 642b d7b9 7d6d fabc 4c2d 5ebd
00000300: 30b5 43bd b856 47be dcf3 913d 744f 1e3d
00000310: b0cf b63d 5673 e03d bf43 10be e30d aebb
00000320: 6ea8 163e 3456 62be 73d8 98bd bd9d 10bd
00000330: 91da 1fbd 76a1 2c3d 341f b83d 7ffa b7bc
00000340: 35fa 883d e1d3 363e bce8 263e 6642 1d3c
00000350: a5ad 003e 1b33 22bd d62f 41bd 303c 91bd
00000360: 3df3 29be 3515 c1bc b118 693c 5223 51be
00000370: cf45 853d d691 afbd e618 f0bd b324 15be
00000380: adcc eabb b06e c93c dc7a c8bc be0f 4dbe
00000390: f1db 28bc 8994 883c 1177 ffbd e9f2 51ba
000003a0: 28c2 8abd 9100 f63c ec55 79bd 5c34 b9bd
000003b0: 07fd 333d 28d9 aabd 1dc9 8cbe 7600 e5bd
000003c0: 3074 303e c4d3 87bd 48b2 2c3e be39 143e
000003d0: 5a22 893e 6a0d f23c c16c b0be 4326 7a3d
000003e0: 8caf 87bd 7e95 9d3c ad03 9bbd f267 5b3d
000003f0: e0df e53d b2f2 dcbd bb28 40bd 971c 963b

Y.net.3.0.bias f4 [100]
0.006712837 0.007149485 0.071431704 0.0419666 0.007971398 3.0045834e-05 0.0011271427 0.0014380316
0.05294944 0.0047753477 -0.005175014 0.01616382 0.008723066 -0.0018591908 0.015431416 0.016445812
0.022328625 0.008510921 0.0050341156 0.00013847293 0.018358272 -0.011733672 0.0071577495 0.010715436
0.027428232 0.011282243 0.024419934 0.01609959 -0.00044443275 0.0061824927 0.003042088 0.017904643
0.009693874 -0.0017120426 0.0057629794 0.012821477 0.0038080986 0.006925673 0.008684502 0.0017766994
0.04001612 0.0151828695 0.0018181176 0.035711903 0.01513664 0.0061573167 0.005286616 0.018011894
0.004076302 0.01005224 0.0016686432 0.0039026337 0.014346212 0.001007194 -0.01726281 0.040179614
0.0024357825 0.00793754 -0.016905151 0.00917191 0.01497693 0.018146291 0.024391757 0.023776181
0.009802355 -0.002963286 0.009476534 0.00089376204 0.01642718 -0.0032294607 0.07399212 0.0014568672
0.031950213 0.007380325 0.005467746 0.026877292 0.01912346 0.030218596 0.0021756254 0.013318058
0.04663358 0.029701889 0.016198752 0.013031612 0.003365682 0.0069417725 0.0013785156 0.0015265696
0.010999948 0.005611945 0.029328173 -0.0057838694 0.007473035 -0.0021893713 0.0048876167 -0.0059465473
0.006987032 -0.009646442 0.0062508765 0.012086575
00000000: 5cf7 db3b 3a46 ea3b c94a 923d 2be5 2b3d
00000010: 779a 023c f00a fc37 a2bc 933a 557c bc3a
00000020: 83e1 583d 857a 9c3b 2a93 a9bb fd69 843c
00000030: 31eb 0e3c 17b0 f3ba 0dd4 7c3c 5eb9 863c
00000040: 85ea b63c 6471 0b3c 39f5 a43b 0b33 1139
00000050: 1664 963c 963e 40bc 8e8b ea3b cc8f 2f3c
00000060: 2cb1 e03c 28d9 383c 500c c83c 4ae3 833c
00000070: c102 e9b9 8296 ca3b c45d 473b c2ac 923c
00000080: 0ed3 1e3c 9e66 e0ba 60d7 bc3b 2c11 523c
00000090: 4b91 793b c2f0 e23b 7149 0e3c 24e0 e83a
000000a0: f1e7 233d 92c1 783c e74d ee3a a546 123d
000000b0: abff 773c 51c3 c93b 593b ad3b ae8d 933c
000000c0: 8092 853b 27b2 243c 60b6 da3a 54c3 7f3b
000000d0: 600c 6b3c d303 843a bd6a 8dbc 6193 243d
000000e0: a6a1 1f3b 750c 023c ac7c 8abc c745 163c
000000f0: cc61 753c 88a7 943c 39d1 c73c 44c6 c23c
00000100: 0f9a 203c b033 42bb 7743 1b3c 5b4b 6a3a
00000110: 4b92 863c 5ca5 53bb 2e89 973d 5af4 be3a
00000120: 3ade 023d a7d6 f13b c72a b33b c42d dc3c
00000130: cda8 9c3c fd8c f73c f094 0e3b fc33 5a3c
00000140: da02 3f3d 6051 f33c 3fb3 843c 8b82 553c
00000150: c692 5c3b cf77 e33b 4faf b43a 2d17 c83a
00000160: 2039 343c 68e4 b73b a341 f03c 9d86 bdbb
00000170: 5ce0 f43b 8e7b 0fbb 4d28 a03b 41db c2bb
00000180: 79f3 e43b 1c0c 1ebc 27d4 cc3b c506 463c

Y.net.4.0.weight f4 [100, 100]
-0.013866985 0.06944728 -0.115409635 0.21203168 0.008314961 -0.0509914 -0.03088815 0.068965234
0.06769323 -0.30746898 0.028962387 -0.114819504 0.058642868 0.034284234 -0.041326884 0.08626686
-0.0355973 0.102697045 -0.028335622 0.00073797157 0.007969746 0.1023118 -0.051064286 0.11364897
0.031748362 -0.15143842 0.14281721 0.10306356 0.033165284 -0.065028764 0.038064137 -0.004878454
0.07811744 -0.14246866 -0.014454025 -0.082363516 -0.07460933 -0.1026322 -0.11712503 -0.25281945
0.014764402 -0.023776893 0.10985095 -0.038422808 0.02980757 0.015041246 0.015481115 0.0462732
0.08000432 0.07215463 -0.018210387 0.05542812 -0.010211122 -0.08130731 -0.046338994 -0.07318306
0.09375632 -0.059817128 0.055536892 -0.059442867 -0.3009668 0.11429286 0.012555162 -0.10094851
-0.10989711 -0.041666776 -0.1112322 -0.11546718 -0.1340106 0.034053523 -0.10071131 0.070377514
-0.040540133 0.0056758556 -0.10565999 -0.09942188 -0.07326248 0.0099391155 -0.1412642 -0.06820863
-0.02512006 -0.17685539 -0.029399246 0.10998695 -0.13187735 0.0059305853 0.035411954 0.04991275
0.063345 -0.114676505 -0.12857896 0.2648081 -0.00039670666 -0.024626717 0.041838832 -0.10319036
0.10828873 -0.0069980524 -0.07325246 -0.1723494 -0.14924237 -0.1628482 0.07433736 0.15549111
-0.00078313245 0.011830565 0.11546145 -0.04498644 -0.075440094 0.1903582 -0.07478516 -0.031901427
0.062515736 0.055465307 -0.07149226 -0.010811472 0.029592758 -0.02425372 0.008317083 -0.081134126
-0.019560032 -0.23382922 0.20940357 -0.055349365 0.03785024 -0.012961004 0.015204696 -0.07032322
-0.21521284 -0.0057660253 -0.09636525 -0.023445493 0.07436835 -0.18702435 -0.000120223835 -0.19233996
0.11669012 -0.011352969 0.049756203 0.027045088 0.05904496 -0.009119915 0.16756685 -0.05679574
-0.17112121 -0.21772645 -0.028833514 0.007577366 0.0714429 0.038347226 0.03731323 0.15624936
0.002685591 -0.0034928105 0.08036887 -0.046385754 0.07522584 -0.05857633 0.11991269 0.08427471
-0.13294932 -0.09794327 -0.19430912 -0.13820772 -0.063414045 -0.014219243 -0.04166107 0.025004037
-0.0056350743 0.026184488 0.060108736 0.022313738 -0.10158716 0.008169168 0.0002123366 0.08818302
-0.0019988827 0.026676148 -0.08896074 -0.23199534 -0.19506118 0.09874785 -0.018839322 -0.17093149
0.044647783 0.1444405 0.02069838 -0.014299581 0.025347928 -0.059923958 -0.20898138 0.013940645
-0.14395767 -0.16179928 -0.092532106 -0.15952441 0.022354139 0.031929813 -0.14252988 -0.10944098
0.030580988 -0.04436712 -0.09806989 0.081176616 0.040657885 -0.050552264 -0.117389716 -0.052808907
-0.011638505 0.16953592 -0.10848206 0.12578009 0.19992533 -0.0916774 0.03435807 0.19035313
-0.115199864 0.13380392 -0.14263341 0.075725 -0.08470682 0.10499904 -0.013244205 -0.10992136
-0.046147842 -0.28915343 -0.12608899 -0.013443561 -0.14157857 0.0599572 -0.081993364 -0.07862349
0.038738225 0.14518759 -0.012437648 0.12586652 0.113798514 -0.00980346 -0.23342736 -0.1544669
-0.09115783 0.15160704 -0.1202516 0.08222248 0.008759711 -0.036049582 -0.15124005 0.08465308
-0.029079989 0.14752908 -0.04247072 0.038485914 0.29536355 -0.04536398 -0.05086901 -0.014164429
00000000: 5a32 63bc 603a 8e3d e35b ecbd d51e 593e
00000010: 793b 083c 5cdc 50bd 2509 fdbc a53d 8d3d
00000020: c0a2 8a3d 936c 9dbe 8742 ed3c 7d26 ebbd
00000030: 8133 703d a06d 0c3d 6146 29bd aeac b03d
00000040: 79ce 11bd d452 d23d 1b20 e8bc 6f74 413a
00000050: 8a93 023c d988 d13d c928 51bd cbc0 e83d
00000060: 920a 023d ac12 1bbe ad3e 123e fd12 d33d
00000070: 52d8 073d cd2d 85bd 24e9 1b3d 70db 9fbb
00000080: 09fc 9f3d 4ee3 11be 93d0 6cbc 34ae a8bd
00000090: c7cc 98bd d530 d2bd 3fdf efbd 8d71 81be
000000a0: 64e6 713c c2c7 c2bc 89f9 e03d 3c61 1dbd
000000b0: 012f f43c 8f6f 763c 81a4 7d3c f888 3d3d
000000c0: 4ed9 a33d cfc5 933d f32d 95bc 9908 633d
000000d0: 8d4c 27bc 7284 a6bd f5cd 3dbd 00e1 95bd
000000e0: 5003 c03d ce02 75bd a77a 633d 5d7a 73bd
000000f0: 5218 9abe 6012 ea3d 2bb4 4d3c 18be cebd
00000100: bc11 e1bd c8aa 2abd b5cd e3bd 0f7a ecbd
00000110: 133a 09be b57b 0b3d bb41 cebd 1622 903d
00000120: 690d 26bd 87fc b93b 4464 d8bd b39d cbbd
00000130: a40a 96bd acd7 223c 90a7 10be f7b0 8bbd
00000140: 96c8 cdbc 9419 35be b0d6 f0bc d740 e13d
00000150: db0a 07be 5b55 c23b 200c 113d 5071 4c3d
00000160: 06bb 813d 84db eabd 34aa 03be ed94 873e
00000170: 11fd cfb9 f8bd c9bc 325f 2b3d 7855 d3bd
00000180: 7bc6 dd3d eb4f e5bb 6305 96bd 5c7c 30be
00000190: fed2 18be aec1 26be 303e 983d 1039 1f3e
000001a0: 214b 4dba fcd4 413c 0d77 ec3d b443 38bd
000001b0: 5680 9abd 43ed 423e f628 99bd 12ab 02bd
000001c0: 4008 803d 972f 633d 896a 92bd 9a22 31bc
000001d0: 836c f23c bdaf c6bc 6044 083c a629 a6bd
000001e0: 5c3c a0bc ed70 6fbe e46d 563e 04b6 62bd
000001f0: da08 1b3d 645a 54bc 1e1d 793c 9f05 90bd
00000200: c160 5cbe edf0 bcbb 255b c5bd c310 c0bc
00000210: 6f4e 983d 5083 3fbe ae20 fcb8 c4f4 44be
00000220: 3bfb ee3d ce01 3abc 29cd 4b3d a98d dd3c
00000230: 21d9 713d b26b 15bc a596 2b3e a6a2 68bd
00000240: 663a 2fbe aff3 5ebe 4334 ecbc 8e4b f83b
00000250: a850 923d fb11 1d3d c2d5 183d d5ff 1f3e
00000260: be00 303b a3e7 64bb 6f98 a43d fdfe 3dbd
00000270: 0110 9a3d bced 6fbd c994 f53d 3898 ac3d
00000280: de23 08be 7b96 c8bd f8f8 46be 5386 0dbe
00000290: 39df 81bd d4f7 68bc cca4 2abd 44d5 cc3c
000002a0: 6ea6 b8bb da80 d63c 9434 763d 4dcb b63c
000002b0: ee0c d0bd f9d7 053c aca6 5e39 4d99 b43d
000002c0: b0ff 02bb f087 da3c 0c31 b6bd 3090 6dbe
000002d0: 1ebe 47be 503c ca3d ec54 9abc aa08 2fbe
000002e0: 98e0 363d 36e8 133e a68f a93c ca48 6abc
000002f0: 75a6 cf3c d372 75bd 37ff 55be 4e67 643c
00000300: a469 13be b6ae 25be 7981 bdbd 5e5a 23be
00000310: 0720 b73c d6c8 023d 5af3 11be 9822 e0bd
00000320: fb84 fa3c 4cba 35bd ded8 c8bd ed3f a63d
00000330: e288 263d e40f 4fbd 056a f0bd 274e 58bd
00000340: 6eaf 3ebc d39a 2d3e d82b debd 7fcc 003e
00000350: 3ab9 4c3e 5cc1 bbbd 0cbb 0c3d eeeb 423e
00000360: e8ed ebbd e503 093e 7e0e 12be b515 9b3d
00000370: c57a adbd bd09 d73d 39fe 58bc 731e e1bd
00000380: 8505 3dbd eb0b 94be 791d 01be 6242 5cbc
00000390: f9f9 10be ae95 753d 23ec a7bd 5a05 a1bd
000003a0: f9ab 1e3d 0eac 143e 47c7 4bbc 27e3 003e
000003b0: 320f e93d b19e 20bc 9507 6fbe 922c 1ebe
000003c0: f5b0 babd e03e 1b3e 7946 f6bd 4264 a83d
000003d0: e484 0f3c baa8 13bd acde 1abe 985e ad3d
000003e0: 2839 eebc dd11 173e c7f5 2dbd 68a3 1d3d
000003f0: e439 973e 95cf 39bd 065c 50bd ec11 68bc

Y.net.4.0.bias f4 [100]
-0.026403911 -0.00013675798 0.024694642 0.030998984 0.022742145 -0.008211629 -0.002215429 0.00468046
-0.005184569 0.009354713 -0.0084206555 -0.007573235 -0.0143469265 0.023999054 0.005456343 0.006551936
0.006384655 -0.010548988 0.020575745 0.01358067 0.007141266 -0.009905243 0.00546376 -0.025447452
-0.0058685206 -0.0060009426 -0.0061505213 -0.012137091 0.015157082 -0.0033934603 0.008702314 -0.017631043
-0.011725718 0.009515819 0.003594489 0.0012450712 0.0072831213 0.0026712457 -0.0033025409 0.010678123
-0.01168043 -0.006653647 0.017069627 0.0068599377 0.016416645 0.012312043 0.007612544 0.0052175624
0.0037221494 -0.021836309 0.038667478 -0.017143555 -0.01959225 0.022520741 -0.030583568 -0.005161138
0.0023240494 0.0038970485 0.008068384 0.003406299 0.0393788 0.014141809 0.018824046 -0.02005497
-0.10000643 -0.0072893277 -0.013255711 0.026544157 0.015869448 0.013913585 0.012930589 0.014113964
-0.0008244904 0.038879313 -0.010497501 -0.005531162 0.0099596 0.008909607 -0.0033100627 0.0018899066
0.013585809 0.0060430546 -0.00061184465 -0.004118709 0.009075035 -0.012937485 0.018402243 0.015328008
0.006625683 0.0040412685 0.014067241 -0.028573696 -0.013269273 -0.008294774 0.013043945 -0.025914855
0.014962235 -0.0012897357 0.0031092507 0.004244922
00000000: 044d d8bc b166 0fb9 6b4c ca3c 95f1 fd3c
00000010: bc4d ba3c 128a 06bc bb30 11bb 8b5e 993b
00000020: 51e3 a9bb 8344 193c caf6 09bc e628 f8bb
00000030: 5f0f 6bbc aa99 c43c 1fcb b23b 9fb1 d63b
00000040: 5e36 d13b aad5 2cbc 778e a83c 7581 5e3c
00000050: 4801 ea3b 9a49 22bc 5709 b33b 2d77 d0bc
00000060: b84c c0bb 8ea3 c4bb 508a c9bb a6da 46bc
00000070: 6955 783c d164 5ebb 2794 0e3c fa6e 90bc
00000080: 3a1d 40bc 3de8 1b3c 8591 6b3b a831 a33a
00000090: 40a7 ee3b 1110 2f3b 716f 58bb 4bf3 2e3c
000000a0: 465f 3fbc d606 dabb 9ad5 8b3c 54c9 e03b
000000b0: 337c 863c 74b8 493c a672 f93b 16f8 aa3b
000000c0: 4eef 733b 0fe2 b2bc ca61 1e3d a470 8cbc
000000d0: ed7f a0bc 6b7d b83c 648a fabc c31e a9bb
000000e0: 144f 183b a065 7f3b 4131 043c 373c 5f3b
000000f0: aa4b 213d 0cb3 673c e334 9a3c 524a a4bc
00000100: 2cd0 ccbd 50db eebb 7b2e 59bc 2273 d93c
00000110: a500 823c cef5 633c d2da 533c 413e 673c
00000120: 9d22 58ba ea3f 1f3d b6fd 2bbc c03e b5bb
00000130: 972d 233c 9af9 113c a3ed 58bb beb6 f73a
00000140: 0397 5e3c d104 c63b 3364 20ba 3cf6 86bb
00000150: 75af 143c bff7 53bc 4dc0 963c 5322 7b3c
00000160: 421c d93b 9e6c 843b 497a 663c 6213 eabc
00000170: 5d67 59bc cee6 07bc 45b6 553c 644b d4bc
00000180: 2a24 753c 590c a9ba 92c4 4b3b fd18 8b3b

Y.net.5.weight f4 [20, 100]
-0.010494806 -0.09055728 -0.35332146 -0.018646553 -0.43361968 -0.2175628 -0.08774024 -0.11191206
0.113347284 -0.14992326 -0.18027426 0.18239737 -0.31352732 -0.08357451 -0.18695953 -0.274126
-0.027610265 0.41111356 -0.037813034 -0.37442204 -0.10409007 0.07987561 0.08704743 -0.3519472
-0.028341928 -0.011247001 0.052288804 0.05842677 0.048246816 0.15786834 -0.008122326 -0.26839432
0.17845652 0.0847142 0.26400232 0.11051501 -0.16054939 -0.11260943 0.14031176 -0.029698232
0.12713537 -0.08050299 0.107611746 0.15102644 -0.18195403 0.16471091 -0.0615141 0.11700708
0.0046300003 0.07695609 0.10130873 0.026407514 0.07449992 0.06219658 0.07955208 0.062795915
0.087768994 -0.14599441 -0.2770287 -0.12993938 -0.097064435 0.015082354 0.08203773 -0.04520262
0.21512567 0.09672605 -0.088233724 -0.008399107 -0.088992685 0.025767297 -0.08864381 -0.016917706
0.085537925 0.14962414 -0.07218874 -0.1739153 0.1395076 0.09334611 -0.1556479 -0.20602489
0.29222253 -0.035077747 -0.121223636 -0.09744731 -0.21766272 0.031064613 -0.42191705 -0.19696404
-0.22816451 -0.0450387 -0.03150521 -0.0040692785 0.038895316 0.0054511833 -0.14496319 -0.20010455
-0.03899292 -0.40773818 0.03385813 0.027126038 -0.032343496 -0.32399955 -0.44960532 0.111038946
-0.06774977 0.04113899 -0.554787 0.060889274 -0.03942745 0.087431364 -0.19727592 0.14519298
0.0814034 0.040950943 0.013681716 0.124808095 0.21059242 -0.2354586 0.081178986 -0.104816645
-0.27034745 0.033734735 0.14285704 0.005664066 -0.031380475 0.33803672 -0.095233716 -0.06658514
0.10581951 -0.024493432 0.31137133 -0.28910148 0.22611824 0.1709814 0.24782307 0.20248951
-0.1346807 0.102990076 0.29136398 -0.101589434 0.3288666 0.11496379 -0.10735677 0.51494896
0.2935746 0.08892246 0.20905583 -0.2148754 -0.25353527 0.09580389 0.2247041 0.18049996
0.2272421 -0.2724855 0.11884238 -0.10863006 -0.013456645 -0.28028166 0.34341803 -0.10499236
-0.22833824 0.2564657 0.23538311 -0.052452184 0.3011193 0.15728842 0.07723929 -0.25903028
-0.20110533 0.12740603 -0.16026856 0.2837049 -0.22941099 0.14780037 0.15939751 -0.18588707
-0.12518495 0.06634805 -0.16711512 -0.303685 0.18853895 -0.15953639 -0.46953204 0.37718016
0.07041324 -0.17136179 -0.40942678 0.21245253 -0.37572086 -0.17538948 -0.4306589 -0.10556563
-0.051745698 -0.09267922 -0.17157821 0.07339072 -0.10879901 -0.26504433 0.13959773 0.010568276
0.0636582 -0.2991519 -0.22365646 -0.060712997 -0.15876147 0.11260554 -0.011958242 0.10248628
-0.04742701 -0.07525337 0.2649834 0.07054373 -0.021630231 0.32057065 -0.18892518 -0.054585982
-0.14732863 0.10911318 0.26050055 0.1344873 -0.079283305 -0.07165962 0.1943941 0.04950676
-0.3243896 -0.30154547 0.25858414 -0.09912072 0.21713744 0.22387668 0.00088433543 -0.032106813
-0.029804694 -0.40558985 0.5355898 0.23325354 -0.09406554 0.25174206 0.3453147 -0.13133204
0.14872731 -0.1252316 0.12461773 -0.04241385 0.27685937 0.42305243 -0.43928897 -0.15751524
-0.031746056 -0.23554154 0.061673407 0.23414989 0.26861322 0.006854415 -0.03781119 -0.3104417
00000000: 68f2 2bbc 1876 b9bd 8de6 b4be a8c0 98bc
00000010: 6603 debe c8c8 5ebe 28b1 b3bd 2632 e5bd
00000020: 9f22 e83d 7c85 19be d199 38be 60c6 3a3e
00000030: a786 a0be 1d29 abbd 5272 3fbe 3e5a 8cbe
00000040: ec2e e2bc 7a7d d23e d7e1 1abd 3fb4 bfbe
00000050: 2d2d d5bd d395 a33d ec45 b23d 6c32 b4be
00000060: 552d e8bc 5745 38bc c92c 563d e950 6f3d
00000070: 749e 453d 3da8 213e 8113 05bc fb6a 89be
00000080: 4ebd 363e a37e ad3d 502b 873e b255 e23d
00000090: 0f67 24be c69f e6bd e3ad 0f3e b549 f3bc
000000a0: c62f 023e c0de a4bd 8c63 dc3d ada6 1a3e
000000b0: 2852 3abe faa9 283e 35f6 7bbd 68a1 ef3d
000000c0: 42b7 973b 289b 9d3d f47a cf3d 9254 d83c
000000d0: 6a93 983d d7c1 7e3d 33ec a23d 259b 803d
000000e0: 3bc0 b33d 8f7f 15be b5d6 8dbe d40e 05be
000000f0: b8c9 c6bd fa1b 773c 6603 a83d 6226 39bd
00000100: e749 5c3e 4f18 c63d e2b3 b4bd 689c 09bc
00000110: cc41 b6bd f015 d33c e38a b5bd 0097 8abc
00000120: 822e af3d 1237 193e b1d7 93bd da16 32be
00000130: 15db 0e3e 3f2c bf3d 2a62 1fbe 30f8 52be
00000140: 319e 953e afad 0fbd 1944 f8bd 7592 c7bd
00000150: fae2 5ebe 377b fe3c 8305 d8be f1b0 49be
00000160: f5a3 69be 807a 38bd 9b0b 01bd 9557 85bb
00000170: b250 1f3d d79f b23b 3b71 14be 35e8 4cbe
00000180: 0ab7 1fbd 0fc3 d0be d3ae 0a3d 6d37 de3c
00000190: 9d7a 04bd 45e3 a5be ab32 e6be 6368 e33d
000001a0: 64c0 8abd 5c81 283d 8506 0ebf 0867 793d
000001b0: ae7e 21bd 370f b33d b302 4abe 78ad 143e
000001c0: d3b6 a63d 2dbc 273d 4729 603c 639b ff3d
000001d0: 8aa5 573e 0f1c 71be 2b41 a63d 1caa d6bd
000001e0: fb6a 8abe 6f2d 0a3d 1e49 123e a199 b93b
000001f0: d088 00bd 2613 ad3e e509 c3bd ca5d 88bd
00000200: e6b7 d83d 73a6 c8bc 106c 9f3e 1c05 94be
00000210: 8a8b 673e c015 2f3e 55c5 7d3e 6959 4f3e
00000220: bde9 09be 76ec d23d a92d 953e 1f0e d0bd
00000230: 3461 a83e 2372 eb3d dedd dbbd b2d3 033f
00000240: 694f 963e fb1c b63d bb12 563e 4c08 5cbe
00000250: 60cf 81be d434 c43d d518 663e fbd4 383e
00000260: 27b2 683e 3883 8bbe a263 f33d 7079 debd
00000270: 4379 5cbc 1481 8fbe 7dd4 af3e 3c06 d7bd
00000280: 80d1 69be 794f 833e 4508 713e 1ad8 56bd
00000290: 4f2c 9a3e 3710 213e a22f 9e3d 9e9f 84be
000002a0: 8eee 4dbe ba76 023e 711d 24be c541 913e
000002b0: b7ea 6abe fb58 173e 1a39 233e 2e59 3ebe
000002c0: 7c30 00be 7de1 873d 3a20 2bbe 9a7c 9bbe
000002d0: 5b10 413e 825d 23be 8166 f0be c21d c13e
000002e0: d134 903d 7779 2fbe 63a0 d1be 288d 593e
000002f0: 7c5e c0be 4d99 33be 537f dcbe cb32 d8bd
00000300: 4cf3 53bd 9ace bdbd 33b2 2fbe e04d 963d
00000310: 04d2 debd e4b3 87be b5f2 0e3e 9026 2d3c
00000320: 3b5f 823d 702a 99be 3306 65be 31ae 78bd
00000330: 5e92 22be bc9d e63d 81ec 43bc 54e4 d13d
00000340: d342 42bd 701e 9abd e7ab 873e 3b79 903d
00000350: e231 b1bc d621 a43e 9a75 41be 8d95 5fbd
00000360: 51dd 16be bb76 df3d 5460 853e 0ab7 093e
00000370: 495f a2bd 47c2 92bd 3f0f 473e 9ac7 4a3d
00000380: 6516 a6be 2b64 9abe 2465 843e ceff cabd
00000390: 4759 5e3e ee3f 653e bfd2 673a 6f82 03bd
000003a0: f928 f4bc 79a9 cfbe 6a1c 093f 04da 6e3e
000003b0: 6fa5 c0bd 56e4 803e 17cd b03e e87b 06be
000003c0: f94b 183e b63c 00be 9537 ff3d 25ba 2dbd
000003d0: 83c0 8d3e 549a d83e 7cea e0be ad4b 21be
000003e0: 2708 02bd cd31 71be 419d 7c3d fdc4 6f3e
000003f0: ac87 893e 009b e03b e8df 1abd 37f2 9ebe
