src/logs/Gauss-Legendre/model.pth (torch_old, 556848 bytes, 72 tensors)

Y.net.0.0.weight f4 [100, 4]
0	0xbe564bae	-0.20927307
1	0xbe0b2905	-0.13589866
2	0xbe629112	-0.22125652
3	0xbe1d0ba4	-0.15336472
4	0x3d22b9f9	0.03972814
5	0xbe3d7d25	-0.1850477
6	0x3e54f453	0.20796327
7	0xbe217027	-0.15765439
8	0xbb3a9381	-0.0028469267
9	0xbe084b5e	-0.1331
10	0x3e244231	0.16040875
11	0x3e3374c5	0.17525013
12	0x3d4f6c8a	0.05064062
13	0x3dd26451	0.1027304
14	0x3e9c4cfc	0.30527484
15	0xbc126ad1	-0.0089366
16	0xbd7b9b59	-0.061427448
17	0x3ebac060	0.36474895
18	0xbecf4a51	-0.40486386
19	0xbe8bf050	-0.2733178
20	0xbe0bde78	-0.13659084
21	0xbdfc95d5	-0.12333266
22	0xbd839496	-0.06424825
23	0x3e502a41	0.20328619
24	0xbe0ad128	-0.1355635
25	0x3e34f6b4	0.17672235
26	0x3db222f2	0.086980715
27	0x3e869928	0.26288724
28	0xbd3c60be	-0.045990698
29	0xbdccfcf0	-0.100091815
30	0x3e801ca5	0.25021854
31	0x3e6cc980	0.23123741
32	0x3ddda317	0.108221225
33	0x3d5c14c7	0.053730752
34	0xbd9df69c	-0.07713053
35	0x3dfa122d	0.12210498
36	0x3da6198b	0.08110341
37	0x3d88e004	0.066833526
38	0xbe2b295c	-0.16714996
39	0xbd96568d	-0.07340727
40	0xbed53130	-0.4163909
41	0xbe13fe21	-0.14452411
42	0x3e40cbaf	0.18827699
43	0xbed9f62e	-0.42570633
44	0xbe9ac2b5	-0.30226675
45	0xbeb002ec	-0.3437723
46	0xbc4e5aff	-0.012594937
47	0x3d893245	0.06699041
48	0x3e0bc03c	0.1364755
49	0xbe944142	-0.28956038
50	0xbdae6c66	-0.08516769
51	0x3daa6205	0.08319477
52	0x3e49d711	0.19710948
53	0xbe2ad292	-0.16681889
54	0xbd2325b9	-0.039830897
55	0x3e4a58f0	0.1976049
56	0xbd290683	-0.041265976
57	0x3e13edb2	0.14446142
58	0xbde37846	-0.11106925
59	0xbd153405	-0.036426563
60	0x3d60f865	0.054924387
61	0xbdf0c3cc	-0.11756095
62	0xbd4159b4	-0.04720469
63	0x3dd3b616	0.103374645
64	0xbe2f8f8b	-0.17144601
65	0xbcb05c33	-0.021528339
66	0xbe5e55ca	-0.21712413
67	0x3df90a79	0.121602006
68	0x3e2bf914	0.16794235
69	0x3d860ad7	0.06545036
70	0xbe816c27	-0.25277826
71	0xbdbfee7e	-0.09371661
72	0xbdf8482d	-0.121231414
73	0x3da4a3c6	0.0803905
74	0x3e201427	0.15632688
75	0xbd33e636	-0.043920718
76	0x3e17fdf0	0.14842963
77	0xbd3e7330	-0.04649657
78	0x3d8608eb	0.0654467
79	0xbe321738	-0.1739167
80	0x3d54cb84	0.0519519
81	0x3db5caaa	0.08876546
82	0x3e7f07b1	0.24905278
83	0xbdedd3a2	-0.116126314
84	0x3ebe4b84	0.3716699
85	0x3e4a32a2	0.19745877
86	0xbdc6ccdf	-0.09707045
87	0xbe0b9f26	-0.13634929
88	0xbc8a96ed	-0.01691767
89	0xbe86730c	-0.2625965
90	0xbd774f96	-0.060378633
91	0x3db0aa7a	0.08626266
92	0x3d8c79b0	0.068591475
93	0xbe5edd96	-0.21764216
94	0x3e959327	0.2921383
95	0x3c83bd80	0.016081572
96	0xbd8d716d	-0.069064
97	0xbe1fad88	-0.1559354
98	0xbd8dbf7c	-0.06921288
99	0x3d7835b9	0.06059811
100	0x3e5197a2	0.20468
101	0xbe92186f	-0.28534266
102	0x3e7811be	0.24225518
103	0x3c7c43bc	0.0153970085
104	0x3a97cf0c	0.001158209
105	0xbde54daa	-0.11196454
106	0xbde4e3ac	-0.111762375
107	0xbeae4636	-0.34037942
108	0x3d9bce41	0.07607699
109	0x3e27488f	0.16336273
110	0xbea24a71	-0.3169742
111	0x3da38a96	0.079854175
112	0x3d3cc947	0.04609039
113	0xbe24093b	-0.16019146
114	0xbeb5ec8d	-0.35532036
115	0x3e770ce5	0.24126013
116	0xbd02aac0	-0.03190112
117	0xbe094a94	-0.13407356
118	0xbce59453	-0.028024828
119	0xbd849ca7	-0.064751916
120	0xbd28783a	-0.041130282
121	0x3cd30145	0.025757441
122	0xbe871dc4	-0.26389897
123	0xbe80bfd0	-0.2514634
124	0x3ce50446	0.02795614
125	0xbdf05a0d	-0.11735926
126	0x3e023384	0.12714964
127	0xbdc6a909	-0.0970021
128	0x3edba881	0.42901996
129	0x3d554b2c	0.052073643
130	0xbe52d123	-0.20587592
131	0xbe2f1cb9	-0.171008
132	0x3dfe123a	0.1240582
133	0xbe35878d	-0.1772749
134	0x3d29b1bc	0.041429266
135	0x3dea417e	0.11438273
136	0x3cc73575	0.024317482
137	0xbdc37f4c	-0.09545764
138	0x3e6fb580	0.2340908
139	0x3d9ca4c8	0.07648617
140	0x3e063d2f	0.13109277
141	0xbdd58994	-0.104266316
142	0xbdfeb960	-0.12437701
143	0xbe035e6d	-0.1282899
144	0xbc55c7c2	-0.013048114
145	0x3e1bb933	0.15207367
146	0x3ec2e1e2	0.3806296
147	0x3d21fbaf	0.039546665
148	0xbe960cdd	-0.2930669
149	0xbe5380fe	-0.20654675
150	0x3eb4c4fb	0.35306534
151	0x3ca105fa	0.01965617
152	0xbe138ae9	-0.14408459
153	0xbd9f149a	-0.07767601
154	0x3e717520	0.23579836
155	0xbd9cfa48	-0.07664925
156	0x3e1ff421	0.15620472
157	0xbdeff6cb	-0.11716994
158	0xbe03597a	-0.12827101
159	0xbdf1e557	-0.11811321
160	0x3e693912	0.22775677
161	0xbd877676	-0.066143915
162	0x3ee67094	0.45007765
163	0x3defa7a2	0.11701895
164	0xbdb6ee12	-0.08932127
165	0xbd0ffa48	-0.035150796
166	0xbe0fe5a0	-0.14052439
167	0x3dbe45ba	0.09290643
168	0xbdf4e0b1	-0.11956919
169	0x3e47c7a1	0.19509746
170	0x3e6f2d94	0.2335723
171	0x3eb4cbd7	0.35311767
172	0x3e4c9dde	0.19982097
173	0xbe3dd457	-0.18538032
174	0x3ead2bb4	0.33822405
175	0x3d8fe617	0.07026308
176	0x3e326aad	0.17423506
177	0xbbfd9fe0	-0.007740006
178	0x3c58d8d1	0.013235287
179	0x3df8403d	0.121216275
180	0x3cdbc5ab	0.026827654
181	0xbe0e4b9f	-0.13896035
182	0x3baf1c71	0.0053439667
183	0x3e1cf105	0.15326317
184	0xbd8f9615	-0.07011048
185	0x3c9a61e8	0.018845513
186	0x3c3b2db0	0.011424467
187	0xbd31ba55	-0.04339059
188	0xbe76ec9d	-0.24113698
189	0xbe22c538	-0.15895545
190	0x3e332a51	0.17496611
191	0xbdc1a49d	-0.094552256
192	0x3d9b658d	0.07587729
193	0x3e2a5807	0.16635142
194	0x3e689961	0.2271476
195	0x3a10294e	0.0005499319
196	0xbddcfa25	-0.10789899
197	0xbe9e97c3	-0.3097516
198	0xbd86aa28	-0.065754235
199	0xbc96afde	-0.018394407
200	0x3c3b5ba9	0.011435428
201	0xbe301d68	-0.17198718
202	0x3bbc1385	0.0057396316
203	0x3e2166bf	0.15761851
204	0x3d97c3e2	0.074104086
205	0x3d8248cd	0.06361542
206	0x3eb93c61	0.36178878
207	0xbe57e9f6	-0.21085343
208	0xbdb818ca	-0.08989103
209	0x3e189877	0.1490191
210	0x3d90c011	0.07067884
211	0x3d40484f	0.04694396
212	0x3da2016e	0.07910429
213	0x3d68ebc5	0.056865472
214	0xbe80cee9	-0.2515786
215	0x3da6d97f	0.08146953
216	0xbe217586	-0.15767488
217	0x3db7fb57	0.08983486
218	0xbf0d20d6	-0.5512823
219	0x3e9b643a	0.30349904
220	0x3de32f45	0.11093
221	0xbde0cb97	-0.10976332
222	0xbe84c7e1	-0.25933746
223	0x3d24cafc	0.040232643
224	0xbe03acf0	-0.12858939
225	0x3e35a0a4	0.17737061
226	0xbe417fc5	-0.18896396
227	0x3ee7e906	0.4529497
228	0x3d43731f	0.04771721
229	0x3e332826	0.17495784
230	0xbdd11707	-0.1020947
231	0x3c255be5	0.01009271
232	0x3d64f45a	0.055897094
233	0xbe575ff7	-0.21032701
234	0x3ceb8b94	0.02875308
235	0xbed3818b	-0.4130977
236	0xbd3fa894	-0.046791628
237	0x3e8e879c	0.27837837
238	0x3dcccace	0.099996194
239	0xbd8d287b	-0.06892487
240	0x3d4348b9	0.047676776
241	0xbd2a837e	-0.041629307
242	0x3d61ad22	0.055096753
243	0x3d8c044c	0.06836757
244	0xbe1ba94a	-0.15201297
245	0x3dc57b16	0.096426174
246	0x3eb075f8	0.34465003
247	0x3b9aef21	0.0047282134
248	0x3dab22e3	0.083562635
249	0xbe853f1a	-0.26024705
250	0x3e220a0b	0.15824144
251	0x3e41cbc3	0.18925385
252	0x3a0b689c	0.0005318017
253	0x3dc07be8	0.09398633
254	0xbdf95dd8	-0.121761024
255	0x3d8e72cd	0.0695549

Y.net.0.0.bias f4 [100]
0	0xbd60f5f0	-0.054922044
1	0x3c732e7a	0.014842624
2	0xbd963a0f	-0.073352925
3	0xbcec8509	-0.02887203
4	0x3dad28c0	0.08455038
5	0x3ba7eb9e	0.0051245233
6	0xbc5aace1	-0.013346882
7	0x3bcb400d	0.006202704
8	0x3ca88f80	0.020576239
9	0xbde578c3	-0.11204674
10	0x3d24b4ac	0.040211365
11	0xbdb4f0a4	-0.08834961
12	0x3da35887	0.079758696
13	0xbd8558a2	-0.06511046
14	0x39c57bd6	0.00037667033
15	0x3c187fca	0.009307811
16	0x3c35b65d	0.011090842
17	0xbd99cdd1	-0.075099595
18	0xbc9b27a2	-0.018939797
19	0x3bf66d66	0.0075203655
20	0xbc7627cc	-0.015024137
21	0x3da0cbff	0.07851409
22	0x3d8f1324	0.06986073
23	0xbd46b51f	-0.048512574
24	0x3d49273f	0.049109694
25	0x3d35c960	0.0443815
26	0x3cb8d6cc	0.02256336
27	0x3d4715c4	0.04860474
28	0x3bd3ad70	0.0064598843
29	0x3d7f9a4b	0.062403005
30	0x3e187c4f	0.1489117
31	0xbd7a4751	-0.06110317
32	0x3d2118b5	0.039330203
33	0x3da172cc	0.07883224
34	0xbdc77d31	-0.09740675
35	0x3cd8cd04	0.026464947
36	0x3d939387	0.07205873
37	0xbce4eac7	-0.027943982
38	0xbc7281ae	-0.014801426
39	0x3c43f18d	0.011959446
40	0xbd4b2bee	-0.04960244
41	0x3d35b5da	0.04436288
42	0x3de3caaf	0.11122643
43	0xbe24d56d	-0.1609704
44	0xbd1ab091	-0.037766043
45	0xbe2c3a95	-0.16819222
46	0xbcbece55	-0.023291746
47	0x3c76191d	0.015020636
48	0xbd9babfb	-0.07601162
49	0xbdcaa7b6	-0.098952696
50	0xbc3c522b	-0.0114942
51	0xbda51089	-0.080597945
52	0x3d30bb50	0.043147385
53	0xbd371651	-0.044699017
54	0xbda8722c	-0.082249016
55	0x3d15ad7a	0.036542393
56	0x3dcf94c3	0.10135796
57	0x3cfef75a	0.031123806
58	0x3cac2f35	0.021018604
59	0xbd02b79f	-0.031913396
60	0xbd8b58c2	-0.068040386
61	0xbcb3a3d6	-0.021928709
62	0xbe2519d0	-0.16123128
63	0x3d7b7bcb	0.061397355
64	0xbd5a1859	-0.053245876
65	0xbd242b07	-0.040080097
66	0xbd31815d	-0.04333626
67	0xbce2c5d6	-0.027682226
68	0xbc2c5546	-0.010518378
69	0xbdd720fe	-0.1050434
70	0x3daa0021	0.08300806
71	0x3d690318	0.056887716
72	0x3a9e500e	0.0012078302
73	0x3ca0a1de	0.019608434
74	0xbd3cb94c	-0.04607515
75	0xbc349a2e	-0.011023087
76	0x3c8caf42	0.017173413
77	0xbd0f476d	-0.034980226
78	0xbd5cb4b6	-0.053883277
79	0xbe0c3018	-0.13690221
80	0x3d914715	0.07093636
81	0x3c02e3e9	0.007988908
82	0xbd97f2df	-0.07419371
83	0xbd66ba02	-0.056329735
84	0x3c7d0f77	0.015445582
85	0x3c27f58a	0.010251412
86	0xbcda41e9	-0.026642757
87	0x3cc46437	0.023973567
88	0xbd4063f4	-0.046970323
89	0xbd33c190	-0.043885767
90	0x3d41eac8	0.047343045
91	0x3c39c037	0.0113373315
92	0x3db0099c	0.08595583
93	0x3d932f49	0.07186753
94	0xbb9f615f	-0.0048639025
95	0xbce408e9	-0.02783628
96	0x3c5887d5	0.013215979
97	0x3b24388a	0.0025058114
98	0x3b262708	0.0025352854
99	0x3d73534e	0.059405617

Y.net.1.0.weight f4 [100, 100]
0	0xbe3ab252	-0.18232086
1	0xbcf9d94b	-0.030499121
2	0x3d89f4b7	0.06736129
3	0xbc944e02	-0.018103603
4	0x3e72425c	0.23658127
5	0xbd70b583	-0.058766853
6	0xbd60214f	-0.054719266
7	0xbd11854d	-0.035527516
8	0xbe2092b2	-0.1568096
9	0xbddfc351	-0.109259255
10	0xbd786abd	-0.06064867
11	0x3d00ae97	0.0314165
12	0x3de7f35f	0.11325716
13	0x3e5f83cc	0.2182762
14	0x3c4856f6	0.012227764
15	0xbe0c4b48	-0.13700593
16	0xbcdeb843	-0.027187472
17	0x3df41c09	0.1191941
18	0xbda97b73	-0.08275499
19	0xbe199c95	-0.15001138
20	0x3e041763	0.12899546
21	0x3c51a369	0.012795308
22	0xbd95d276	-0.07315533
23	0xbe20d3bf	-0.15705775
24	0xbdb32349	-0.087469645
25	0xbbe3f08e	-0.0069561666
26	0x3e5c0ccc	0.21489257
27	0x3d4cd8b1	0.05001134
28	0x3d3e8a69	0.046518717
29	0x3d56147f	0.05226564
30	0x3da59194	0.080844074
31	0xbe5a7429	-0.21333374
32	0x3dd3e71f	0.10346817
33	0xbdefe9ed	-0.1171454
34	0x3ba5e17c	0.00506228
35	0xbca85e47	-0.020552767
36	0x3def715a	0.11691542
37	0x3d0fef7e	0.035140507
38	0x3e2e23e9	0.17005886
39	0xbbe4b5ea	-0.0069796937
40	0x3ebccc61	0.3687468
41	0x3c27fcf5	0.010253181
42	0x3e0ca2c1	0.1373396
43	0x3cda055a	0.02661388
44	0xbe95785b	-0.29193386
45	0xbe10fc21	-0.1415868
46	0xbd0cd5dd	-0.034383643
47	0xbd7899b2	-0.06069345
48	0xbe2dfa80	-0.1699009
49	0xbdbe487d	-0.0929117
50	0x3df2f68e	0.11863433
51	0x3dd865ba	0.10566278
52	0xbd1f5903	-0.038903248
53	0x3d3377db	0.043815475
54	0x3e96b3b1	0.2943397
55	0xbd61c005	-0.055114765
56	0x3ceac38d	0.028657699
57	0x3e261fef	0.16223119
58	0xbd98da0c	-0.07463464
59	0xbc5c5310	-0.013447538
60	0x3dfaf144	0.12253049
61	0xbd23c737	-0.039984908
62	0x3d1b8959	0.03797278
63	0x3dd0cac3	0.10194924
64	0x3e0f8f73	0.14019565
65	0xbcf30ba2	-0.029668633
66	0x3d122747	0.03568199
67	0x3d49f85b	0.049309116
68	0x3d662d24	0.056195393
69	0xbd19e85a	-0.037575103
70	0x3e73df04	0.23815542
71	0xbdf778eb	-0.1208361
72	0x3e391f8b	0.18078439
73	0xbe6c8bc7	-0.23100196
74	0xbc389178	-0.011265151
75	0x3cfa163d	0.030528182
76	0x3dfa130c	0.12210664
77	0xbca393e6	-0.019967984
78	0xbd88502e	-0.06655918
79	0x3e1230d0	0.14276433
80	0x3d4a4ee1	0.04939163
81	0x3d8308db	0.063981734
82	0xbe3c4bc8	-0.18388283
83	0x3e0f8a51	0.14017607
84	0x3c4690f1	0.012119518
85	0x3e77a38d	0.24183483
86	0xbd7e44d4	-0.06207736
87	0x3dae6532	0.08515395
88	0x3e84ea55	0.2596003
89	0xbea665dd	-0.3249959
90	0x3c653351	0.013989286
91	0xbd76469b	-0.06012593
92	0xbc8bc350	-0.017060906
93	0x3da6aec2	0.08138801
94	0x3d06d71e	0.032919995
95	0x3e254dbd	0.16142936
96	0x3d5d4538	0.05402109
97	0x3e005465	0.12532194
98	0xbc2acb05	-0.01042438
99	0x3e0d69f9	0.13809957
100	0xbdb7be28	-0.08971816
101	0x3dd63cda	0.10460825
102	0xbe067c51	-0.1313336
103	0x3da29bb9	0.07939858
104	0xbe1729e9	-0.14762081
105	0x3d50b9c6	0.050958417
106	0xbe886538	-0.26639724
107	0xbc195ffc	-0.009361263
108	0xbe372d85	-0.17888458
109	0x3e351498	0.17683637
110	0x3e139a8e	0.14414427
111	0x3e9ba7a3	0.30401334
112	0xbe282c3d	-0.16423126
113	0x3dfecd57	0.12441509
114	0xbdb2323f	-0.0870099
115	0x3e562e1c	0.20916027
116	0x3d5ddf3f	0.054167982
117	0xbd86ea79	-0.06587691
118	0xbe134f43	-0.14385705
119	0xbc95fbfa	-0.018308628
120	0xbe7f94e5	-0.24959143
121	0x3dac31f2	0.08407964
122	0x3da09a8d	0.07841978
123	0x3dbcb68c	0.092145056
124	0xbd9c1626	-0.07621412
125	0xbe6e642b	-0.23280399
126	0x3c9080fb	0.017639628
127	0x3d5dffdf	0.054199096
128	0xbc95e70c	-0.018298648
129	0xbd08b054	-0.033371285
130	0xbd1b47f4	-0.037910417
131	0x3dc33f03	0.09533503
132	0xb888fb40	-6.531784e-05
133	0x3c2c77c5	0.010526602
134	0x3d97bac0	0.074086666
135	0x3e20c007	0.15698253
136	0x3dab3e5e	0.08361505
137	0xbe231117	-0.15924488
138	0x3d6bbd38	0.0575535
139	0x3e0e9770	0.13924956
140	0xbe20ad17	-0.15691029
141	0x3cc53427	0.02407272
142	0x3cbb3f79	0.022857415
143	0xbde0f707	-0.10984617
144	0x3cd11da4	0.025526829
145	0x3e85a089	0.2609904
146	0x3c8d7d70	0.017271727
147	0xbe2017bc	-0.15634054
148	0x3e64a07f	0.2232685
149	0x3c9eab69	0.019368844
150	0xbe1257fb	-0.14291374
151	0xbccaa29a	-0.024735738
152	0xbe71bf0f	-0.2360804
153	0xbdd05e85	-0.10174278
154	0x3e056a05	0.13028724
155	0xbe0c4253	-0.13697176
156	0x3ddbdc80	0.107354164
157	0xbd2e6017	-0.042572107
158	0x3db3a331	0.08771361
159	0xbde0190e	-0.10942279
160	0x3dd67d7b	0.10473152
161	0xbd3578cf	-0.044304665
162	0xbd6e88aa	-0.0582358
163	0x3e816d77	0.25278828
164	0xbe191e75	-0.14953025
165	0xbe175fd7	-0.14782654
166	0x3dcd8db8	0.10036796
167	0x3dc4c230	0.09607351
168	0xb9bffd0d	-0.00036618896
169	0x3e673472	0.225786
170	0x3e3467c4	0.17617708
171	0x3bb78cd6	0.0056015057
172	0x3cd2831e	0.025697287
173	0xbdb82a01	-0.089923866
174	0xbdf63201	-0.12021256
175	0x3d691e21	0.0569135
176	0xbd62ecdc	-0.055401668
177	0x3d9f4d96	0.0777847
178	0xbd811adf	-0.063039534
179	0xbdf3e6e0	-0.1190927
180	0xbe364ffd	-0.1780395
181	0xbd1b928f	-0.037981566
182	0x3a78a714	0.0009485346
183	0x3dbf685f	0.09346079
184	0xbbdb0b33	-0.0066846847
185	0xbc88ef49	-0.016715663
186	0xbe1865e3	-0.14882617
187	0x3cdb2673	0.026751732
188	0x3d73bc6c	0.059505865
189	0x3bbce204	0.005764248
190	0xbe881181	-0.26575854
191	0x3c00f6c2	0.007871332
192	0xbc9b7508	-0.018976703
193	0x37d8b8e4	2.5835303e-05
194	0x3de2ff6f	0.11083876
195	0xbe6b1450	-0.22956967
196	0x3d491b06	0.049098037
197	0xbd595d03	-0.05306722
198	0xbd13b110	-0.03605753
199	0x3dc6828f	0.09692871
200	0x3ac2fc7d	0.0014876273
201	0x3e1ccc8d	0.15312405
202	0xbd88eabc	-0.06685397
203	0xbd3fac5d	-0.046795238
204	0xbda68211	-0.08130277
205	0xbd52e84a	-0.05149106
206	0xbe666e51	-0.2250302
207	0xbd7b1c87	-0.061306503
208	0x3d2572c3	0.04039265
209	0x3c78736b	0.015164237
210	0x3e08985b	0.13339369
211	0x3dc6b30f	0.097021215
212	0x3d5ba8b1	0.053627674
213	0x3c61df80	0.013786197
214	0xbdd6f407	-0.10495763
215	0x3cf13b33	0.029447174
216	0xbe8e686b	-0.2781404
217	0xbd5c4b06	-0.053782485
218	0xbd9927f3	-0.07478323
219	0x3e3231a4	0.17401749
220	0xbe93ad88	-0.2884333
221	0xbdb2491f	-0.08705353
222	0x3e09d111	0.13458659
223	0xbddc564e	-0.10758649
224	0x3ddb021c	0.10693762
225	0xbd831828	-0.06401092
226	0x3de67e80	0.11254597
227	0xbdb221aa	-0.08697827
228	0x3d33ec55	0.043926556
229	0xbdfd5266	-0.12369232
230	0x3bd3917d	0.0064565525
231	0x3e4bf3fd	0.19917293
232	0x3d6ab0d3	0.05729754
233	0x3d8bc0ba	0.06823869
234	0xbe47b920	-0.19504213
235	0x3d731996	0.059350573
236	0xbccabedd	-0.024749214
237	0x3dc205c8	0.09473759
238	0xbe49ffc9	-0.1972648
239	0xbd32513c	-0.043534502
240	0xbd553a92	-0.05205781
241	0x3ccbc726	0.024875235
242	0xbdf30780	-0.11866665
243	0xbe332a5d	-0.17496629
244	0x3cf420e5	0.029800842
245	0xbd1658c3	-0.036705744
246	0x3e915bde	0.28390402
247	0xbe092bca	-0.1339561
248	0x3cc22666	0.02369995
249	0x3d52feda	0.051512577
250	0xbdc7c16c	-0.09753689
251	0x3d2805db	0.04102121
252	0xbe81f2ea	-0.2538064
253	0xbd900e7f	-0.07034015
254	0x3e17fd88	0.14842808
255	0xbcfcedcd	-0.030875111

Y.net.1.0.bias f4 [100]
0	0xbd442ba6	-0.04789319
1	0x3cac4082	0.021026853
2	0x3c82b09e	0.015953358
3	0xbbe1e693	-0.0068939417
4	0x3d9f208d	0.077698804
5	0x3e04d05f	0.12970112
6	0x3dd91ffb	0.10601803
7	0x3dd9db7d	0.10637567
8	0xbcf889ea	-0.0303392
9	0x3e3e2750	0.18569684
10	0xbca7ac31	-0.02046785
11	0xbd518a9f	-0.05115759
12	0xbd5a5a80	-0.053308964
13	0x3c405bd8	0.011740647
14	0x3d641f76	0.055694066
15	0x3d8a8ed2	0.06765522
16	0x3dc4a74a	0.0960222
17	0xbdd02391	-0.10163034
18	0xbe046be1	-0.12931778
19	0x3dafd00e	0.08584605
20	0xbd1c76b9	-0.03819916
21	0x3a213f33	0.000615108
22	0x3d9bba63	0.0760391
23	0x3c9b4dad	0.018957937
24	0xbd65ceb3	-0.056105327
25	0x3e023cf4	0.12718564
26	0x3d2e36a0	0.042532563
27	0xbcd2180d	-0.025646234
28	0x3dea035b	0.11426421
29	0x3cd5dc22	0.026105944
30	0xbd1d374f	-0.038382825
31	0xbc2d8fc2	-0.010593357
32	0xbcf59e70	-0.029982775
33	0x3dcdfe82	0.10058309
34	0x3d674022	0.056457646
35	0x3d5bcc68	0.053661734
36	0x3d6e94df	0.058247443
37	0x3d268824	0.040657178
38	0x3d366550	0.044530213
39	0x3d26b783	0.040702354
40	0x3baa1e06	0.0051915674
41	0xbd2c3b56	-0.042048775
42	0xbd3b6134	-0.045746997
43	0x3d1e8a6b	0.038706224
44	0xbe1889bc	-0.14896291
45	0xbd2e50e0	-0.042557597
46	0x3d54d23f	0.05195832
47	0x3dd019b0	0.101611495
48	0x3cfd2454	0.030901112
49	0x3da91634	0.08256188
50	0xbccd6e09	-0.025076883
51	0x3dddc1c1	0.10827971
52	0x3d47126f	0.048601564
53	0xbc4871cb	-0.012234162
54	0x3c71be1d	0.014754799
55	0x3d4aa75d	0.049476016
56	0xbd5d20f1	-0.053986493
57	0xbd996070	-0.07489097
58	0x3d6a67c3	0.05722786
59	0x3e0dbbf6	0.13841233
60	0x3da29ef8	0.07940477
61	0x3d30dd90	0.04318005
62	0x3d058023	0.032592904
63	0x3d488ef5	0.04896446
64	0x3d6921af	0.05691689
65	0x3d2314c7	0.039814737
66	0x3da5965a	0.08085318
67	0x3e34c6b5	0.17653926
68	0x3ddb013b	0.10693594
69	0xbb9e532a	-0.0048316913
70	0x3cf3a02f	0.029739467
71	0x3d4d496b	0.050118845
72	0xbd37f44f	-0.044910725
73	0x3d77e006	0.06051638
74	0x3d8c0c47	0.06838279
75	0x3d817b01	0.06322289
76	0xbda48072	-0.080323115
77	0x3c03cfa7	0.008045114
78	0x3dc3deaa	0.09563954
79	0x3e03e3ad	0.1287982
80	0xbd610243	-0.054933798
81	0x3deaae41	0.114590175
82	0xbc8da119	-0.017288731
83	0x3d277132	0.040879436
84	0x3dd38aed	0.10329232
85	0xbd8657b8	-0.065597
86	0x3dfe716a	0.12423976
87	0x3cd28c96	0.025701802
88	0x3a08e96e	0.0005222772
89	0x3d4c5085	0.049881477
90	0x3d7c95d9	0.061666343
91	0xbcc9bb9d	-0.024625594
92	0x3cd53d3e	0.02603018
93	0x3da3a1ee	0.0798987
94	0x3ce9a096	0.028518956
95	0xbdb3eed4	-0.08785787
96	0xbba035b9	-0.0048892167
97	0x3d235b46	0.039881967
98	0x3c3cc5ee	0.0115217995
99	0xbd02f9eb	-0.03197662

Y.net.2.0.weight f4 [100, 100]
0	0xbe45ae90	-0.19304872
1	0x3e85d1f1	0.26136735
2	0xbe265c5d	-0.16246171
3	0xbdda1248	-0.10648018
4	0xbe4456a2	-0.19173673
5	0x3e497000	0.19671631
6	0x3cbae204	0.02281285
7	0xbd9a1927	-0.07524329
8	0xbcad54dc	-0.021158628
9	0x3d664b0d	0.056223918
10	0xbbfcc349	-0.0077137095
11	0xbe1f31a9	-0.15546288
12	0x3d74a535	0.059727866
13	0x3c8dcf54	0.017310776
14	0x3d510dbd	0.051038492
15	0x3c3a1b01	0.011358977
16	0x3d91e4ca	0.07123716
17	0x3cc97418	0.02459149
18	0x3e38eccd	0.18059082
19	0xbd79b613	-0.060964655
20	0x3dbe68dc	0.09297344
21	0x3c0e4060	0.00868234
22	0x3d9e62bb	0.07733675
23	0xbc183a53	-0.009291249
24	0xbe24f8ef	-0.16110586
25	0x3d77d0f0	0.060501993
26	0x3cf1f6f3	0.0295367
27	0xbca481c0	-0.0200814
28	0xbd372201	-0.044710163
29	0xbe902fdd	-0.28161517
30	0xbda30c32	-0.079613104
31	0xbc42dc62	-0.011893364
32	0xbd2de962	-0.0424589
33	0xbd90b10c	-0.07065019
34	0x3d9a1c75	0.07524959
35	0x3db096bf	0.086225025
36	0xbe10eb47	-0.14152251
37	0xbd96bf9e	-0.07360767
38	0x3de019f6	0.10942452
39	0x3da192dd	0.0788934
40	0xbd8d1006	-0.06887822
41	0xbd908803	-0.07057192
42	0x3d2f4295	0.042788107
43	0x3d1631e4	0.036668673
44	0xbe2a7df4	-0.1664961
45	0x3c9e457d	0.019320244
46	0xbe099bd7	-0.13438354
47	0xbda46911	-0.08027852
48	0x3cf962fc	0.030442707
49	0xbdfac419	-0.12244434
50	0x3dca34cb	0.09873351
51	0x3dfbf9db	0.123035155
52	0x3dcccaa6	0.099995896
53	0x3d982732	0.07429351
54	0xbcaf4918	-0.021397159
55	0x3e1d2d9d	0.15349431
56	0x3d1cf8e5	0.0383233
57	0x3de80b3b	0.11330267
58	0xbe29fb54	-0.1659978
59	0xbe2f6194	-0.17127067
60	0x3d8db840	0.069199085
61	0x3c5b88b9	0.013399296
62	0xbed1a379	-0.40945032
63	0x3dc00bf0	0.09377277
64	0x3c7dfd99	0.015502357
65	0xbcf140a4	-0.029449768
66	0x3da02cad	0.07821021
67	0xbe16c63c	-0.14724058
68	0x3df485ce	0.11939584
69	0xbe5e1e76	-0.21691307
70	0xbe3d1158	-0.18463647
71	0xbe8052b0	-0.25063086
72	0x3e3e4dcc	0.18584365
73	0x3d0749b7	0.033029284
74	0x3d87fa71	0.06639565
75	0xbe89c781	-0.26910022
76	0x3d562dd0	0.052289784
77	0xbcc77fc6	-0.02435292
78	0xbdac3795	-0.08409039
79	0x3dd6f8d4	0.10496679
80	0xbde03230	-0.109470725
81	0xbdd977a0	-0.1061852
82	0xbded2f97	-0.11581343
83	0xbe33f40b	-0.17573564
84	0xbda721cc	-0.08160743
85	0xbe0a47b3	-0.13503914
86	0xbd4cba56	-0.04998239
87	0x3d8ca426	0.06867246
88	0xbe7c7b1f	-0.24656342
89	0x3e048a2a	0.1294333
90	0xbd4ad7f4	-0.049522355
91	0x3e156832	0.14590529
92	0xbc81b520	-0.015833437
93	0x3d7f1ff3	0.06228633
94	0xbc450a12	-0.012026327
95	0xbdf08f9a	-0.1174614
96	0xbc5c25b1	-0.013436721
97	0xbe255515	-0.16145737
98	0x3b87b5ce	0.004141546
99	0x3ae2f5ae	0.001731565
100	0xbe4559d6	-0.19272551
101	0x3d0ec5f3	0.034856748
102	0xbe6e06a1	-0.23244716
103	0x3dfab872	0.122422114
104	0x3de2863c	0.110607594
105	0x3c87c72f	0.01657447
106	0x3e57273c	0.2101106
107	0x3e166ac1	0.14689161
108	0x3e93c0bb	0.2885798
109	0x3df3a564	0.1189678
110	0xbeb9cc76	-0.36288804
111	0xbc2d53fe	-0.010579107
112	0x3d3dd7b7	0.0463483
113	0xbe1b432e	-0.15162346
114	0x3e5255f7	0.20540605
115	0xbcd79793	-0.026317393
116	0xbdafbc52	-0.08580841
117	0x3e0d70a3	0.13812499
118	0x3da8e082	0.082459465
119	0xbd262dec	-0.04057114
120	0xbcc55ff7	-0.024093611
121	0xbe79e36a	-0.24403158
122	0x3da9721d	0.082737185
123	0x3e60af9e	0.21941993
124	0xbdf75d9f	-0.12078404
125	0x3d928722	0.07154681
126	0x3dfcd455	0.123451866
127	0x3ccfeeb0	0.02538237
128	0xbcbaef3f	-0.02281916
129	0x3e05fe2c	0.1308524
130	0xbdd38655	-0.10328356
131	0x3e8ed68d	0.27898064
132	0xbdb319bf	-0.08745145
133	0xbe2f93bd	-0.17146201
134	0x3e68af22	0.22723058
135	0x3cb09c98	0.021559045
136	0x3da28a03	0.0793648
137	0xbda3d843	-0.08000233
138	0xbe187a42	-0.14890388
139	0xbdbb774b	-0.09153613
140	0x3d9d68b0	0.07685983
141	0x3e0f451c	0.13991207
142	0xbd7d5c19	-0.06185541
143	0x3df2577f	0.11833095
144	0xbe013aa4	-0.12620026
145	0x3cee0327	0.029054238
146	0x3e102bab	0.14079158
147	0xbd4ae0bd	-0.049530733
148	0xbdefb20f	-0.11703884
149	0x3e7f660e	0.24941275
150	0x3e83b788	0.2572596
151	0x3ae2699c	0.0017273906
152	0x3e938e1a	0.28819352
153	0xbcbfc9f9	-0.023411738
154	0xbe005cf4	-0.12535459
155	0xbd09a0fa	-0.033600785
156	0xbcd49ee4	-0.025954671
157	0x3d03a895	0.032143194
158	0x3d249c05	0.040187854
159	0xbe6b8492	-0.2299979
160	0xbd3072ba	-0.04307816
161	0xbcb2722c	-0.021782957
162	0xbe574e56	-0.21025977
163	0x3c1c8e61	0.00955543
164	0x3d081ab1	0.03322858
165	0x3d59eda7	0.05320516
166	0xbe8949aa	-0.26814014
167	0xbe23b309	-0.15986265
168	0xbdbefc79	-0.09325499
169	0x3e0a0fa4	0.13482529
170	0xbd6b8e1c	-0.057508573
171	0x3dbbb0b1	0.091645606
172	0xbbedcc1b	-0.0072569973
173	0x3eb8d66f	0.361011
174	0x3d83866b	0.064221226
175	0xbcd82110	-0.026382953
176	0x3e4d0916	0.20022997
177	0xbf09ce7c	-0.53830695
178	0x3da5e350	0.08099997
179	0xbe699bea	-0.22813383
180	0x3e867a25	0.26265064
181	0xbd7f858a	-0.062383212
182	0x3dc91c1b	0.09819814
183	0x3e23cfb5	0.15997203
184	0xbe2fa4dc	-0.17152733
185	0xbe04616b	-0.12927787
186	0x3e2eb3b2	0.17060736
187	0x3d870f41	0.06594706
188	0x3e52193c	0.20517439
189	0x3c889f0a	0.016677398
190	0x3d404f00	0.04695034
191	0x3eb33ab8	0.35005736
192	0xbd9eb30b	-0.077489935
193	0xbe4854eb	-0.19563644
194	0xbe5a5bdd	-0.21324106
195	0xbe277d19	-0.16356315
196	0xbe32444b	-0.17408864
197	0xbe8fd96b	-0.28095564
198	0xbdb23631	-0.087017424
199	0xbdeadaeb	-0.114675365
200	0xbe3dd47b	-0.18538086
201	0xbd427615	-0.047475893
202	0xbdb46dc8	-0.088100016
203	0x3d227eaa	0.039671578
204	0x3d473848	0.04863766
205	0xbdb32144	-0.08746579
206	0x3de1ac5c	0.11019203
207	0x3d6c554b	0.05769853
208	0x3c6a4a1e	0.0142998975
209	0x3e756ab6	0.23966488
210	0x3e320411	0.17384364
211	0x3dceca15	0.10097138
212	0xbcc46cda	-0.023977686
213	0x3e055aef	0.1302297
214	0x3b69972c	0.0035643084
215	0x3c80cbd5	0.015722195
216	0xbe400ba5	-0.18754442
217	0x3e37089f	0.17874382
218	0xbc899bb3	-0.016797876
219	0x3d509d32	0.050931163
220	0xbddca992	-0.107745305
221	0xbe017f00	-0.12646103
222	0xbd39f055	-0.045395214
223	0xbd98f819	-0.07469196
224	0xbe28eda8	-0.16496909
225	0x3db253fd	0.08707426
226	0x3e496175	0.19666083
227	0xbdeda07d	-0.11602876
228	0xbd3a6bf9	-0.045513127
229	0xb986f276	-0.0002573912
230	0x3d8a90c4	0.06765893
231	0x3c585813	0.013204592
232	0xbde38e82	-0.111111656
233	0x3c688880	0.0141927
234	0x3d4181a0	0.04724276
235	0x3d779c22	0.060451634
236	0x3c8240e5	0.015900085
237	0x3dc35ca9	0.09539158
238	0xbd4eefb8	-0.050521582
239	0xbcba0c30	-0.02271089
240	0xbde4c2c7	-0.11169963
241	0xbe823157	-0.25428268
242	0xbe6c4b27	-0.23075543
243	0x3dca78cf	0.09886324
244	0x3e3bd3ee	0.18342564
245	0x3c6b8b42	0.014376463
246	0xbd491bcf	-0.049098786
247	0xbe37876b	-0.17922752
248	0xbdea8430	-0.11450994
249	0x3d81e125	0.06341771
250	0xbdab9b4a	-0.083792284
251	0xbe052bdf	-0.13005017
252	0x3d733477	0.059376206
253	0xbcd7181e	-0.026256617
254	0x3dcb5be9	0.0992964
255	0xbd217fdb	-0.039428573

Y.net.2.0.bias f4 [100]
0	0x3b843acb	0.004035329
1	0x3e164ec2	0.14678481
2	0x3e35c2a4	0.17750031
3	0x3de82dc4	0.11336854
4	0x3bfc61c5	0.0077020847
5	0x3d91c44e	0.0711752
6	0x3d59d298	0.053179353
7	0x3db16447	0.086617045
8	0x3aafb45e	0.0013405194
9	0x3d3df05a	0.046371795
10	0x3d88eeca	0.066861704
11	0x3dca4705	0.09876827
12	0x3dd9f1ec	0.10641846
13	0x3cea08eb	0.028568706
14	0x3e0ba57e	0.13637349
15	0x3e04b218	0.12958562
16	0x3ea91220	0.3302164
17	0x3e2bbb78	0.16770732
18	0x3a305dc6	0.00067278405
19	0x3dea5358	0.11441678
20	0x3e13fab8	0.1445111
21	0x3e176438	0.14784324
22	0x3da0d36d	0.07852826
23	0x3e643a11	0.22287776
24	0x3dc8b3f8	0.09799951
25	0x3dbd6468	0.092476666
26	0x3c66eb37	0.0140941655
27	0x3ccb3153	0.024803793
28	0xbb49c89c	-0.0030789739
29	0x3d5b75c2	0.0535791
30	0x3cb89c80	0.022535563
31	0x3ce26e4a	0.02764048
32	0xbc0ce17f	-0.008598684
33	0x3e0a370a	0.13497558
34	0x3d27dfb0	0.04098481
35	0x3d5bcbdc	0.053661212
36	0x3d8fe722	0.07026507
37	0x3e052100	0.1300087
38	0x3d1c2fc7	0.0381315
39	0x3b9d52d2	0.0048011327
40	0x3db4db81	0.088309295
41	0x3df00014	0.11718765
42	0x3e8df8df	0.27728936
43	0x3e07f469	0.13276829
44	0x3a4bb99e	0.00077714946
45	0x3e37fbde	0.17967173
46	0x3d91b16e	0.0711392
47	0x3c37ea3d	0.01122528
48	0x3dd10276	0.102055475
49	0x3e2376b1	0.15963246
50	0x3e4b8fbe	0.19879052
51	0x3e6e2bee	0.23258945
52	0x3e80e428	0.2517407
53	0x3e028f29	0.12749924
54	0x3ca1aece	0.019736674
55	0x3dbb9232	0.09158744
56	0x3d8716c0	0.06596136
57	0x3d41ddf5	0.047330815
58	0x3d133217	0.03593644
59	0x3d80d20d	0.06290064
60	0x3db55daa	0.088557556
61	0x3db8597b	0.09001442
62	0x3de69376	0.11258595
63	0x3de5f158	0.11227673
64	0x3d45875d	0.048224796
65	0x3d78502a	0.060623325
66	0x3cff8e25	0.03119571
67	0x3d4c48ed	0.049874235
68	0x3dde12db	0.1084344
69	0x3e19338d	0.14961071
70	0x3e53600c	0.20642108
71	0x3d3393a5	0.043841977
72	0x3d0511c8	0.03248766
73	0x3c179e52	0.009254055
74	0x3dc607af	0.09669434
75	0x3ddcf5eb	0.10789093
76	0xbc394509	-0.011307963
77	0x3c319ca8	0.010840572
78	0x3e439cb5	0.19102748
79	0xbcd940fc	-0.026520245
80	0x3d0c9725	0.03432383
81	0x3da423b2	0.08014621
82	0x3e03169a	0.1280159
83	0x3e32ba13	0.17453794
84	0x3e27e1f9	0.16394795
85	0x3d729a8f	0.05922943
86	0x3dac97dc	0.084274024
87	0x3cdc5a37	0.026898487
88	0x3d292ce9	0.041302595
89	0x3cd0588e	0.025432851
90	0x3d9530ce	0.072846994
91	0x3d4113a0	0.047137856
92	0x3d4295f3	0.047506284
93	0x3d995a11	0.07487882
94	0x3d3872c2	0.045031317
95	0x3c664ee6	0.014056897
96	0x3d872a30	0.065998435
97	0x3e204bfa	0.15653983
98	0x3d8294fb	0.06376072
99	0xbc605f2f	-0.013694569

Y.net.3.0.weight f4 [100, 100]
0	0xbe9df1a6	-0.30848426
1	0xbce775b7	-0.028254373
2	0x3da8fdd8	0.08251542
3	0xbd16d774	-0.036826566
4	0xbd6341f5	-0.055482823
5	0xbe6f6614	-0.23378783
6	0x3e2e37c1	0.17013456
7	0x3c3c7b94	0.011504073
8	0xbe2d22ec	-0.16907853
9	0xbc4be844	-0.012445513
10	0xbd172c5e	-0.036907546
11	0xbe89bb87	-0.26900885
12	0xbd3399a9	-0.043847714
13	0x3de69d3e	0.1126046
14	0xbda15590	-0.07877648
15	0xbe713241	-0.23554327
16	0xbb4f2742	-0.0031609093
17	0xbd11db4c	-0.03560953
18	0x3cb4639f	0.02202016
19	0x3d3a5c0b	0.045497935
20	0x3deb8e0e	0.11501704
21	0xbcd78bcd	-0.02631178
22	0x3ce3fead	0.0278314
23	0x3e5cf871	0.21579148
24	0xbc18b6db	-0.00932094
25	0x3e2d0fba	0.1690053
26	0x3bc9da25	0.006160038
27	0x3e2c7c92	0.16844395
28	0x3dadef2b	0.08492883
29	0xbce37049	-0.027763503
30	0x3d91632b	0.07098993
31	0x3e171d72	0.14757326
32	0x3e71879f	0.23586892
33	0xbd12c4cf	-0.035832223
34	0x3d8d3e09	0.06896598
35	0xbd07d448	-0.03316143
36	0xbdcc026b	-0.09961399
37	0xbd43d12c	-0.047806904
38	0x3dbe807c	0.0930185
39	0xbbbc34b9	-0.0057435897
40	0xbd8aa53f	-0.067697994
41	0x3e015d37	0.12633215
42	0x3dab83d6	0.08374755
43	0x3e931bbe	0.28732103
44	0x3decf43f	0.11570024
45	0x3d9b1237	0.075718336
46	0x3d17785f	0.03698003
47	0x3d28d8b7	0.0412223
48	0xbdd795ca	-0.10526617
49	0x3c6e0c64	0.014529321
50	0xbddb48f8	-0.10707277
51	0xbd91f4da	-0.0712678
52	0x3da8c117	0.08239954
53	0xbdbbfc60	-0.09178996
54	0xbd53d5f4	-0.051717713
55	0x3c2b0e37	0.010440401
56	0x3dfd962d	0.123821594
57	0x3d09daaa	0.0336558
58	0xbd22051a	-0.039555646
59	0x3dc6ce51	0.097073205
60	0x3d2b1ca4	0.04177536
61	0x3d8e3f54	0.06945673
62	0x3d92633f	0.07147836
63	0xbe2d7ffa	-0.1694335
64	0xbd0412bb	-0.032244425
65	0xbd802484	-0.06256965
66	0x3df1f4f1	0.11814297
67	0x3d64f54a	0.05589799
68	0x3d353864	0.04424323
69	0xbdbc3959	-0.09190626
70	0xbd458256	-0.04822
71	0x3d0f984d	0.035057355
72	0xbe0d150e	-0.13777563
73	0xbd941333	-0.072302245
74	0x3e358fe4	0.17730671
75	0x3dc4483e	0.095840916
76	0xbc8a0c9d	-0.016851718
77	0xbe36ef92	-0.17864826
78	0xbd841856	-0.06449954
79	0x3e36349b	0.17793505
80	0x3d61eec1	0.055159334
81	0xbd5547c5	-0.052070398
82	0xbb668879	-0.003517656
83	0x3db49bc9	0.08818776
84	0xbaa7898d	-0.0012782082
85	0xbdf73c51	-0.12072051
86	0x3dfb77e4	0.12278727
87	0xbe603c3e	-0.2189798
88	0x3e0839a5	0.1330324
89	0x3d5e8c6f	0.054333147
90	0xbd5c68d2	-0.053810902
91	0x3dfcb5f3	0.123393916
92	0xbcf866c0	-0.030322433
93	0x3c4a1f31	0.012336538
94	0x3d977e5e	0.073971495
95	0x3db5def8	0.088804185
96	0xbd606617	-0.05478486
97	0x3c865a15	0.016400376
98	0x3e6712a0	0.22565699
99	0x3e1e5312	0.15461376
100	0xbe4f1f86	-0.20226869
101	0x3e27188b	0.16317956
102	0xbdaf5baa	-0.085624054
103	0xbe6dc215	-0.23218568
104	0xbe39151a	-0.18074456
105	0xbd6a0a03	-0.057138454
106	0xbd0aba9a	-0.033869363
107	0x3d70eb6d	0.05881827
108	0x3e3a0768	0.18166888
109	0x3d85299a	0.065020755
110	0xbd98b60c	-0.07456598
111	0x3d1ebfc8	0.038757116
112	0xbe293d31	-0.16527249
113	0xbd3d7d3c	-0.04626201
114	0x3ea829ba	0.32844335
115	0x3d7b8f06	0.061415695
116	0xbd7194ea	-0.058979906
117	0x3eb21c0e	0.3478703
118	0xbce3910a	-0.027779121
119	0xbdf2dd4f	-0.118586175
120	0x3d327a48	0.043573648
121	0xbd232153	-0.039826702
122	0xbd90c51a	-0.07068844
123	0xbe1c262a	-0.15248933
124	0x3e404889	0.1877767
125	0xbe860b84	-0.2618066
126	0x3e0d0cd1	0.1377442
127	0xbdf6e81f	-0.12055992
128	0x3de2e929	0.11079628
129	0xbc413f7e	-0.011794923
130	0x3d1ff31f	0.039050218
131	0xbd4f4fa3	-0.050613057
132	0x3db9cecf	0.09072649
133	0xbd910d3c	-0.070826024
134	0x3e04be69	0.1296326
135	0xbd60004a	-0.054687776
136	0xbe0dfc95	-0.13865884
137	0xbd9321a4	-0.07184151
138	0xbdac7da8	-0.084224045
139	0xbe3c220b	-0.18372361
140	0xbdc07ca4	-0.09398773
141	0xbd154a63	-0.036447894
142	0xbe094559	-0.1340536
143	0xbd78f7aa	-0.060783066
144	0x3d1d26bf	0.03836703
145	0xbdad5163	-0.08462789
146	0xbded4658	-0.11585683
147	0xbe8461d3	-0.25855884
148	0xbd5328ba	-0.05155251
149	0x3dcfb4fc	0.10141942
150	0x3cc83128	0.024437502
151	0x3dd148e7	0.10218983
152	0xbd405b52	-0.04696209
153	0xbc8ea9d1	-0.01741496
154	0x3c1c198f	0.009527578
155	0x3dd6983a	0.10478254
156	0xbe201f3b	-0.15636913
157	0x3d3e9426	0.046528004
158	0xbe512a0a	-0.20426193
159	0x3d61fcd9	0.055172775
160	0x3e06a834	0.13150102
161	0xbe433ae9	-0.19065441
162	0xbdcae739	-0.099073835
163	0x3e35e298	0.1776222
164	0xbcdab02c	-0.026695333
165	0xbd15d550	-0.036580384
166	0x3b71e397	0.0036909336
167	0xbcfbb9e3	-0.030728286
168	0xbdeeb552	-0.11655678
169	0x3e90cbf3	0.282806
170	0x3cfd73e4	0.03093905
171	0xbd874538	-0.06604999
172	0x3d852976	0.06502049
173	0x3e003999	0.12521972
174	0x3bcc458c	0.0062338766
175	0xbd1a0c30	-0.03760928
176	0x3cab9686	0.020945799
177	0x3bb09b77	0.0053896266
178	0x3c5b1f05	0.013374095
179	0x3e50ea94	0.20401984
180	0x3e1b28d8	0.151523
181	0x3d868684	0.065686256
182	0x3dc39c44	0.0955129
183	0x3e5a61de	0.21326396
184	0x3e145b4e	0.14487955
185	0x3d27c34e	0.04095774
186	0xbd840122	-0.064455286
187	0xbdd69d3c	-0.10479209
188	0x3c3c9b6c	0.011511665
189	0xbdaf6c2a	-0.085655525
190	0xbd2a9ed7	-0.041655388
191	0xbd39c952	-0.04535801
192	0x3d415baa	0.04720656
193	0xbd2d1860	-0.042259574
194	0xbc960ad4	-0.01831571
195	0xbe0545c5	-0.13014896
196	0x3b40b537	0.0029404887
197	0xbe8a9c46	-0.27072352
198	0x3d8b7ac2	0.068105236
199	0x3ce9d19f	0.028542338
200	0xbe4212bd	-0.1895246
201	0x3a797944	0.0009516666
202	0x3b260d25	0.0025337425
203	0x3e1df979	0.15427198
204	0x3d3cd792	0.04610402
205	0xbdadf07d	-0.08493135
206	0xbd65c8a0	-0.056099534
207	0xbd777e66	-0.060423277
208	0xbc9d0f8c	-0.019172452
209	0xbdfdb7d7	-0.1238858
210	0xbdd938d0	-0.10606539
211	0x3c3d07e1	0.011537523
212	0xbd9578a9	-0.07298405
213	0x3d3a6647	0.045507696
214	0xbd9a3931	-0.0753044
215	0xbc5ee930	-0.013605401
216	0xbd99423f	-0.074833386
217	0x3d909a1c	0.07060644
218	0x3e6671d2	0.22504357
219	0xbcaebf13	-0.021331346
220	0x3db6e5e8	0.0893057
221	0xbe681f03	-0.2266808
222	0x3ce56dc2	0.028006438
223	0xbc82f015	-0.01598362
224	0x3dce1cc5	0.10064081
225	0xbd0001f9	-0.03125188
226	0x3d9ccbb9	0.076560445
227	0x3e1eb998	0.15500486
228	0xbd4ffa94	-0.05077608
229	0xbdc4581b	-0.09587117
230	0x3d42629d	0.047457326
231	0x3c15017c	0.009094592
232	0x3e43b06c	0.19110268
233	0xbe77dc92	-0.24205235
234	0xbe1a29cd	-0.15055008
235	0x3e8da060	0.2766142
236	0x3dff59ff	0.12468337
237	0x3e1c4e2b	0.15264194
238	0xbd3cc748	-0.046088487
239	0x3e77ba05	0.24192055
240	0x3c97e4eb	0.018541774
241	0xbbc9d00a	-0.0061588334
242	0x3d01fbb6	0.03173419
243	0xbc9b23a9	-0.018937903
244	0xbba38892	-0.0049906457
245	0x3d730c0e	0.059337668
246	0xbe076fb3	-0.13226204
247	0xbde24a8a	-0.110493734
248	0xbe297cc5	-0.16551502
249	0x3e01b271	0.12665726
250	0x3c697f9d	0.014251617
251	0xbdaf24d1	-0.08551944
252	0x3e75a7c5	0.2398978
253	0x3df6d3b8	0.12052101
254	0x3d8b7245	0.068089046
255	0xbd594135	-0.053040702

Y.net.3.0.bias f4 [100]
0	0x3d0918f7	0.033471074
1	0x3d923a7c	0.07140061
2	0x3ca16556	0.019701641
3	0x3d3ddfb1	0.046355907
4	0x3d63a9e4	0.055581942
5	0x3db61922	0.088915125
6	0x3d202dfd	0.039106358
7	0x3e3c5aac	0.18393964
8	0x3d288938	0.041146487
9	0x3d9d0e68	0.076687634
10	0xbb07b613	-0.002070789
11	0xbc5da51b	-0.013528134
12	0x3d8ed8a0	0.06974912
13	0x3d4f72c0	0.050646544
14	0x3c88aed8	0.016684934
15	0x3e0ffacc	0.14060515
16	0xbd666dc2	-0.056257017
17	0x3be7f852	0.0070791626
18	0xbc8e6e7a	-0.017386664
19	0xbbb578b5	-0.005538071
20	0xbdeec03f	-0.11657762
21	0x3cccae1c	0.024985366
22	0x3dac0020	0.08398461
23	0x3ca312ab	0.019906363
24	0x3de8f8e5	0.11375598
25	0x3e5372e6	0.20649299
26	0x3db2a26d	0.087223865
27	0x3ce1fbf1	0.027585955
28	0xbcd343ff	-0.025789259
29	0x3c9d8edb	0.019233158
30	0x3cd79b37	0.02631913
31	0x3cd63015	0.026145974
32	0x3d2dd28f	0.042437132
33	0x3ddc7473	0.107643984
34	0x3d9ada24	0.07561138
35	0x3ca36603	0.019946104
36	0x3e04bacf	0.12961887
37	0x3e32fcff	0.17479323
38	0x3be6bf23	0.0070418282
39	0x3dad00f4	0.084474474
40	0x3c018079	0.007904165
41	0x3e552715	0.2081569
42	0x3d06b3ff	0.0328865
43	0x3e921f20	0.28539371
44	0x3b0889ce	0.002083409
45	0x3df4bb3c	0.119497746
46	0x3df59505	0.11991314
47	0x3a72a765	0.0009256511
48	0x3e14dc64	0.14537197
49	0x3cba22a3	0.022721594
50	0x3daa493e	0.08314751
51	0x3e2f8ac4	0.17142779
52	0x3d4881d5	0.048951942
53	0x3b8eced5	0.0043581524
54	0x3dcdb6be	0.10044621
55	0x3da2ba8d	0.07945738
56	0x3d592600	0.053014755
57	0xbd26f00d	-0.040756274
58	0x3d7044f6	0.058659516
59	0x3d405cb0	0.046963394
60	0x3e27bbfc	0.16380304
61	0x3db99219	0.09061069
62	0x3d10a5f4	0.035314515
63	0x3dc40e90	0.0957309
64	0x3d9dab18	0.07698649
65	0x3d43720e	0.047716193
66	0x3d486b51	0.04893047
67	0x3d2e48ad	0.042549778
68	0x3e0bf374	0.13667089
69	0x3de6e42b	0.11273988
70	0x3cc53d1d	0.024076993
71	0x3d8dbc0b	0.06920632
72	0x3d19a83e	0.037513964
73	0x3d4d011e	0.050049894
74	0x3d82e425	0.06391171
75	0x3dd2be51	0.10290206
76	0x3e060120	0.13086367
77	0x3d2ba1d9	0.041902397
78	0x3d061ba3	0.0327412
79	0x3bc28dc1	0.0059373085
80	0x3d1ea88a	0.03873495
81	0x3ed5f2ba	0.41786748
82	0x3d852319	0.06500835
83	0x39fbdab1	0.00048037388
84	0x3e0cd16d	0.13751765
85	0x3df3ad84	0.1189833
86	0x3c6a08d8	0.014284335
87	0x3d0d2ddf	0.034467574
88	0x3c461e75	0.012092222
89	0x3d4e189c	0.050316438
90	0x3da968d5	0.08271948
91	0x3cdc4bac	0.026891552
92	0x3e09cd0e	0.13457128
93	0x3e6ea4b8	0.23305023
94	0x3da2b7da	0.07945223
95	0xbb85bf94	-0.004081676
96	0x3ddd274d	0.10798512
97	0x3c7af70b	0.015317689
98	0x3d11d947	0.035607602
99	0xbb73f3be	-0.003722414

Y.net.4.weight f4 [16, 100]
0	0x3c96a7e0	0.018390596
1	0x3c3a606f	0.011375531
2	0x3e90b7e4	0.28265297
3	0x3edbd1c8	0.42933488
4	0xbe9c1c6e	-0.3049044
5	0x3efde49f	0.49588487
6	0x3f5f9227	0.87332386
7	0xbf8d47fb	-1.1037592
8	0xbf380c28	-0.7189355
9	0xbebf5abc	-0.37373912
10	0xbead30ad	-0.338262
11	0xbf63abf3	-0.8893425
12	0xbf0965ff	-0.5367126
13	0xbfa7234c	-1.3057647
14	0xbdb90558	-0.09034222
15	0x3dd128e5	0.10212878
16	0x3f88bc37	1.0682439
17	0x3f7de786	0.991814
18	0x3e0c43ec	0.13697785
19	0xbf365e66	-0.7123779
20	0x3f20c0b8	0.62794065
21	0xbf058c26	-0.52166975
22	0xbe601916	-0.2188457
23	0x3cebabbc	0.028768413
24	0x3f756242	0.95853055
25	0x3df29fec	0.11846909
26	0x3f06e818	0.52697897
27	0x3d074c9f	0.033032056
28	0xbf002d72	-0.50069344
29	0x3e88ec3c	0.26742733
30	0x3d29e8e0	0.041481853
31	0xbf8a6620	-1.0812416
32	0x3fbe68f0	1.4875774
33	0x3e8bd1c0	0.27308464
34	0x3e2dac9a	0.16960374
35	0x3e318de7	0.17339288
36	0x3f103096	0.56324136
37	0xbee1491b	-0.44001088
38	0x3d252292	0.040316172
39	0xbf845710	-1.0339069
40	0x3f25b574	0.6473
41	0x3eceb119	0.4036949
42	0xbc8def36	-0.017325979
43	0x3f63031a	0.8867661
44	0xbdaeb224	-0.085300714
45	0xbf77ce92	-0.96799576
46	0xbf00f66c	-0.5037601
47	0x3e9b7d26	0.30368918
48	0xbf45f8fa	-0.77333033
49	0xbf020567	-0.50789493
50	0xbe4dfdaf	-0.20116304
51	0xbe168601	-0.14699556
52	0x3f5bd878	0.8587718
53	0x3f30bec2	0.69041073
54	0xbf48a847	-0.7838177
55	0x3d0a88f5	0.03382202
56	0x3fabe7ea	1.343015
57	0xbe34f29c	-0.17670673
58	0x3e804feb	0.25060973
59	0x3fa7ba0f	1.3103656
60	0xbf17da0c	-0.5931709
61	0xbeae76c6	-0.34074992
62	0x3f276dfa	0.65402186
63	0xbe0be1fb	-0.13660423
64	0x3caef10e	0.021355178
65	0x3f0393b4	0.5139725
66	0x3e43db11	0.19126536
67	0xbe8cfd1b	-0.27536854
68	0x3eeabeae	0.45848602
69	0xbfc4a2b6	-1.5362155
70	0xbeccaa3c	-0.3997363
71	0x3f4739be	0.7782248
72	0xbeb68769	-0.35650185
73	0x3f207c09	0.6268926
74	0x3f791f33	0.9731323
75	0xbed2f1fd	-0.41200247
76	0x3f6a94e0	0.91633415
77	0x3d555411	0.052082125
78	0xbee4b140	-0.4466648
79	0x3f04b45a	0.51837695
80	0x3f9fa41f	1.2471961
81	0x3e0637cd	0.13107224
82	0x3ef0beed	0.47020665
83	0x3db05b52	0.08611168
84	0x3c930a31	0.017949196
85	0x3ee5993c	0.4484347
86	0x3df55709	0.11979491
87	0xbec69bc5	-0.38790718
88	0x3df86d44	0.12130216
89	0xbca211a7	-0.019783808
90	0x3dd5461b	0.10413762
91	0x3dd6264d	0.10456524
92	0x3ea86057	0.32886
93	0xbe2d48cd	-0.16922303
94	0x3c0d0696	0.008607527
95	0x3e9ff6f5	0.312431
96	0x3f268f98	0.65062857
97	0x3c9d2153	0.01918093
98	0xbee452b9	-0.44594362
99	0x3f1b2326	0.6060051
100	0x3f3b77dd	0.7322977
101	0xbfc5006c	-1.5390754
102	0x3f2ce208	0.67532396
103	0x3f4afdcd	0.7929352
104	0xbf9b5760	-1.213604
105	0xbf6e442b	-0.93072766
106	0x4034c5f5	2.8245823
107	0xbfae74c6	-1.3629386
108	0xbfe96a40	-1.823555
109	0xbfa68241	-1.30085
110	0xbf808d84	-1.0043187
111	0xc02bbe62	-2.683495
112	0xbe7f0ae9	-0.24906506
113	0xc002edff	-2.0457761
114	0x3e969bcd	0.29415742
115	0xbf66dfb0	-0.9018507
116	0x40477cd3	3.1169937
117	0x3fff5f7b	1.9951013
118	0x3eff8e36	0.49913186
119	0xbef42a3b	-0.4768847
120	0x3ff1a263	1.8877681
121	0xbf471375	-0.77764064
122	0xbdbb25a4	-0.09138039
123	0x3f67c2e1	0.90531737
124	0x3fe614ae	1.7975061
125	0x3ec1e763	0.37871847
126	0xbd6e2000	-0.058135986
127	0xbe936e81	-0.28795245
128	0xbf1f3f8f	-0.6220636
129	0x3e3d56c1	0.18490125
130	0xbf482a37	-0.78189415
131	0xc011cf1b	-2.2782657
132	0x3fe35edf	1.7763327
133	0x3f832ab2	1.0247405
134	0xbf533520	-0.8250294
135	0x3ecf4694	0.40483534
136	0x3f21b5d8	0.63168097
137	0xbe91f012	-0.28503472
138	0x3ff2d237	1.8970402
139	0xc034fa0f	-2.8277624
140	0x40267b43	2.6012733
141	0xbf70ea44	-0.9410746
142	0xbdcbfb62	-0.09960057
143	0x3ecd36ff	0.4008102
144	0xbf525057	-0.8215384
145	0xc02c0e73	-2.688382
146	0xbff6da2d	-1.9285332
147	0x3fa27215	1.2691065
148	0xbfececcc	-1.8509765
149	0xbfd51542	-1.6647112
150	0x3ef9b55c	0.4877118
151	0x3e68db90	0.22740006
152	0x400c38f8	2.190977
153	0x3fe6f9a8	1.8044939
154	0xbe930b45	-0.28719535
155	0x3f71e336	0.9448732
156	0x3fc69ead	1.5517174
157	0xbf7a55df	-0.9778728
158	0xbf90b2f2	-1.130461
159	0x402c0594	2.6878405
160	0xbfc27dfd	-1.5194699
161	0xbf08641e	-0.53277767
162	0x3fd99fe7	1.7001923
163	0xbe477c56	-0.19481024
164	0x3cf965a7	0.03044398
165	0x3f041703	0.51597613
166	0x3ed15d2d	0.408914
167	0x3f355f79	0.70848805
168	0x3ef0e001	0.470459
169	0xc020cab0	-2.512371
170	0xbf39ad76	-0.72530305
171	0x3f20c196	0.6279539
172	0x3fae7f5f	1.363262
173	0x3f219dea	0.6313158
174	0x400d0b2e	2.2038074
175	0x3f20cd7f	0.6281356
176	0x3ff043d6	1.8770702
177	0xbf0f85f1	-0.56063753
178	0xbfe20103	-1.7656559
179	0x3fc44283	1.5332798
180	0xbef33fb8	-0.4750955
181	0x3e4ff867	0.20309602
182	0x3f60533b	0.87627
183	0xbfdfcee8	-1.7485018
184	0xbf19bc3b	-0.6005284
185	0x3f3acc8c	0.72968364
186	0xbf44057f	-0.76570886
187	0xbfa723cd	-1.30578
188	0x3f11e8db	0.56995934
189	0xbde3369b	-0.110943995
190	0x3f72fab0	0.9491377
191	0x3e97889c	0.29596412
192	0x3ee5489b	0.44781956
193	0xbf49508a	-0.7863852
194	0xbf58534a	-0.8450209
195	0xbf6a2e66	-0.9147705
196	0x3e63f757	0.22262321
197	0xbc2c5e38	-0.01052051
198	0xbff55ca7	-1.91689
199	0x402456c7	2.5677965
200	0x3f8c672c	1.0968986
201	0xbfb6d634	-1.428412
202	0x3f2cbe7a	0.67478144
203	0xbee392de	-0.44447988
204	0xc007733b	-2.116408
205	0xbfb7ad83	-1.4349827
206	0x3fe9f89b	1.8278993
207	0xbf8cb1dc	-1.0991778
208	0xbfccc770	-1.5998363
209	0xbfa80a1e	-1.3128088
210	0xbf6d9ce7	-0.9281754
211	0xc00c49dd	-2.1920083
212	0xbfb92336	-1.446387
213	0xbfb22cd6	-1.3919933
214	0x3f3c2039	0.7348667
215	0xbf95d2f7	-1.1705006
216	0x4019f3d4	2.405507
217	0x3fd88e0a	1.6918347
218	0x3ee020a6	0.4377491
219	0xbee88b77	-0.45418903
220	0x3fcd22db	1.6026262
221	0xbf114323	-0.5674307
222	0x3e51ee72	0.20501116
223	0x3f993906	1.1970527
224	0x3f82a5d4	1.0206857
225	0xbe0c5db8	-0.13707626
226	0xbf961b87	-1.1727151
227	0xbf633694	-0.88755155
228	0x3ed173a1	0.4090853
229	0x3fc6c5be	1.5529096
230	0xbf1934bc	-0.5984609
231	0xbffbd8cd	-1.9675537
232	0xbd6c606e	-0.05770915
233	0x3f88ddb2	1.0692656
234	0xc01c8161	-2.4453967
235	0x3fa63696	1.2985408
236	0x3ea64816	0.32476872
237	0x3e81abc0	0.25326347
238	0x40064269	2.0978034
239	0xc0376ed5	-2.8661397
240	0x4036cf36	2.8563972
241	0xbf39e9b0	-0.72622204
242	0xbecd73cc	-0.40127409
243	0xbea25200	-0.31703186
244	0xbee934b8	-0.45548034
245	0xc0019573	-2.0247467
246	0xbfce016a	-1.6094182
247	0x3fc7d882	1.5612948
248	0xbfba2e34	-1.454535
249	0xbff793ff	-1.934204
250	0x3f883f32	1.0644286
251	0x3f16aa3f	0.58853525
252	0x3fed8721	1.8556863
253	0x3fc87a12	1.5662253
254	0x404389bd	3.0552819
255	0x3f40b985	0.7528308

Y.net.4.bias f4 [16]
0	0xbd74cd02	-0.059765823
1	0xbe1b097b	-0.15140335
2	0xbd810896	-0.06300466
3	0x3d332fb5	0.04374667
4	0x3dd07a69	0.10179598
5	0x3e0d1be2	0.13780168
6	0x3df15bd6	0.117850944
7	0x3dd95df7	0.106136255
8	0x3d23736d	0.039905
9	0x3d171dc8	0.036893636
10	0x3d85c1ae	0.06531082
11	0x3d9d857e	0.07691477
12	0xbd7a0e01	-0.06104851
13	0xbd4cf588	-0.050038844
14	0xbd9b1334	-0.07572022
15	0xbe464873	-0.19363575
