src/logs/Gauss-Legendre/model.pth (torch, 690669 bytes, 78 tensors)

Y.net.0.0.weight f4 [100, 4]
00000000: 985c 503e 5598 433e 01dd 97be 3b6b 1dbb
00000010: a84d 04be 9348 a1bd 6507 4ebd bfd7 1f3c
00000020: f5fa 8abe 2665 32bd ec34 583d 260b b43e
00000030: 76d0 183e 81d1 d4bd 454d cdbb 0a19 0c3e
00000040: f28a 083c 3d58 273e de8f 4c3e bd72 0dbd
00000050: 9146 813d 5a58 1b3e 3597 0bbe d375 1abe
00000060: 31e1 6c3e 1206 bfbd eee9 96bd 1920 9fbd
00000070: 2efb 3dbe b434 f2bd bf25 153e 05da 39be
00000080: 83f1 82be aea4 82be 0f61 4e3d 71b5 103e
00000090: 8ac1 56bd 4a7d d03c 1c12 a4ba 3dd9 01bd
000000a0: caf2 ae3d 055c fc3d 36fd dd3c 1432 cbbe
000000b0: 7dc5 013d c461 7b3d 9d29 8c3d f4c5 2fbe
000000c0: f838 d23d 423b 7dbd 23a2 923d c9ce babe
000000d0: 5f2b 04be ffa0 b4bd 09ad ab3e ff9a 713c
000000e0: bfd1 2e3e b7f3 a2be 9c18 eb3d c222 ff3c
000000f0: 1679 7f3c dda8 faba 1414 a6be 3869 083e
00000100: cb60 72bd 9d10 5c3e 4147 4f3e de02 c13c
00000110: 9d68 c73d 0cf4 2bbe 9b77 30bc d535 e93d
00000120: 5790 a03c 82ef 6a3c a866 693e cb40 11be
00000130: aed7 9a3d b608 2fbc a707 16bc 27fc d8bb
00000140: 67c0 ecbd c14f 08bc 2739 3e3e 6bf0 5b3c
00000150: 3be7 953d 3f0d a4bd e495 6f3d 5e8b 023e
00000160: aeb0 32be cb74 16bd 8b06 98bd fd3e 80bd
00000170: 95d0 a8ba 48ef 1f3e 080a 8f3c d949 93be
00000180: bca2 46bd ee39 40bd 500a 40be 2fbd 7d3d
00000190: be83 45be 14a4 0c3e f272 7bbe 5406 08be
000001a0: c5eb 9abe 519c dabd c822 0e3e 83e1 403e
000001b0: 1589 04be 8309 753e 3f93 4e3d ead6 e3bb
000001c0: 0265 e03b 82d2 3d3e 097a 5a3d 084f f63d
000001d0: 0ecc 873d ffa3 22be 4b17 5fbd 9cc2 843d
000001e0: 541e 6d3e 275c 2dbe a737 943c 748c 3cbd
000001f0: a522 08be 3741 4dbd b68d 75bc 9262 8dbd
00000200: 76e5 a53d 8f4c ef3c c9e2 92bd cd59 82bd
00000210: f302 aabd 5ddd 41bd 16b9 80bd 03c0 62bd
00000220: d847 ebbd f51b 0abe 9313 d5bd a173 8e3c
00000230: b9e6 28be e065 823e a85a ce3d 2c04 6d3e
00000240: fd06 45be d2a7 003e 4886 8f3c 3e11 c83d
00000250: 4069 51be 2166 5abe 8a94 2a3d fcf9 033d
00000260: e8ff 9e3c 67f0 b83d 185f 223c 674d 4e3e
00000270: a83f 8abd 4d24 32be e858 7b3c bc31 9f3d
00000280: 77db bebd db4e f8be ac2c da3d ab73 0c3e
00000290: 1e48 02be 3c25 a73d 16da 6cbe 06fa 9abe
000002a0: f8fb 41bd 93d8 5dbe cf16 fdbd 9e8c 5b3c
000002b0: cb37 9a3e 3fba e2bd cb4d d2ba 5c79 eebd
000002c0: 72dd 98be 86e0 1fbe bab2 bebd a6d4 8fbd
000002d0: d75b 113e b6c0 a73e 40eb d53d 33ee b93d
000002e0: 58bf e8bd 9867 023e de74 7e3d e9ca 83be
000002f0: abf0 bebd c030 903d 0bc4 09be 6ad7 ee3c
00000300: 15cf 383e b105 35be 0315 e4bd 2105 243e
00000310: a970 7a3d 77d1 e1bd bb0c 9cbb 54df 043e
00000320: 31bf 903d 6b73 3e3e fc5d d9bd f20d 293e
00000330: 354f 91be f521 e7bd 9786 17be a544 e73d
00000340: a969 8f3c 93f0 66be 4b17 adbe 4dca 963e
00000350: 1a93 debe c385 bebc 7024 bfbd 6975 82bc
00000360: 7956 3abd 7ab3 0a3d 81f9 20be 192a 78be
00000370: ef9e 893d 9a80 a03d 8722 4cbc 2f9c 533d
00000380: dd65 3dbe 75a1 f13d e2d0 a6bd 8028 e1bc
00000390: 2f77 6d3e 107d debd edfa 4b3e 1473 d13d
000003a0: 8c07 3abd 0f27 4bbe a7ce 223e 1480 803d
000003b0: 168c b7bc 0b88 33be 158b 89bd b4ba 363c
000003c0: 3720 90bc beac 053c e723 6f3b 0d82 4fbe
000003d0: fb57 38be a9ec 8e3e 0841 e8bd bd20 c53d
000003e0: 2250 21be 7935 d93d 9f5a 1a3d bdb4 85bd
000003f0: 4633 0bbe 993b dc3d c8e2 683e 1b51 f1bd
0.20347822 0.19101079 -0.296608 -0.0024020213 -0.12920249 -0.078751706 -0.05030002 0.009756028
-0.2714459 -0.043553494 0.052784845 0.35164756 0.14923272 -0.10391522 -0.0062653148 0.13681427
0.008333908 0.16342254 0.19976756 -0.03453325 0.063122876 0.15170422 -0.136319 -0.15084009
0.23132779 -0.0932733 -0.07368837 -0.07769794 -0.18552849 -0.118264586 0.1456518 -0.18149574
-0.25574884 -0.25516266 0.05038553 0.14131714 -0.052430667 0.025450367 -0.0012517604 -0.031701315
0.08542402 0.12322239 0.02709828 -0.39686644 0.03168248 0.061372533 0.068438746 -0.17165357
0.10264772 -0.06182409 0.071598314 -0.3648589 -0.1290717 -0.0881977 0.33530453 0.014746427
0.170722 -0.31826565 0.11479303 0.031144504 0.015592834 -0.0019123812 -0.32437193 0.13321388
-0.05917434 0.21490712 0.20242025 0.023560937 0.0973675 -0.16792315 -0.010770704 0.11387221
0.019600077 0.01433933 0.22793067 -0.14184873 0.07560669 -0.010683229 -0.009157098 -0.006621856
-0.11560135 -0.008319796 0.1857649 0.013424019 0.07319494 -0.08010339 0.058492556 0.12748477
-0.1745021 -0.036732476 -0.07423123 -0.06262014 -0.0012879545 0.15618622 0.017460838 -0.2876728
-0.04849504 -0.046930246 -0.18753934 0.061947998 -0.19288537 0.13734466 -0.24555567 -0.13283664
-0.30258003 -0.10674346 0.13880455 0.18836026 -0.12942918 0.2392941 0.050433394 -0.00695311
0.0068479786 0.18537334 0.053339038 0.12026793 0.06630717 -0.15882872 -0.054465573 0.06482431
0.231561 -0.16929685 0.018092943 -0.046032384 -0.13294466 -0.05011102 -0.0149874 -0.069035664
0.08100407 0.02921131 -0.07172162 -0.063647844 -0.08301344 -0.04733025 -0.06285302 -0.055358898
-0.114883125 -0.13487227 -0.10404124 0.01738912 -0.16494264 0.2546835 0.10075885 0.23146123
-0.19240947 0.12564018 0.017520085 0.09768914 -0.20450306 -0.21328022 0.041645564 0.032220826
0.019409135 0.09030228 0.009910367 0.20146714 -0.06750423 -0.1739666 0.015341021 0.07773158
-0.09319203 -0.48497662 0.10653052 0.13715999 -0.12722823 0.08161399 -0.23130068 -0.30268878
-0.047359437 -0.21664648 -0.12357866 0.013400225 0.30120692 -0.1107068 -0.0016044913 -0.11644241
-0.2985645 -0.15612993 -0.09311433 -0.07022981 0.1419519 0.32764214 0.10445261 0.09078636
-0.11364621 0.1273483 0.062123172 -0.25740746 -0.093232475 0.07040548 -0.1345369 0.029155452
0.18047746 -0.17677952 -0.1113682 0.16017582 0.061142597 -0.110262804 -0.00476226 0.12975818
0.07067717 0.18598716 -0.10613629 0.16509226 -0.28380743 -0.11285774 -0.14797436 0.1129239
0.017506437 -0.2255271 -0.33806834 0.29451218 -0.43471605 -0.023257142 -0.09333122 -0.015925126
-0.045492623 0.03386257 -0.15720178 -0.24234809 0.06719767 0.07837029 -0.012459404 0.05166262
-0.18495889 0.117983736 -0.0814531 -0.027485132 0.23189996 -0.108636975 0.1991994 0.102270275
-0.045417354 -0.19839118 0.15899144 0.06274429 -0.022405665 -0.17532365 -0.06715981 0.011152912
-0.017593486 0.008158861 0.0036489905 -0.20264454 -0.18002312 0.27914932 -0.11340529 0.09625385
-0.15753224 0.10605902 0.03768408 -0.06528614 -0.13593778 0.10753555 0.2274276 -0.11783048

Y.net.0.0.bias f4 [100]
00000000: 1fb8 0abe f3e3 ddbc 1b7a cd3c 774c 10bd
00000010: b18b 74bb b937 18bd f6f8 94bd dcc0 60bd
00000020: 995c c13d 830c 12bd b434 83bb 09ac 0ebd
00000030: ae87 0d3b d685 bf3c 1a8c dcbc 950a dabc
00000040: 649a 40bc cefd aabd f94a bfbc 1c8f 1fbd
00000050: 0ee8 e73d 0800 d0bc a773 adba 3817 09bd
00000060: d551 d2ba b5ed 86bd 0301 a8bb d6f9 f1ba
00000070: ad87 d0bc c527 debd 8547 1fbd 16ff 68bd
00000080: ee47 36bd 552d f93c ca23 88bc 915d e0bc
00000090: b219 263a 7949 c9bb f270 763c 74fa 19bd
000000a0: d63b 37bc 94e8 333d 8dc0 6bbd 44cf a9bb
000000b0: d385 6fbc 1c8f b7bd db68 53bd b0bb e9bc
000000c0: f174 143d adcb c3bc f437 3b3c 97ce a4bd
000000d0: bd2b 2dbc fadc c83b b57b 8b3c 1138 e43b
000000e0: 0933 27bd 6561 a8bd ea85 3abd f5bc adbd
000000f0: aaa7 4b3c 10b1 f7bc 2f71 37be e78e 20bd
00000100: 1fd4 03bd d429 e2bc d0a2 403b a4ae 8bbc
00000110: cbfb 47bd 16c5 95bc 32c5 813c baff 163b
00000120: 5930 ecbd 2f04 85bc 75e8 8cbd 1da6 9d3c
00000130: 5d5b f9bd 44ae 63bc d587 8bbd 9435 8dbd
00000140: 6b05 f8bd ed79 39bd 7c36 28bd f55d fc3b
00000150: 1cfb 2e3c 2a19 ba3b 862b f1ba 120f bc3a
00000160: c8f8 193d 07ff 493d a730 903c f72f f1bc
00000170: f0e6 fabc 021a ea3c 8392 81bc 064c d5bc
00000180: 5d66 35bd 5b73 123c 1ab2 adbd 0393 a0bd
-0.13546799 -0.027086234 0.025082638 -0.035229173 -0.0037314708 -0.037162516 -0.07274048 -0.054871425
0.0944149 -0.035656463 -0.0040040854 -0.034832034 0.0021595764 0.023379248 -0.026922274 -0.026616374
-0.01175556 -0.08349191 -0.02335118 -0.03895484 0.11323558 -0.02539064 -0.001323332 -0.03346941
-0.0016046116 -0.06588308 -0.0051270737 -0.0018461298 -0.02545532 -0.10847429 -0.038886566 -0.056883894
-0.04450219 0.030417124 -0.016618628 -0.027388366 0.00063362264 -0.006142792 0.015041577 -0.037592366
-0.0111837 0.043922976 -0.057556678 -0.0051821787 -0.0146193085 -0.08962843 -0.05161367 -0.02853188
0.036244337 -0.023900831 0.0114269145 -0.080472164 -0.01056951 0.006129858 0.017026762 0.0069646914
-0.040820155 -0.082217015 -0.045537867 -0.08483306 0.012430111 -0.030235797 -0.1791427 -0.039198782
-0.032184716 -0.027607836 0.0029393919 -0.017051049 -0.048824113 -0.018282454 0.0158411 0.0023040609
-0.11532659 -0.016237346 -0.06880275 0.019244248 -0.12175629 -0.013896529 -0.06813017 -0.06894985
-0.121104084 -0.045282293 -0.041067585 0.0077016302 0.010679986 0.0056792693 -0.0018399812 0.0014347753
0.037590772 0.04931548 0.017601324 -0.029441817 -0.030627698 0.028576855 -0.015816933 -0.026037227
-0.044287074 0.008938636 -0.08481236 -0.0784054

Y.net.1.0.weight f4 [100, 100]
00000000: 2340 c93c c4c4 60bd b396 d83b 4fd8 c8bc
00000010: 4ba4 41bc a1e7 7fbd 1b90 443e 9886 34bd
00000020: cf99 553d 3a11 b83c 7568 83bc fb42 3abd
00000030: 3818 89bd 87ad a1bc 8fd4 a5bd 103c 803c
00000040: e54a 933d c95b 54bd b2c1 b33d 80a2 e13c
00000050: 0128 a5bc 3a19 34be b516 0abe 3970 1e3d
00000060: 8e74 ffbd c942 7dbd 8f83 613e 7e52 903c
00000070: 7936 693c 37eb 2ebc 0c77 c2bd 60fa 44bd
00000080: 6c53 1d3e 25a5 ef3d 63aa 23be 2bd4 103d
00000090: 0558 a53c 147e 2dbe 276b ac3c 5ceb 0dbe
000000a0: bd8e 68be 2704 acbb 6cd4 ad3d 1caf 21bd
000000b0: b873 3bbd 4d49 a63c 5ed5 07bd 8baf d53d
000000c0: 3591 553d 8568 5b3c ccf2 3dbe feca e2bc
000000d0: 73e3 d63c 9172 b53d f1c2 0d3d 606e 20be
000000e0: 27cf 7a3d 3398 17bd 1c25 ed3c a119 ad3d
000000f0: 6d7b c23c 7e76 4ebd 4163 33bd 1254 93bd
00000100: 03e0 1dbd 3ccd 3cbe ddb5 f1bd 9a16 a0bd
00000110: 5821 013d d70c f0bd 8f7a 423d 943f 7dbe
00000120: c9ec a4bd 99d0 2dbd aa5f f73c 465b 36bd
00000130: 82a2 3bbd 041b 263d 3686 053d 50ed b53d
00000140: 0a53 15bd 2505 463e ec17 963e 57ad 633c
00000150: 9d96 18be ead9 4d3d e76d 4e3e 9c07 053e
00000160: 712d 3a3c ee23 223e 4424 88be e396 e53d
00000170: 0a2d e73c 2fb4 803e b546 2a3b 117c 52be
00000180: e34e ecbd c7a8 0abe 1f20 13bc 0eb9 4ebc
00000190: 0d4a ebbd 111e 333e 4ba0 6a3d 2114 8d3d
000001a0: a10f 853d 4729 8ebd 6455 db3d 210d 563c
000001b0: 6778 b6bd 7bec a3bd 9e2e c4bd fc1c 06bd
000001c0: 40d8 dabc 1ed5 94bd 9a16 a2bd e286 2b3e
000001d0: ef85 8ebd d728 53bd 4f13 0a3d 413c b43d
000001e0: 1e88 0ebe 4ea4 4a3e 0cbd 9b3d 0921 223d
000001f0: e8f9 0ebb 60a2 2fbc d8bd 2bbd f984 3e3c
00000200: c8c4 033d c5eb 50bd 0f8f d4bd 9b20 b23d
00000210: 5878 ec3d 527c e93d d46e f43c f6f7 21bd
00000220: 6551 c63d a738 9c3d aba4 90bb e9ad 4abc
00000230: c2f1 28bc 0a77 e8bd 4fb1 9b3d 601e 96bd
00000240: d8d5 10bc 031c 17be 2836 5e3d 7e5b dbbb
00000250: 413f 12be 463a ae3a 9896 463e bca6 3cbd
00000260: 91a7 25b9 2b72 93bd 434f ba3d f3a3 8e3c
00000270: 3d1e f9bb f4cd 3e3e 5dcc 01bd 55af 5c3a
00000280: 3067 66bc 3a69 0abd 8975 893d a676 febd
00000290: 2c50 373c 740f 25be 12bd 12bc d610 d4bc
000002a0: a00d 483b 9cff a63d d70c 92bd 6e06 6dbd
000002b0: e198 dcbd 4cce 36bd c0d9 0d3e 7409 563d
000002c0: 5ff0 20be ee41 c63c 0021 02bd 04ab 0abe
000002d0: 1a1f 50bd aef3 9c3b 75d1 e53c 07f9 99bc
000002e0: 668a 57be eb08 4a3d 3495 ecbd aaa3 2dbd
000002f0: db66 643d ab8d 4d3e 7909 133e 56c9 f7bc
00000300: e890 13bd acbc 15be e4bc fabd d3fc 593d
00000310: 886b 3c3d 1af5 78bc 4dc6 88bd 447f e5bd
00000320: 21ab d33d 758b 023e 5ab3 bfbd aa8d 40be
00000330: 0527 70bd 4079 703d a4a0 243c 5c00 4dbe
00000340: 87d4 203d 0814 13bc a570 383c ad73 8b3c
00000350: 4137 85bd 21a9 043e 4da0 30bc 75ce 94bd
00000360: 5ffa 9dbd 697b 9cbc b851 d33d 7eb5 bc3c
00000370: 82b3 ea3c c098 65bc 64f6 f63c 37ca c93d
00000380: 4f3c 053e 1076 dfbc 7188 973d 6ab8 77bd
00000390: a290 21be 8aff 18be 6431 753c e0c5 003d
000003a0: df98 0a3e 4dac d4bd 709b e0bd 6a47 083e
000003b0: f9c4 073e 970e 64bd b63e 76bd 3f0a d73d
000003c0: f5a1 9cbd 2688 083e e854 743e e7d4 4ebd
000003d0: bf3c f63c ced6 d6bd 37ca 0c3d e6e8 a2bc
000003e0: 2425 9d3d 1912 49bc 33fc 3abe 0b6f cd3d
000003f0: 428f 653d 69d6 64bd 2c74 013c c960 e2bd
0.024566716 -0.05487515 0.0066097616 -0.024517206 -0.011818956 -0.062476758 0.19195597 -0.04407367
0.052148636 0.022469152 -0.01604102 -0.045474034 -0.066940725 -0.019736065 -0.08097183 0.01565364
0.071920194 -0.051845346 0.08777179 0.027543306 -0.020160677 -0.17587748 -0.13485225 0.038681243
-0.12473403 -0.06183127 0.22022842 0.01761746 0.014234179 -0.010676197 -0.09495363 -0.04809034
0.15363854 0.11701421 -0.15982966 0.03535859 0.020183573 -0.16942626 0.021047188 -0.13859314
-0.227107 -0.0052495184 0.08487782 -0.039473638 -0.045764655 0.020298624 -0.033162467 0.10433873
0.052140433 0.013391619 -0.18549651 -0.027684685 0.026231503 0.088597424 0.03460974 -0.15667105
0.061232712 -0.037010383 0.02894836 0.08452154 0.023740495 -0.05040597 -0.043795828 -0.071937695
-0.038543712 -0.18437666 -0.11802266 -0.07816811 0.03152594 -0.11721199 0.047480162 -0.24731284
-0.08052976 -0.042435262 0.030196983 -0.04452064 -0.045809276 0.040553108 0.032598697 0.088831544
-0.036456145 0.193379 0.29315126 0.013896308 -0.14901204 0.050256647 0.20159112 0.12991184
0.011363373 0.15834019 -0.26590168 0.1121042 0.028219718 0.2513747 0.0025982086 -0.2055514
-0.11538484 -0.13540946 -0.008979826 -0.012617363 -0.114887334 0.17491938 0.057281774 0.06888605
0.064971216 -0.06941467 0.10709646 0.013064654 -0.08909684 -0.080040894 -0.09579204 -0.032742485
-0.026714444 -0.072672114 -0.07914467 0.16750672 -0.069591396 -0.05155262 0.03370982 0.08800555
-0.13919112 0.1978924 0.07604417 0.039582286 -0.0021816436 -0.010719866 -0.041929096 0.011628383
0.032170087 -0.051006097 -0.10378849 0.08697625 0.11546391 0.11400665 0.029838003 -0.039543115
0.096834935 0.07627993 -0.004414161 -0.012370565 -0.010311546 -0.1135083 0.07602178 -0.07330012
-0.008840047 -0.1475678 0.054250866 -0.0066942563 -0.14281942 0.0013292513 0.19393384 -0.046057448
-0.0001579805 -0.0719951 0.09097149 0.017412161 -0.0076024816 0.18633252 -0.031689037 0.00084184605
-0.014062688 -0.033791758 0.06711871 -0.12424974 0.011188548 -0.16119176 -0.008956211 -0.025886934
0.00305257 0.08154222 -0.07131355 -0.05786746 -0.10771347 -0.044630334 0.13852596 0.05225511
-0.15716694 0.02420136 -0.031769753 -0.135418 -0.05081091 0.004789791 0.028053978 -0.018795503
-0.21048889 0.04932491 -0.11551896 -0.04239241 0.055762153 0.20073573 0.14359082 -0.030247372
-0.036026865 -0.14622754 -0.12243059 0.053219628 0.046000987 -0.0151951555 -0.06678448 -0.112059146
0.103353746 0.12748511 -0.093603805 -0.1880404 -0.058630962 0.058709383 0.010048065 -0.20019668
0.039265182 -0.008976944 0.011257325 0.017022932 -0.065046795 0.12955143 -0.010780406 -0.07265941
-0.0771377 -0.019101815 0.10318321 0.023035761 0.02865005 -0.014013469 0.030146785 0.098530225
0.13011287 -0.027277976 0.07399071 -0.060478605 -0.1577783 -0.1494123 0.014965389 0.03143871
0.13534878 -0.10384426 -0.10967147 0.13308492 0.13258733 -0.055677976 -0.0601184 0.10500001
-0.07648078 0.13333187 0.23860514 -0.05049601 0.030058263 -0.104901895 0.034372535 -0.019886445
0.076731 -0.012272381 -0.18260269 0.100309454 0.056044824 -0.05586854 0.007901233 -0.110536166

Y.net.1.0.bias f4 [100]
00000000: d01f 7b3c 72e2 6fbc 2ebf 7a39 04a9 17bc
00000010: dc13 d83b 8308 613c 2e33 02bd 9363 c73c
00000020: 4557 68bc 943d 723c a84c 163c b717 bd3c
00000030: 07cb d7bb cb72 7d3c 77d3 403c e117 73bb
00000040: 7543 db3c 52ef 2fbc f300 84bc e611 18bc
00000050: 91cb 80bd e58b 833b 332b ab3c 043c cabb
00000060: fbeb b73c cf06 2abc aedd f23c ad15 933c
00000070: 4f16 943b 8aeb 743c 93db 1cbd fa24 033c
00000080: 0f44 9d3b ed51 e23b e86c 403b 1bca a33b
00000090: f9b9 883a 39b7 b1bc 6cb6 883c ef2c ce3c
000000a0: a337 893c 4e6a a4ba ee73 1fbb f0b9 07bc
000000b0: d343 b53b e9fc 103d 50b8 ddbc dd8c d2bc
000000c0: faff ff3c 2a62 fcbb 1dbf 113c 0384 3a3c
000000d0: 865b 963c 912e fc3a 26bc 6a3b 9388 c3bb
000000e0: 6037 46bc 6053 1abd 2278 56ba 8f7f 3a3b
000000f0: 0193 173c af64 143c 0585 f739 524c bebc
00000100: 0c54 34bc 6942 0ebc acf3 933c c8f1 19ba
00000110: 65de 603b 09a4 2c3d 3183 a13a f9a5 1abc
00000120: ed89 a33d 3d4b eabc 1d5f aabb 155a 1ebc
00000130: bd6c 90bb ae88 df3c 139e 04bb acb4 45ba
00000140: 6225 4a3c dbfa 403c 9a48 ca3b 60f0 2d3c
00000150: 9bd0 c73a 2d76 9b3b 0eb8 1ebd 3bdb 8d3c
00000160: a22a 443c ade9 a13c 9fdf 7fbd 55e4 f93b
00000170: 424d 4fbc 8cba 8f3b 79af 83bb 65ea 27bc
00000180: cb36 023c 356d 67ba b23b a03c 41e4 173c
0.015327409 -0.014641391 0.00023913078 -0.009256605 0.0065941643 0.0137349395 -0.03178709 0.024339473
-0.014180963 0.014785189 0.00917355 0.023082597 -0.006585482 0.015469263 0.011769167 -0.003709309
0.026765564 -0.010738211 -0.016113734 -0.009281611 -0.06288827 0.0040144795 0.020894622 -0.006171705
0.022451391 -0.0103776 0.02964672 0.017954672 0.004519261 0.014948735 -0.03829534 0.008004421
0.004799373 0.006906739 0.0029361788 0.004998458 0.0010431401 -0.021693813 0.016688548 0.02516791
0.016750162 -0.0012543888 -0.0024330574 -0.008284077 0.005531767 0.035397444 -0.027065426 -0.025701934
0.031249989 -0.0077021318 0.008895663 0.011384013 0.018354189 0.0019239952 0.0035817712 -0.0059672086
-0.012098163 -0.03767717 -0.00081813533 0.0028457379 0.009251357 0.009057208 0.00047210619 -0.023229752
-0.011006366 -0.008682826 0.018060528 -0.0005872515 0.0034312245 0.042148624 0.0012322423 -0.009438985
0.07985292 -0.02860033 -0.0051993267 -0.009665032 -0.004407494 0.027286854 -0.002023582 -0.0007541876
0.012338014 0.011778559 0.0061732056 0.010616392 0.0015244664 0.0047443123 -0.038749747 0.017316451
0.011973055 0.019764746 -0.06246912 0.0076260963 -0.012652697 0.004386252 -0.0040187207 -0.010248755
0.007947634 -0.0008828224 0.019559715 0.009270729

Y.net.2.0.weight f4 [100, 100]
00000000: 2e3d 693d f4ef 17be 4039 a93d 49ea 683e
00000010: 76ab 9cbd b61b 303c c298 d33d f2d5 203e
00000020: 0c02 6dbe 3595 7abc 7a95 11bd 2e2f 8a3d
00000030: 5c1f 613d fea0 db3d d16c 8b3c e7d8 5c3d
00000040: 5294 e7bd f140 3abd 7c31 d3bd 535f 5a3d
00000050: 614a e83d e8bf 053e e09a c7bc 5f68 a93b
00000060: 2877 dabd 35fd e63a 33b0 f6bd 468e 4ebe
00000070: e5ce ccbd 61c7 b33d 242e d1bb 5dc2 bd3d
00000080: 5aea cc3d 9de9 71be 98d0 15be fade 503d
00000090: efb2 a3bd 7b50 a5bd 229c d1bd c19f e33d
000000a0: e92f b73d 6c2a a13d 0962 fd3d be16 813d
000000b0: 15eb dcbd 5073 9d3d d55d 993d 4764 a93d
000000c0: 0eec 32bd 7517 f23a 4702 c63d 2e4c 463d
000000d0: 6b88 fdbd f83f 95be 3a82 6e3d b9ec d33b
000000e0: d318 78bc c5a6 423e 1f06 bc3d 2213 be3d
000000f0: c478 15bd 481e 6c3d e4d5 2d3d df1b 07be
00000100: d403 78bd 5d4e 8c3e 0854 3d3d bf8b 14be
00000110: 66d4 453d ada9 ac3d 0114 523d 2be9 593e
00000120: fac0 d9bc 0df0 05be 5c87 f93d 1fcd 6a3d
00000130: 3a2d 3abe 4d97 b53d c02e 12be aa75 c73a
00000140: ba0f 0a3d c870 163e 6ed6 ecbc 59dd f3bc
00000150: 136f a7bd 565a 843c 83bc 81bd 822b 3e3e
00000160: 22dc 3a3d 9146 3fbe 6a94 e43c a9f4 f3bd
00000170: fb33 8e3d 6495 6bba 9790 8d3d 5efc 353e
00000180: a00e 6bbd 3d65 1d3e 0f79 b2bd 46be 023d
00000190: d7f1 f2bd 9826 02be 0fad c23d 822d 393e
000001a0: a4bb 993d 60b8 923c b988 a73e ff13 44bd
000001b0: 4e86 15bd d8bf b13d 15cb f93d fea8 abbd
000001c0: 1c9b 063e faea f53d 9f83 0c3e c51c 923e
000001d0: 6db8 37bd 0efe fa3d 7e90 f83d 76fe 403d
000001e0: e521 d1bc d006 133a 4d5b d33d 973e 993d
000001f0: 0ce2 aabc be71 c7bc 65fc 9cbd 35b4 f33c
00000200: 7565 3f3d e560 27bd f3e1 11bd d64a 4f3c
00000210: de25 c23a 493d d9bd 7510 253e eb32 2bbe
00000220: ad0f c43d 7e6d 53bd 734a 8bbc 58bb 503e
00000230: d793 2d3d b194 1fbe a9ad 273b c474 72bd
00000240: 9841 22bd 0b88 183d c501 dbbd 1369 e7bd
00000250: f388 e5bd 1857 c13d b919 383e cc0e 853d
00000260: 1458 79bd af12 4fbc 5de9 663e 2ea0 043d
00000270: 6104 6d3d 4c97 42bd f18d d53c b8b1 0b3e
00000280: 4c07 c73c 6a4e b63d 4f38 2f3c 45d6 11bd
00000290: 53f3 f7bd afe2 e7bd f635 ff3c 6310 433d
000002a0: d41f 08be cf51 26be 62cf ad3d 0c2e a2bd
000002b0: a9f6 a63c 2f64 0a3e 275a e53c 7018 143e
000002c0: 0450 b5be 9e85 b93b d09d 663b 20c1 f6bd
000002d0: d028 233c 34ca 3dbd a40b 173d 2fe5 a33d
000002e0: 5418 203e b0ec 17be 50da cbbb 3f96 32bd
000002f0: af1a 403d fbc6 b7bc b80f bdbd d659 c0bd
00000300: 3e3c a4bd 7436 7fbe 1ba9 76bd 9b94 353d
00000310: 8484 afbc 5dff c9bd 4708 6bbc 5d26 9bbd
00000320: 74ad 6b3d ac05 1f3e a4b7 efbc bc6e 1b3e
00000330: 0b09 30be c269 e7bd f140 80bd f3d7 463d
00000340: acc6 8cbb 2b61 a33d afe8 533c 5818 613d
00000350: f484 44bc 70e9 d73b cb34 8abc 241d e6bb
00000360: f9e4 e83d 75e6 9d3d f67b 483e fb6b 62be
00000370: 3e9f 633d f917 1e3e 8575 e8bd 0adc 86bc
00000380: 8bb9 eabd 976b 96bd a8a2 753d 756d c0bd
00000390: d384 3f3d 77de 6fbd 0e77 3bbd 09ea 073e
000003a0: 7400 9d3c b976 4a3d 1539 923c 2303 83bc
000003b0: 9aa5 08bd 2dfc 30bd 8400 dbbd 99be 0abd
000003c0: 194e 26be 8292 b93d f462 04be 165b 9d3d
000003d0: 0793 853c 566b 673d 7945 a9be 536d c1bc
000003e0: 9f7b a33d f721 29be 6c03 503e ea53 3e3d
000003f0: 4f0d 413d e55b adbd cb17 8e3c 2bc9 933c
0.05694311 -0.14837629 0.08262873 0.22745623 -0.07649891 0.010748794 0.103318706 0.15706614
-0.23145312 -0.015294363 -0.035542943 0.0674728 0.054961547 0.10724066 0.017019661 0.05391779
-0.11307587 -0.04547209 -0.10312173 0.053313565 0.11342312 0.13061488 -0.024365842 0.0051699127
-0.106672585 0.0017623069 -0.12045326 -0.2017146 -0.100003995 0.08778263 -0.006383674 0.092655875
0.100056365 -0.23624273 -0.14630353 0.050993897 -0.07993113 -0.08071991 -0.10234858 0.11114455
0.08944685 0.078694195 0.12372214 0.06303166 -0.10787026 0.0768801 0.074886 0.082710795
-0.04368215 0.0018470126 0.09668403 0.048412494 -0.12379535 -0.29150367 0.058229662 0.0064674285
-0.015142637 0.1900893 0.09180855 0.09280993 -0.036492124 0.057646066 0.04244031 -0.13194226
-0.060550526 0.27403536 0.046222717 -0.14506434 0.048298262 0.084308006 0.05128861 0.21280353
-0.026581276 -0.13079853 0.12184021 0.057324525 -0.18181315 0.08866749 -0.14275646 0.0015217562
0.033706404 0.1469146 -0.028910842 -0.029768633 -0.081754826 0.016156357 -0.06334784 0.18571284
0.04562009 -0.18679263 0.0279028 -0.119118996 0.06943508 -0.00089867995 0.06912344 0.17772052
-0.057386994 0.1537065 -0.08714496 0.03191974 -0.118625335 -0.12710035 0.095056646 0.18083766
0.07506493 0.017910182 0.327215 -0.047870632 -0.036505036 0.086791694 0.12196938 -0.08381842
0.13145107 0.12007709 0.13722084 0.28537574 -0.044853617 0.12255488 0.12136935 0.047117673
-0.025528857 0.000560862 0.103201486 0.07482641 -0.02085974 -0.024346229 -0.07665328 0.029749015
0.046727616 -0.04086389 -0.035615873 0.01265212 0.0014812311 -0.10607392 0.16119559 -0.16718642
0.095733024 -0.05161809 -0.017003274 0.20383966 0.04237732 -0.15584065 0.0025585687 -0.059193388
-0.039613336 0.037239116 -0.10693697 -0.11299338 -0.112077616 0.0944044 0.17978562 0.06496963
-0.060875013 -0.012638732 0.22549959 0.03237932 0.057865504 -0.04750757 0.02606866 0.13642013
0.024295472 0.08901675 0.010694577 -0.035604734 -0.12106957 -0.11322533 0.03115366 0.04762305
-0.13293391 -0.16242145 0.08486821 -0.07918939 0.020381289 0.1351478 0.02799709 0.14462447
-0.3541261 0.0056616804 0.0035189278 -0.120485544 0.009958461 -0.046335414 0.036876336 0.08002698
0.1563428 -0.14836383 -0.0062210932 -0.043600317 0.046900447 -0.022433748 -0.09231514 -0.09392135
-0.08019303 -0.24923116 -0.060219865 0.044331174 -0.021425493 -0.0986316 -0.014345235 -0.075756766
0.057538465 0.15529507 -0.029262371 0.1517896 -0.1719095 -0.112994686 -0.062623866 0.04854579
-0.0042961445 0.07977518 0.012933894 0.054954857 -0.011994589 0.006589107 -0.016870877 -0.007022517
0.11371798 0.07709972 0.19578537 -0.22111504 0.055571787 0.15438832 -0.1135054 -0.016462345
-0.11461171 -0.0734474 0.059969574 -0.09395877 0.04675753 -0.05856177 -0.045767836 0.13272871
0.019165255 0.04942963 0.017849484 -0.015992707 -0.033361055 -0.043209244 -0.10693458 -0.033873174
-0.1624073 0.09061147 -0.12928373 0.07683389 0.01630546 0.056498848 -0.33060816 -0.0236117
0.07982563 -0.16516863 0.20313805 0.046466745 0.047131833 -0.08464793 0.01734533 0.01804026

Y.net.2.0.bias f4 [100]
00000000: eb82 463c 0d01 1cbc 0ce3 7cbc a6cd 923b
00000010: af3e a5bc b8c4 3abc ce5e 263c f844 733c
00000020: 46b5 013d 51d4 933c f2d9 8b3c ffd1 493c
00000030: ecf3 40bd c76a fb3c 306a bb3b 4758 243c
00000040: e232 1bba ee09 3a3d 0d2c c3bb a340 9dbc
00000050: 79b6 28bd be74 3dbd 7256 b53c f5e2 6dbd
00000060: a5e6 d23b badb cb3c a4e2 97bd fe2d 573a
00000070: 132a 263c cbb0 eabb 2c52 f5bc 0c67 513d
00000080: 9a06 c2bb a46c 18bd 410f fd3b b5a2 8d3d
00000090: dcf5 e3bc c4f9 58bc 5dfe 45bd c8f2 acbc
000000a0: 28d6 fa3b de8a 2a3d 5333 4bbd b545 cabb
000000b0: 827b debc 9c7c bc3c 7529 a13c 902b c539
000000c0: a9d5 313c e5e8 c6bb 6b5d f9bc b114 febd
000000d0: 2801 d6bd 8817 8f3a 9918 87bc 96cb cabd
000000e0: 23dc 32bd 152c bc3c 6af4 2d3b 7dad f8bb
000000f0: 2984 2f3b 5ebf 3cbd b6b0 f13c 82f2 f63c
00000100: ed4c 3a3c 3ed6 6e3c 5075 a3bc 2e20 20bd
00000110: 39a5 65bd e516 bebd 479b 9fbd 2929 923c
00000120: e9cf 56bd 43e8 6e3c 5813 423d 99fe 4cbd
00000130: 0ca8 263a 9b0c 5dbc fa28 ad3b b189 093d
00000140: 7440 42bd f8a3 89bc 4b1f 2cba 4839 15bd
00000150: 06b8 8b3b 2c01 a6bc 2265 95bd 75a9 16bd
00000160: d410 4b3d 9dd0 0d3d f5a8 80bd 5965 66bc
00000170: e92b cb3c 8344 9b3c b567 ebbd f1bb ff3c
00000180: 3fa7 af3c 9ce0 373d 210b 0dbd 3b75 c93b
0.012116174 -0.009521735 -0.015434992 0.0044800816 -0.020171491 -0.0113994405 0.010154439 0.014847986
0.031667016 0.018045576 0.017071698 0.012318133 -0.047107622 0.030690564 0.0057194456 0.010030813
-0.0005920363 0.045419626 -0.005956179 -0.01919586 -0.041189644 -0.046253912 0.022135947 -0.05807777
0.0064361864 0.024885047 -0.07416275 0.00082084525 0.010141867 -0.0071621886 -0.02994641 0.051123664
-0.005921197 -0.037212983 0.0077227657 0.069157995 -0.027827196 -0.0132431425 -0.048338283 -0.02111186
0.007654924 0.04163634 -0.049609493 -0.0061728605 -0.027158502 0.023008637 0.019673089 0.00037607225
0.010854163 -0.0060702437 -0.030440053 -0.1240629 -0.10449439 0.0010917047 -0.016491221 -0.09902112
-0.04366697 0.022970239 0.0026543387 -0.007589041 0.0026781654 -0.04608094 0.029503208 0.030144934
0.01137088 0.0145774465 -0.0199534 -0.03909319 -0.05606577 -0.092817105 -0.07793289 0.017841892
-0.052444372 0.014581743 0.04738173 -0.05004749 0.00063574384 -0.013491775 0.005284426 0.03357858
-0.04742475 -0.01680182 -0.00065659423 -0.03643158 0.0042638807 -0.02026423 -0.0729468 -0.0367827
0.049576595 0.034622777 -0.06282226 -0.014062249 0.024801211 0.018953567 -0.1149439 0.031217547
0.021442054 0.04489194 -0.03443444 0.006148008

Y.net.3.0.weight f4 [100, 100]
00000000: a773 933d 615d df3c 09b7 8a3b e6d6 823c
00000010: e469 1b3e 88d2 293d e327 27bc 4ba9 5d3d
00000020: bc2d f23d 2a67 903d 3217 0dbd 0f65 70be
00000030: 80f1 413e 980d 4b3d 887b 213d a00a a6bd
00000040: d874 c83a f932 74bd f63b 9d3d 6480 233e
00000050: f99e 3d3e 5a8d 1bbd e64f a83c 9506 e4bc
00000060: cc6e 1abe 3408 963d 3d88 b7bc 7ddc 193d
00000070: 5e8e ffbc 9398 5abd 2b66 033d c407 f83c
00000080: a8e2 613d b3c0 0b3e db3c 473e 731a 24bd
00000090: d28a 063e bf9c 6b3e d391 893e 1e9d ccbc
000000a0: 3565 a63d 4226 f8bd 5432 563d 5611 0fbe
000000b0: 9a1e 333d 588e 22bd f1c8 5d3d 25f2 cc3d
000000c0: 5f8d 2ebe 2959 5ebd 97dd ccbb d7a4 83ba
000000d0: 0d0a 95bd e758 0fbb 821d b13c 7ddf 25bd
000000e0: 31e8 9abc 590b 383e 9c4b a73c a781 ab3e
000000f0: 0e86 10be 47ab f33d 3991 223e 5167 693e
00000100: 30ef 9a3b 556d 0cbd fa98 983e dd23 713c
00000110: 74fd 37bc 47b6 58be e5f8 413c 4f96 ce3d
00000120: c52a f03d 01db 6e3d 738e a1be e20c a33d
00000130: a564 8abd 1222 0cbd 2be8 e8bb 00a7 ae3d
00000140: cf64 3fbd 68f1 c13c c332 6ebc dcbd 46bd
00000150: 80c9 8dbe 041c 7ebc e957 30bc 2e11 a5bd
00000160: 6490 25be eda3 63bd 1b85 4abe f5dd d63d
00000170: 5aa8 e53d 431d cc3d 0c7d 523e fe23 82bc
00000180: 9a1e 2c3e 9e25 883e 2c11 87bc 1fce 06be
00000190: e5fa 3d3e 7e57 033e 85b9 aa3d 0c85 bd3d
000001a0: e903 233e e936 4abe 3775 25be f3d7 9dbd
000001b0: 7787 a33b 8c26 9abd d079 92be 665c e8bd
000001c0: 62c3 d73d 25a4 f43b 92c6 85bc f208 b33d
000001d0: f3cf a1bd 0696 34be 0f50 8ebd fa96 1f3c
000001e0: c0a5 e83d 8e7e 9cbd 7a36 26be 6476 4c3d
000001f0: b94f 503e 8e86 71bd e06b 1ebe 195d ed3d
00000200: ea16 cebd 53cb f53c e765 31be 5338 5ebd
00000210: a432 eebd 095d 02bd b9b6 10bc 486e a5bd
00000220: 114f 7f3c 5c8e 0abb 3282 903d a30a a5bc
00000230: 4cb8 f2bc 5ae8 fb3d 0ffc ed38 adfd 803d
00000240: 66ba 93bb 80dc 05bd d9d0 b5bd 148b 44bd
00000250: 4f95 533d b95a 6fbd 64fb 06be 359e c83d
00000260: 6e55 30be 2fa3 40be 62dc 93bd 2092 2f3e
00000270: 7a42 30bd 5aef afbd 4a29 503d 2bb5 8b3d
00000280: c9c1 bebc 4145 173e 06bf 3f3e ab70 103e
00000290: 1b69 31be 0e06 593d 5635 1dbd 0ca3 453e
000002a0: e415 bebc c199 933d 4e1e 30be 5547 bebb
000002b0: aaba ab3c b19f 17be 4710 24bd f954 8f3c
000002c0: c0ab 2fbe af5c 26bd b4d4 5abd 4587 b63d
000002d0: a776 9a3b 981c 5f3c d7fc 75bb 9679 e03d
000002e0: 22f7 203e 9ba6 2cbe cb2d 15bd 6380 ac3c
000002f0: 46b7 9bbe 6d15 60bd 7b66 bd3b 1d22 893d
00000300: 9e37 1c3d 7c6e d63d 9f3f b53d e58b 1abc
00000310: 6592 d9bb d38d bdbd 1cf4 2abd 78af c93d
00000320: 6530 03be 7877 99bd 4237 553d 8f48 22bd
00000330: 5226 b4bd eab7 ec3d 6a4d 1a3c d1a8 87bc
00000340: bb08 2fbd e7c8 503d 4170 a53d 6272 08be
00000350: b60a 8abd 877f 0f3e 3be8 033d 0372 06be
00000360: 6c46 6dbe c4c8 fabb 0e13 ef3d baca 383d
00000370: fb48 9f3c 298c 7bbc 8670 863a 8411 a0bc
00000380: 131d 3fbd 46a8 253e 3cd7 ed3d 9329 cdbd
00000390: cd50 d4bd 292c 1c3e 4683 55bd 4203 96bd
000003a0: 826d 913d 9910 88bd d211 813d 2cb3 493e
000003b0: 711e 36bc ba7d 733d 6b59 363d dba5 883e
000003c0: 640b 983d 1b3d 743d e037 fa3d 25ab ab3d
000003d0: 377f 853d d8f0 2d3e f5a7 b03d 5944 ecbd
000003e0: 3afd e93d c950 0d3e 6c46 593e 1909 593d
000003f0: e36d 91bc f382 24bd 9b00 29be d2cd d0bd
0.07199793 0.027266206 0.0042332453 0.015971612 0.15177113 0.041460544 -0.010202381 0.05411653
0.118251294 0.07050927 -0.03444595 -0.23476051 0.18939781 0.04957351 0.03942445 -0.08107495
0.0015293611 -0.059618924 0.07677452 0.15966946 0.18517675 -0.0379766 0.020545911 -0.02783517
-0.15081328 0.07325783 -0.02240383 0.03756379 -0.031195816 -0.053368162 0.032079857 0.03027714
0.055147797 0.13647728 0.19456808 -0.040064286 0.13138893 0.23009013 0.26869068 -0.024977263
0.081247725 -0.12116672 0.05229409 -0.13971457 0.043730356 -0.03968653 0.05414671 0.10007123
-0.17046116 -0.05428425 -0.0062520015 -0.0010043633 -0.07277308 -0.0021873058 0.021620516 -0.04049634
-0.018909546 0.17973079 0.020421796 0.33497354 -0.14113638 0.11897903 0.1587571 0.22793318
0.0047282204 -0.034283955 0.29804212 0.014718023 -0.0112298615 -0.21163283 0.011839126 0.10087263
0.11726908 0.058314327 -0.31553993 0.079614416 -0.06757478 -0.03421218 -0.0071077547 0.085279465
-0.046726998 0.023674682 -0.01453847 -0.048520908 -0.27692795 -0.015509609 -0.010763147 -0.080599174
-0.16168362 -0.055576254 -0.19777338 0.10491554 0.11213751 0.09966519 0.20555514 -0.015886303
0.16808549 0.265912 -0.01648768 -0.13164566 0.1855274 0.12826344 0.08336166 0.09253892
0.1591946 -0.19747509 -0.16157995 -0.07707205 0.004990514 -0.075268835 -0.2860856 -0.113457486
0.10535313 0.0074658566 -0.016330037 0.087419406 -0.07900991 -0.17635354 -0.06948864 0.009740585
0.11359739 -0.07641326 -0.16231719 0.049917594 0.20342912 -0.058966212 -0.15470839 0.115900226
-0.10062964 0.03000418 -0.17324029 -0.054252934 -0.11630753 -0.031827006 -0.008832627 -0.08077675
0.015582816 -0.0021141982 0.07056083 -0.020146674 -0.029628895 0.12300177 0.0001134799 0.06298385
-0.0045083044 -0.03268099 -0.08877725 -0.047984198 0.051656064 -0.05843613 -0.13181835 0.097958006
-0.17220089 -0.1881225 -0.07219769 0.17145586 -0.043032147 -0.085905746 0.050820626 0.068216644
-0.023285763 0.14772512 0.18725213 0.1410548 -0.17325251 0.05298429 -0.038380943 0.19300479
-0.023203798 0.072070606 -0.1719906 -0.0058068433 0.020963032 -0.14807011 -0.040054586 0.017496573
-0.17155361 -0.040615734 -0.053425506 0.08912519 0.0047138515 0.013617657 -0.0037534737 0.10960691
0.15719274 -0.1686043 -0.036420625 0.021057313 -0.30413264 -0.054707933 0.005780039 0.0669596
0.03813898 0.10470292 0.088500254 -0.0094327675 -0.006639766 -0.092555664 -0.041736707 0.09847921
-0.1281143 -0.0749349 0.05205465 -0.03961998 -0.087963715 0.11558516 0.009417871 -0.01655999
-0.042732935 0.050972845 0.08078051 -0.13324884 -0.06740324 0.14013492 0.032203894 -0.1312943
-0.23171395 -0.0076533277 0.11673556 0.04511521 0.01944398 -0.015353241 0.0010256923 -0.019539602
-0.046658587 0.16177472 0.11613318 -0.10017695 -0.10366974 0.15251221 -0.052127145 -0.0732484
0.07100965 -0.06643791 0.06302227 0.19697255 -0.011115656 0.059446074 0.04451887 0.26689038
0.074240476 0.059628587 0.122176886 0.083822526 0.06518405 0.16986406 0.08625785 -0.11536474
0.11425252 0.13800348 0.2121827 0.05298719 -0.017752593 -0.040163945 -0.16504137 -0.10195507

Y.net.3.0.bias f4 [100]
00000000: 1fda a63b 05ef 9d3a dd0d 8b3b fa87 6b3b
00000010: cc51 c73b da19 ac3c f01d 713b ca9a 243c
00000020: bde0 9ebb 8319 c93c aa1d 803b 2e05 63ba
00000030: b210 20bc 2d6c 1a3c 4231 463c 48b3 0f3d
00000040: ea2c ef3b 586a 643c d368 213b 25e6 f73c
00000050: b822 123d 9ca8 8d3a 85ac 0d3b f42c f3bb
00000060: d64c 433c 5198 853b d944 9f3b 05b5 1c3c
00000070: 9148 983c 2978 383b edcb a13c 6d28 213c
00000080: 793c c03c 603c 8d3b 6fb0 103d 0359 7f3c
00000090: 7847 f83c f63b 633b e901 133c 3e2a 113b
000000a0: 8366 f9ba cbe4 3f3c 5df0 313b e4ab 1b3c
000000b0: 62bf 643a 4d1e 003c 3368 7e3b 4d5c bb3c
000000c0: 98f1 273c a07c 993c a015 c63c 32f7 943c
000000d0: fab2 4fbb cf59 373c d2f8 dc3b c8dd 873c
000000e0: 0995 243b cb03 143c 1a48 c93b 4ea3 263c
000000f0: 4b25 c23a e29c ad3c 42a9 6d3b 8a4e 873c
00000100: fae9 603b bb4e 893b baf3 81bc 40b5 c63c
00000110: cd51 2d3c 5bbb 923a 4398 b13b d362 0c3c
00000120: 9789 0fbb fa31 043b 91a8 6e3c 08c0 2f3b
00000130: 88a1 cbbc eb83 f23b 307c 68bc 77d5 483c
00000140: d6df cebb 9e70 0f3b ecd6 f33b d96d 9d3b
00000150: 7ef5 a33b 8f75 173c 5c4f 773b 5a0a 6abc
00000160: 0c57 9239 ab2d f3b9 70c0 8739 d7f1 f53a
00000170: 636c fa3b a921 88bb 3520 1e3b cfb5 4d3c
00000180: 1a45 953b 8986 acb9 8d58 d03b a5e4 543c
0.00509192 0.0012049383 0.004243596 0.0035939203 0.006082749 0.02100842 0.0036791526 0.01004667
-0.0048485682 0.024548298 0.003909786 -0.00086601346 -0.0097696055 0.009425205 0.012096705 0.035083085
0.0072990553 0.01394137 0.002462913 0.030261109 0.03567764 0.0010807696 0.0021617722 -0.0074211303
0.011920175 0.0040769954 0.004860502 0.009564643 0.01858929 0.0028147793 0.01975056 0.009836298
0.023466336 0.004310176 0.03532451 0.015585187 0.030307516 0.003467319 0.008972623 0.0022150422
-0.0019027743 0.011712263 0.0027151324 0.009501431 0.0008726028 0.007819724 0.0038819432 0.02287116
0.0102504715 0.018736184 0.024180233 0.018184278 -0.0031692372 0.011190846 0.006743529 0.016585246
0.0025113246 0.009034107 0.0061426284 0.010170771 0.001481214 0.021192972 0.0036264216 0.016516943
0.0034319148 0.0041902936 -0.015863288 0.024256349 0.010578585 0.0011194752 0.0054197623 0.008568483
-0.0021902078 0.002017139 0.014566557 0.002681734 -0.024857298 0.0074009798 -0.014189765 0.012257925
-0.0063133044 0.0021887193 0.007441392 0.0048043546 0.00500363 0.009244337 0.003773651 -0.014284695
0.00027912145 -0.00046382597 0.00025892584 0.001876409 0.0076423152 -0.004154403 0.0024128084 0.012555554
0.0045553567 -0.00032906633 0.0063582123 0.012993966

Y.net.4.0.weight f4 [100, 100]
00000000: 962b 823d fb79 d83d 6946 2dbe f5e0 06be
00000010: 281e b0bc e79e cbbd 3091 e5bd 0f6c 6fbc
00000020: a41b bb3b e95d 67bd c511 c63d 4e2a ec3d
00000030: b97e 51bd f94c 3bbd d706 11be 8a6f 793d
00000040: 3ed9 1e3d 2f73 0bbe 16e6 0fbe 8258 9d3d
00000050: 9e01 013e 97d1 bcbd a1c7 0e3b a0fe ed3c
00000060: fd30 753b 1fe1 913d 0e0b 893d a446 c9bc
00000070: 66ad 4bbd b46f 063d 1594 adbd 774c af3d
00000080: a035 0a3e e854 003d 016f bc3d efaa e93d
00000090: 7245 493d dfe9 1bbe af20 e13b 9973 543d
000000a0: 8ca9 28bd 8596 de39 f0b9 a9bd d5dc 9d3d
000000b0: 13cf f8bb 878a b4bc 8834 223c 7232 b9bd
000000c0: 4033 193d d12b 063e 652c e9bd fc10 863e
000000d0: 86a1 373c 9b51 91bd 4021 3d3c 33fc 2c3d
000000e0: c559 653b bea4 113e 5dc3 003e 441a 963d
000000f0: fe43 c33d 1360 073d 8bc7 9dbd 64f0 ee3d
00000100: fd56 47bd 636b d5bd 123b cdbd 2f19 b13d
00000110: 7351 48bd b0b2 aebd 9410 22bd fed2 9d3d
00000120: 850d 21bd 3429 d0bd 5985 f53d 0e41 05be
00000130: 4333 193e f5a4 e03c f907 253e 5b35 cd3c
00000140: b876 adbe d165 b9bd 5f6f 9f3d 5e64 d3bb
00000150: b6ee 02bc 9957 34be 5669 5cbd b652 90bd
00000160: 75c9 553c 6c8e ccbb 7f7b 91bd f0a4 403d
00000170: 69b2 4a3d d106 5b3e 2f8f 403c bdc8 133e
00000180: e82f b3bd 260c 683e 23cd 05be eb79 e33c
00000190: 62a3 763d d6c0 d1bd 6f8c 293d d853 c33d
000001a0: 3a75 abbd 54ae 353d b483 2fbe ef1b 2fbc
000001b0: 7d85 8a3d c35f 93bb b0c7 e7bc 8be9 8dbd
000001c0: aefd 033e e2fe a23b 52db 813d d086 4bbc
000001d0: 2209 233e 2c2f 61bb 1440 17bd 47da 363b
000001e0: e592 5c3e bb33 c23c 6a64 803d f684 773d
000001f0: 5671 3cbe 5125 9fbd b8d3 0b3d 79dd f6bd
00000200: 4976 0f3c a371 293d 1ca0 d43d fb24 60bd
00000210: 869f f8bc 0c52 013e 0a23 953d b021 ccbd
00000220: 4553 56bc ca04 a6bd d123 2abc 0139 01be
00000230: f039 f1bd fa50 453d d240 f43d 5b91 573d
00000240: dbd7 e1bc 4051 3fbd 7054 093e 46a4 3b3d
00000250: 5370 32bd 6761 e9bc af44 c7bd bc96 b93b
00000260: 43db 87bc 24dc bebd 65ef ddbd ec38 0c3d
00000270: fa55 8cbe 6fb8 a63d b5f1 40be 7b90 85bc
00000280: 807a 04be 6d8d 8cbe 2e58 883d 7012 8abc
00000290: 4ffc 8cbc 9484 81be 2c1a ddbc 7a09 9dbd
000002a0: a7ce 10bd 1919 47be 948e 503d d143 793d
000002b0: e564 963c 1f4d b3bd a78f 6bbd 9b17 483d
000002c0: c60e d6bd 7f52 b03d ec9a 9ebd 6bd0 c0bc
000002d0: 0ce9 3f3d 1990 dbbd 5b90 c23d 4e91 03bd
000002e0: 3456 ba3d 28a9 4c3e 0c8c 8c3d 527b 9f3d
000002f0: 8a7b 7abd 99db e0bd a64b ed3d fce9 e23d
00000300: 231d 88bd 9541 cebd 05cf 0f3d addc 343e
00000310: b95c 2a3d 8010 2fbd 7b2f afbc 07fd cc3d
00000320: 67a3 c93b 5a0f febd 6c0b 9fbc 47fe ca3d
00000330: 5ed7 fc3d 5392 b53c b451 46bd 8925 4cbd
00000340: 7b48 1c3c 7035 423d d7df 04bd fcdd 6b3d
00000350: 7fe9 c5bc 9b80 d83d 94d1 a03c 5d3d 0ebc
00000360: 05f6 30bd 37e1 e83d c62c 8fbd cf4a d73d
00000370: 3c29 8bbd 77ef 8e3c 55b3 a93d 3098 0dbd
00000380: f6ee ac3d 464e 153e 3c48 803d 4498 af3d
00000390: cd0c 0fbd 13ee 7a3d a7e2 2dbe c5f7 22bc
000003a0: f2d1 153e d60e 3abd ae92 853d 8cd5 d7bd
000003b0: a53d 27bc 8572 273d ffee 583d a2d7 a3bc
000003c0: cad1 d33d 82ae 023e 35db 55be 2dc1 d13d
000003d0: d7dd 5d3d 8eeb 71bd 57ac b4ba 4d9a d33c
000003e0: 662c 213d b8ca 993d 56b1 2a3e b9f9 ffbd
000003f0: 33d4 693d 986c a8bd d27a 253e d6c2 8d3e
0.063559696 0.10570141 -0.1692139 -0.13171752 -0.021498755 -0.099424176 -0.11209333 -0.0146131655
0.005710082 -0.056486044 0.09671358 0.115315065 -0.051146243 -0.045727704 -0.14162765 0.060897388
0.038781397 -0.13618158 -0.14052615 0.07682897 0.12598273 -0.092196636 0.0021786469 0.029052079
0.0037413232 0.071230166 0.06691562 -0.024569817 -0.049725913 0.032821372 -0.0847551 0.085595064
0.13497019 0.031330973 0.0920086 0.11409556 0.049138494 -0.15225933 0.0068703513 0.051868055
-0.041177318 0.00042455285 -0.08287418 0.07708136 -0.0075930445 -0.022038711 0.00990022 -0.09042825
0.03740239 0.13102652 -0.11385421 0.26184833 0.011207944 -0.07095643 0.011543572 0.042232703
0.0034996134 0.14223 0.12574525 0.073292285 0.09534453 0.033050608 -0.077040754 0.116669446
-0.048666943 -0.10420873 -0.100210324 0.086473815 -0.0489058 -0.08530176 -0.03956659 0.07706259
-0.039319534 -0.10164109 0.11988325 -0.13013098 0.14960961 0.027422408 0.16116323 0.025049856
-0.33879638 -0.09052623 0.07784914 -0.0064511737 -0.007991483 -0.17611541 -0.053811394 -0.07047026
0.013048519 -0.006242564 -0.07103633 0.047032297 0.04948655 0.21389319 0.011752888 0.14432044
-0.08749372 0.22660884 -0.13066535 0.027768096 0.060214408 -0.10241859 0.041393694 0.09537476
-0.083719686 0.044355705 -0.17140085 -0.010687812 0.06763742 -0.0044974997 -0.02829346 -0.069293104
0.1288974 0.004974232 0.0634066 -0.0124222785 0.15921453 -0.0034360392 -0.036926344 0.00279011
0.21540411 0.023706308 0.062691525 0.060429536 -0.18402609 -0.077707894 0.034137458 -0.12053961
0.008756229 0.041368138 0.10382101 -0.054722767 -0.030349504 0.12628955 0.07282074 -0.09967363
-0.013081376 -0.08106382 -0.010384516 -0.12619402 -0.11778629 0.04817293 0.11926426 0.052628856
-0.027568748 -0.046708345 0.13411117 0.04581096 -0.043564152 -0.028488828 -0.09729897 0.005663721
-0.016584044 -0.09319332 -0.108366765 0.034233972 -0.27409345 0.08140647 -0.18842204 -0.016304245
-0.12937355 -0.2745165 0.06657444 -0.016854495 -0.017210154 -0.25296462 -0.026990019 -0.07667823
-0.03535333 -0.19443168 0.050917223 0.06085569 0.018358657 -0.08754944 -0.057510044 0.048850637
-0.104520366 0.08609485 -0.07744393 -0.023536881 0.04685311 -0.10720844 0.0950019 -0.032120995
0.09098473 0.19986403 0.06862649 0.07787193 -0.061152972 -0.10979385 0.115866944 0.11079785
-0.066461824 -0.100711025 0.03510954 0.17662306 0.041592333 -0.042740345 -0.021384945 0.10009199
0.0061535123 -0.12405272 -0.019414626 0.09911781 0.123457655 0.0221645 -0.048417762 -0.049840484
0.009538765 0.047414243 -0.032440033 0.057584748 -0.024159191 0.105714045 0.019631185 -0.008681622
-0.043203373 0.11371081 -0.06990962 0.105123155 -0.06794974 0.01744817 0.08286158 -0.034568965
0.08444016 0.1458064 0.062637776 0.08573964 -0.034924317 0.0612622 -0.16980992 -0.009946768
0.14630869 -0.045424305 0.065221176 -0.10538778 -0.010207568 0.0408807 0.0529623 -0.020000283
0.103427485 0.12761882 -0.20884402 0.102419235 0.05416664 -0.059062533 -0.0013784271 0.025830412
0.039348982 0.07509369 0.16669211 -0.12498803 0.057087135 -0.082238376 0.16160133 0.2768771

Y.net.4.0.bias f4 [100]
00000000: a057 b1ba 7e24 3d3c 9068 a83b d1cd 54ba
00000010: 126d a63d ffef 293c 5422 a73c a584 67bd
00000020: ae7f c8bb b3c2 703c b544 9b3c 2ca3 44bb
00000030: 8697 033c d58e 683a dc8b 1b3d 5d9f 083d
00000040: 19e4 893b 7720 e03c e977 103d 0448 6f3c
00000050: e516 2bbc 52c4 ad3a c217 d13b 2515 e9bb
00000060: 3699 0d3c 05e4 82bc f188 20bb a9cd 053d
00000070: 5312 0ab8 92a9 773b 1a67 7ab9 b2a7 723d
00000080: 33cb 063c a1a3 9a3c 2dd6 2d3d a21c 91bc
00000090: d993 2bbd 7b49 1e3c 5d8f 253a d45d 8b3b
000000a0: bb13 d73c ac77 89bd 00cf 92bc bf1d c939
000000b0: 6dc8 853c 21c7 6cbb 0183 32be 13c5 9eba
000000c0: 2836 2639 e1de 7a3d afcf 17bd d1bb d2bd
000000d0: f6de 72bc d2b7 3f3c 4f79 f83c e13d 783c
000000e0: 3239 46bc f4a7 6e3c bb69 69bc 20b7 bd3c
000000f0: d60d 8c3b 0743 3bbb 3041 a7bc 08d3 7fbd
00000100: 30d5 7b3c 570a acbc 3719 153b cb92 dc3c
00000110: f262 b73c 2791 eebb e737 19bd f654 473c
00000120: f205 e4bb 9449 243c 2cb2 043c e7b5 3dbd
00000130: 2c67 afbb f827 293b 91f0 a1bc f9dd 923b
00000140: 9bf5 d9bb 77ea f83b cf17 99bc a3f0 3abb
00000150: b8a1 213b 9b37 ee3b b40d 0abc 9a9c a5bc
00000160: e853 3bbd 8ca8 dbbb 29ea 153d 6c6d d2bc
00000170: dec8 12bc 7480 603c 5866 1ebd 403f 7dba
00000180: 7d28 ffba 5b40 6fbc 221c c6bd 10e7 2c3c
-0.0013530143 0.011544345 0.005139418 -0.0008117827 0.08126272 0.010372161 0.020402111 -0.056522984
-0.006118736 0.014694857 0.01895366 -0.0030004485 0.0080317315 0.0008871381 0.037975177 0.033355106
0.0042080996 0.02735923 0.035270605 0.014604572 -0.01044247 0.001325736 0.006381006 -0.0071131163
0.008642485 -0.015977869 -0.0024495686 0.032666836 -3.291883e-05 0.003779028 -0.00023880266 0.059241958
0.008227157 0.018876852 0.042440582 -0.017713849 -0.041889045 0.009661074 0.0006315613 0.0042531285
0.026254525 -0.06712279 -0.01792097 0.0003835987 0.016330922 -0.0036129432 -0.17432787 -0.0012113176
0.00015851168 0.06124771 -0.037063297 -0.102897294 -0.014823666 0.011701541 0.030331282 0.015151472
-0.012098597 0.01456641 -0.0142463995 0.02315861 0.0042741103 -0.0028573887 -0.020416826 -0.062457114
0.015370652 -0.021001024 0.0022750625 0.026925465 0.022386048 -0.007280487 -0.03740683 0.012166252
-0.0069587165 0.010027308 0.00809912 -0.046316054 -0.005352875 0.0025811177 -0.019768031 0.0044820276
-0.006651593 0.0075963098 -0.01868811 -0.0028524778 0.0024663042 0.0072698123 -0.008426119 -0.020216275
-0.045734316 -0.006703442 0.036600266 -0.025686942 -0.008959023 0.013702501 -0.03867182 -0.0009660609
-0.0019467023 -0.014602746 -0.09673335 0.0105531365

Y.net.5.weight f4 [16, 100]
00000000: 785a 803e d4d0 3a3e 41a6 d13d 0ec1 223e
00000010: 556e 3b3e 3fde 59bb ad03 dbbd 2d23 35be
00000020: 1af0 ad3d 75df fabe c39b e5bc ad83 413e
00000030: fed1 a9be 7f35 60bd 99c2 16be 170a 63be
00000040: f26c 903e 985c 013f 0bf3 1e3e 5a72 583e
00000050: deb1 73be a9b0 173e 47cc a03e a5f5 adbe
00000060: 0c49 283d 6108 48bc 4f57 6f3e 2daa 093f
00000070: 3a9c 3a3e dbdb 4f3e 06b4 f3bd 22b4 80be
00000080: a773 9b3e 9018 cc3e d8f2 e73e a4c1 043f
00000090: 48cb 21be 5732 0e3d 0e57 cb3e 7b14 41be
000000a0: 8181 623e 89c1 40bf 8067 8b3e 8e0a 623c
000000b0: ea6a e4bd 8ca0 493d d2f6 efbe cfc1 ee3e
000000c0: 6125 92be 9eb3 97be 6088 b43e d422 54bd
000000d0: 1715 133d 3cf9 e5bd 0e08 f23e 9fca 263e
000000e0: 7c7d de3d 039a 63bc 91e3 c63d b5ad 693e
000000f0: 82f1 c53d fa66 7cbd 36bd aebb 81df 52be
00000100: 99f7 8d3e 81f2 5abe f280 c7bd b7b3 593d
00000110: 30ba df3c 0bb9 b3be a096 42be 8dbd b53c
00000120: 25e7 8ebe 2ed7 1d3e abbb 263d f84a 06be
00000130: 2d5a a53e 5d46 57be 7d2a a93e 62eb 2cbe
00000140: e0da 10be 8932 f8bd e444 7c3e 2042 70bd
00000150: 31ae 3cbe b5c1 093e ba49 4cbe eda4 1abf
00000160: f06f d6be 43b7 313e dd07 41be cb4d 383e
00000170: 22c4 413e df83 46bd 0224 cb3d c2eb ea3d
00000180: 8425 1e3e a67c 8dbe 581b b5bc a3ff 29be
00000190: 181a f23e fcd4 cfbe 05d1 0e3f 564c e0be
000001a0: 6fb3 833e 0b52 c03e e32b 003c df50 31bf
000001b0: 29be 433f 4d37 aabf 4fff 1b3f 8760 443e
000001c0: 048f bbbe 2351 993e 6bab 3dbd e96f 7bbf
000001d0: e879 303f 097b 993f 58c0 023f 3a4a a23d
000001e0: 56a0 aebe c5d2 97bd f6ff 803e 457f 99bd
000001f0: 1867 8c3e dedd 85bd 1d29 5f3e 9243 8b3e
00000200: 4d36 063f 2fdd 22be 2684 8b3d 568a b7be
00000210: f0a9 5c3e 00ba d43e f4ce 143f 3a7f 2a3f
00000220: 4f9b 39bf 0e90 8e3e 25c7 663f 8c33 c4be
00000230: 7f2f 723e 77cd 22bf 2c39 9f3e a731 6bbb
00000240: 19a8 31bf 3a9c cbbe 8a7f 7ebf 3a70 b83f
00000250: 2e35 0abe 0509 023d c648 6b3f 9da9 d6be
00000260: 6a01 47be a037 8dbe dffa 573f 154e ae3e
00000270: 3c10 333d aeaa c4bc dad7 1f3f 859b 84bd
00000280: b7d1 eb3d 6079 23bf b9c0 bfbd 0b26 51be
00000290: 9342 c43e 8ba1 24bf 4bd1 b5bc 80d7 b2be
000002a0: 24b1 f73e 6d66 b5be ea42 5bbf c781 9a3e
000002b0: 7f0f 953d 2bfa 2c3f a9ba ef3d 2cc8 96be
000002c0: 4108 743f 671f f2bd e900 293f adbd 6e3e
000002d0: 9600 47bf 41c6 3c3f 9a41 d13e 5839 6d3e
000002e0: 47a6 85bf cf7e 883e 0be9 c33d 36b0 4abf
000002f0: 711e 6dbf 701c 2b3f 062d b0be 024b 8d3e
00000300: 09d7 843e 781c a7be c3d8 363f f12e 6bbe
00000310: 5137 ea3e 9892 21bf e66b 31bf 630d 6cbe
00000320: c86d 5b3f c212 84be abbd 643e b712 30bf
00000330: d795 a93e e2f2 0a3f 7a30 1b3e 19fd 6cbf
00000340: a50b 153f b98f c7bf faa9 f13e 8048 333e
00000350: ca1e 0fbf 8735 593f e501 e1be e317 20bf
00000360: 9218 2f3f d96c 983f bc74 f93e 4a6d c73d
00000370: 2ec0 cbbe d65a 22bf 1343 623f 982f 16be
00000380: a1aa 933e c7b8 3e3d 86c5 8a3e 1c72 8e3e
00000390: 96e4 9d3e 6246 95be 8328 fa3d c720 8fbe
000003a0: 5870 77be 52f5 733e 5a44 523e eda4 c93e
000003b0: 28da cdbe 1ac3 233f d269 073f e700 eabe
000003c0: 60cf 923e ca46 e5be 3523 4f3e f0c0 793d
000003d0: bdea 48bf 76ae c6be 4f99 44bf 567c ea3f
000003e0: 93ad 69bd 089d 50be 01a2 853f 949c 8cbe
000003f0: 5355 7cbd ed13 ffbd 7d9a a93f ea4d 453e
0.25069022 0.18243724 0.102367885 0.15893957 0.18303807 -0.0033244041 -0.106940605 -0.176892
0.08493061 -0.4899861 -0.028028375 0.18897887 -0.33168024 -0.054738518 -0.1472267 -0.22171818
0.2820812 0.5053191 0.15522401 0.21137372 -0.2379832 0.14813484 0.3140585 -0.33976474
0.041085288 -0.012209029 0.2337315 0.5377529 0.18223658 0.20298712 -0.11899571 -0.2513743
0.30361673 0.3986249 0.45302463 0.5185797 -0.15800202 0.034715977 0.39714855 -0.18855469
0.22119714 -0.7529531 0.27227402 0.013796462 -0.11153205 0.049225375 -0.46867996 0.4663224
-0.28544143 -0.29629225 0.35260296 -0.051791027 0.035908785 -0.11229178 0.4727177 0.16288231
0.10863778 -0.0138917 0.097113736 0.2282017 0.096652046 -0.061621644 -0.0053326143 -0.20593072
0.27727965 -0.2138157 -0.09741391 0.053149905 0.02731046 -0.35102114 -0.19002771 0.022185111
-0.27910724 0.15414116 0.040706318 -0.13114536 0.3229536 -0.21022935 0.33040228 -0.16886666
-0.14145994 -0.12119014 0.24635655 -0.05865681 -0.18425824 0.134528 -0.1995 -0.60407907
-0.41882277 0.17355065 -0.18850656 0.17998426 0.18922475 -0.048465606 0.09918977 0.114707485
0.15443999 -0.27634162 -0.022107765 -0.16601424 0.47285533 -0.40592182 0.5578769 -0.4380824
0.25722834 0.37562594 0.007822963 -0.69264024 0.76462036 -1.3298126 0.60936445 0.19177447
-0.3663255 0.29944715 -0.046306055 -0.98217636 0.68936014 1.1990672 0.51074743 0.07924314
-0.34106702 -0.07413248 0.25195283 -0.07494978 0.27422404 -0.065364584 0.21793027 0.2719999
0.52426606 -0.15904687 0.06812315 -0.3584773 0.21549201 0.41548157 0.58128285 0.6660038
-0.7250261 0.2784428 0.9014762 -0.38320577 0.23650931 -0.63594764 0.31098306 -0.003588775
-0.6939712 -0.3976763 -0.9941336 1.4409249 -0.13496849 0.031746883 0.9190792 -0.4192628
-0.19434133 -0.275815 0.84367174 0.34043947 0.043716654 -0.024007168 0.6243874 -0.064749755
0.11514609 -0.6385708 -0.09362931 -0.20424668 0.38332042 -0.64308995 -0.022194525 -0.34930038
0.48377335 -0.35429707 -0.8564898 0.30177137 0.07278346 0.67569226 0.117055245 -0.29449594
0.95325094 -0.11822396 0.66017014 0.23314543 -0.7773527 0.7374001 0.40870363 0.23166406
-1.0441369 0.26659247 0.09565934 -0.79175127 -0.92624575 0.6684027 -0.3440935 0.2759629
0.2594531 -0.32638907 0.714245 -0.22967125 0.45745328 -0.6311431 -0.69305265 -0.23051982
0.8571439 -0.2579556 0.22337978 -0.68778557 0.3312213 0.5427686 0.15155211 -0.92573696
0.58220893 -1.5590736 0.47199994 0.17508125 -0.55906355 0.848473 -0.43946758 -0.6253645
0.68396866 1.1908218 0.48721874 0.09737642 -0.3979506 -0.63419855 0.883836 -0.14666593
0.28841117 0.046562936 0.27103823 0.27821434 0.3083846 -0.2915526 0.12214758 -0.27954695
-0.2416395 0.23824051 0.20533887 0.3938364 -0.40205503 0.63969576 0.52895844 -0.45703813
0.2867384 -0.4478057 0.20228274 0.060975015 -0.7848318 -0.38804978 -0.7679643 1.8319194
-0.0570503 -0.20372403 1.0440065 -0.2746321 -0.06160481 -0.124549724 1.3250271 0.19268003
