src/logs/dae-pinns-example/model.pth (torch, 651787 bytes, 30 tensors)

Y.net.0.weight f4 [100, 4]
000000 27 29 8a 3d 97 c0 87 bd 62 89 ab bc 7e 69 b9 3c
       0.067461304 -0.066285305 -0.020939533 0.02263331
000010 26 4f 05 3e 23 b1 57 bd 72 70 91 3d f7 43 c0 3d
       0.13018474 -0.052659165 0.07101525 0.09387963
000020 27 30 97 3d f1 23 8d 3e d6 81 41 3d 24 c2 5e be
       0.07382231 0.27566484 0.04724296 -0.21753746
000030 64 35 4f be e9 5b 31 3e f9 53 2a 3e bb 05 6d bd
       -0.2023521 0.17320217 0.16633596 -0.057866793
000040 03 1a 0a be a9 5c ca 3d 68 00 3c 3d 00 d5 16 3e
       -0.13486485 0.09880955 0.045898825 0.1472969
000050 33 c0 1d bd f8 16 99 3e ab 4b a5 3d 5d 1e 38 be
       -0.038513374 0.29900336 0.08071073 -0.17980333
000060 0e f8 3c 3e 79 92 6c 3c 19 6f 9c 3d a5 5e e5 3d
       0.18454 0.014439219 0.07638378 0.11199693
000070 5f ad 35 3e 5f 8b b8 bc d1 0e 94 3d 1e bc 7a 3e
       0.17741917 -0.022527395 0.072293885 0.24485824
000080 1a 5f 50 3d 31 42 25 3d 84 c7 7b 3d 80 2d 15 be
       0.050871946 0.04034633 0.06146957 -0.14568138
000090 e4 b4 a3 3d cc e1 fa bd e7 7d 1b be cd 0a e0 bd
       0.079934865 -0.122500986 -0.15184747 -0.1093956
0000a0 d8 21 6e 3d de 16 23 3e bc 20 61 be 63 78 cc bc
       0.058137745 0.15926692 -0.21985143 -0.024959749
0000b0 77 ca 59 bb 14 d6 89 bc 16 71 80 3e 39 50 9f be
       -0.003323225 -0.016825713 0.25086278 -0.31115893
0000c0 d0 3e a1 bd 45 b8 ab 3e f1 8b 57 be f8 a2 92 be
       -0.07873309 0.33539024 -0.21049477 -0.2863996
0000d0 77 a5 04 be 00 bf ad 3e 2e 10 64 bd e9 60 21 3e
       -0.12953745 0.33934784 -0.055679493 0.15759625
0000e0 04 f8 62 bd e4 1d 13 3e 89 4d d4 3d 67 5a 5e be
       -0.055412307 0.14366871 0.10366351 -0.21714173
0000f0 93 3e 2a bd c8 e3 40 3c ab cd 91 3d 93 e5 9f bd
       -0.04156358 0.011773057 0.07119306 -0.0780746
000100 79 e6 72 bd bd ee 76 be e1 02 06 bd b7 8c 29 3e
       -0.059301827 -0.24114509 -0.03271759 0.16557585
000110 49 d1 10 3d fe f6 0b 3e d6 0e 14 3d 36 4b 55 bd
       0.03535584 0.13668439 0.03614696 -0.05207368
000120 e5 bf cb bd 9e cf 6a bd e0 e9 a7 3c 41 7d 5c be
       -0.0994871 -0.057326905 0.020497262 -0.21532156
000130 87 c8 3d 3a cb e1 14 be fa 36 2b 3c 3a 12 83 be
       0.0007239659 -0.14539258 0.010450119 -0.25599843
000140 a0 03 19 3e 15 c2 86 be 37 78 fd 3c 24 ed fe 3d
       0.14942789 -0.26319948 0.030941112 0.12447575
000150 19 2a 24 bd e5 3a cd 3c 9d 1a fe bc 44 5c dc 3d
       -0.04007921 0.025052497 -0.03101855 0.10759786
000160 2d 1e 45 3d 9b 6a bf 3d c6 b3 19 3d ab 95 8c bd
       0.04812448 0.09346505 0.03752496 -0.068644844
000170 0d 5d 0a 3e 59 b7 aa bc 57 de 3c 3e 3c 17 28 3e
       0.13512059 -0.02083938 0.18444191 0.16415113
000180 35 4a 3a bc b8 64 8e bd dc a9 da 3d 69 cc ae bb
       -0.011370231 -0.06952804 0.10676929 -0.005334426
000190 6d 0b 98 3c f0 88 bd bc b5 96 9b bd 4b bb 49 be
       0.018560136 -0.023136586 -0.075971045 -0.19700353
0001a0 46 e9 a3 3d 75 c4 db 3d 9d ca 79 bd fa ef 70 be
       0.08003478 0.107308306 -0.060984243 -0.23529044
0001b0 b9 7f 36 3e 76 83 60 bd 5d 20 3f 3e 56 5a aa 3c
       0.1782216 -0.05481287 0.1866469 0.020795029
0001c0 8e 19 3a 3d 3a 62 2d bc c8 e9 0e bd cd 0b 83 3d
       0.045434527 -0.010582501 -0.03489092 0.06398735
0001d0 bc b5 90 be 81 fc f4 bd 81 55 d4 3d 50 3a de 3c
       -0.28263652 -0.11962224 0.10367871 0.027127415
0001e0 98 0e 71 bd 2a 15 7d bc d7 17 d8 bd 66 73 1c 3e
       -0.05885181 -0.01544694 -0.10551422 0.15278396
0001f0 84 4b 8b bd ee b1 b8 bd 1d 91 98 be be da 55 be
       -0.06801513 -0.090183124 -0.29798213 -0.20884225
000200 4b a2 b2 3d f6 10 47 3d be e8 86 bd 96 34 92 3e
       0.08722361 0.04860016 -0.06587361 0.28555745
000210 e9 dc e5 3d c2 70 87 3d 09 ad 3e be 71 7c 11 3d
       0.11223776 0.06613304 -0.18620695 0.035519067
000220 99 3a 76 3c a8 ea ce 3c 91 8a fe 3d fb 5e d4 3d
       0.015028619 0.025258377 0.12428773 0.103696786
000230 2a d9 ac be 0e d2 3a 3e 13 51 f5 3d 0f 28 ad 3d
       -0.33759433 0.18244192 0.11978354 0.08454906
000240 ae 21 cd 3d 19 2e 0d 3e 6e 87 38 bd 01 60 86 3e
       0.100161895 0.13787116 -0.04505103 0.2624512
000250 9e 3e e4 3b 88 ae 13 3e 7b d4 14 be ce e8 af bc
       0.0069654724 0.14422047 -0.1453418 -0.021473315
000260 84 11 fe 3d 9c e2 0c be 23 2e 09 3d 9f af 47 3d
       0.124056846 -0.1375832 0.033491265 0.04875147
000270 45 f7 e5 3c 81 a8 7c be fa 9f 32 3e 32 ca 95 3d
       0.028072009 -0.24673654 0.17443839 0.07313956
000280 83 50 0c be 4b 75 e9 3d 89 b4 09 3d ec a4 18 3e
       -0.13702588 0.11399325 0.033619437 0.14906663
000290 6a dd c3 3d 3f 24 86 3e 56 11 eb 3d 0b 0a 8b 3d
       0.09563716 0.2619953 0.11477916 0.06789025
0002a0 0c ed 5a 3d 00 85 03 3e e9 d4 37 bc ab 28 69 3c
       0.05344872 0.12843704 -0.011220195 0.014230887
0002b0 dc 9e a8 3c 63 29 13 3e 5a 3b cb 3d 92 68 09 3d
       0.020583563 0.14371257 0.0992343 0.03354699
0002c0 ec ba d5 bc 0b fa 34 3e a7 e3 f2 bc f7 6c d4 3d
       -0.026090108 0.17673509 -0.029649569 0.10372346
0002d0 0d 33 bc 3b 12 cf 56 be 34 67 39 be 9b f1 ee bd
       0.0057433904 -0.20977429 -0.18105775 -0.11667176
0002e0 c1 17 75 3d ef 9f 4b 3c 70 17 96 be fa 80 b2 3b
       0.059837107 0.012428268 -0.29314756 0.005447504
0002f0 41 7a 09 be f4 34 2d be b7 02 d4 3e 54 37 f3 bd
       -0.13425542 -0.16914731 0.4140832 -0.118757874
000300 eb 3f 80 be 2e a9 b0 3c c5 11 0d be 30 ff be 3c
       -0.25048766 0.021565046 -0.1377631 0.023315042
000310 ba e2 1c be d7 a8 82 3d 9d f7 3c 3d b5 1f 55 3d
       -0.15320864 0.0637986 0.04613458 0.05203219
000320 bc 9d e0 3d 07 99 12 be c0 c5 26 bd c0 77 00 3d
       0.109675854 -0.14316188 -0.040715933 0.031364202
000330 10 cd 60 be e0 1c f6 3c 64 a4 aa 3d 72 5e d4 bd
       -0.21953225 0.030043066 0.08332136 -0.103695765
000340 17 33 2a bd 2d ab ad be 6e b2 20 3d f9 b6 3c 3e
       -0.04155263 -0.3391966 0.039232664 0.18429174
000350 89 e1 fb bd f9 02 32 3e ce 99 92 3d 68 e9 a1 3a
       -0.12298877 0.17383946 0.07158242 0.0012352886
000360 dd e8 c6 bd 94 d4 0b 3c 2b d0 fe 3d 3f ad 81 bd
       -0.09712384 0.008534569 0.12442049 -0.06331872
000370 c6 be a6 bd 84 c6 80 3d 03 9b df 3c 56 30 64 bd
       -0.08141856 0.06287864 0.027295595 -0.05571016
000380 eb 13 66 3d d9 dd 15 3e 26 73 a0 bd f5 17 93 3d
       0.05617134 0.1463541 -0.07834463 0.07182304
000390 0c 91 f9 bd 29 d2 7e bd dc 43 1b 3e 10 f9 51 bd
       -0.121858686 -0.062212143 0.15162605 -0.051262915
0003a0 7d 2f 33 3e e3 ac f1 bd 67 30 29 bc 0a 31 7a 3e
       0.17498584 -0.11800554 -0.010326481 0.2443277
0003b0 11 b4 9e 3d 76 93 64 be a1 98 31 3e 82 32 38 3d
       0.07749189 -0.22321877 0.1734338 0.044970043
0003c0 02 28 03 be 25 81 0d be bd 15 a7 3d c9 93 e8 be
       -0.1280823 -0.13818796 0.08158443 -0.4542525
0003d0 ce 18 c2 bd 69 52 42 3d b6 95 a7 bd b8 c2 1e 3e
       -0.09477387 0.047441874 -0.08182852 0.15503967
0003e0 4c 1c ca 3d 22 45 78 be f7 4c ff bd 0a 79 b9 3d
       0.098686785 -0.24245122 -0.12465852 0.090562895
0003f0 28 22 83 bd d6 29 da bc 9e b6 c6 3d 3d 63 ff 3b
       -0.06402999 -0.026631277 0.097028 0.0077938125

Y.net.0.bias f4 [100]
000000 c3 94 9c 3c 4d c4 b3 3c fe 27 c3 3c 09 6a 7f bc
       0.019113904 0.02194419 0.02382278 -0.015589246
000010 a2 84 7a bc ee c4 4a bc df c8 46 3c 89 53 b0 bc
       -0.015290411 -0.012376053 0.012132852 -0.021524208
000020 3e 77 a5 3c e5 62 b1 bc be d2 f6 bb ec 05 a0 bc
       0.02019846 -0.021653602 -0.0075324466 -0.019534074
000030 bf c7 78 3c 9e a0 c3 3c c6 9c a0 3c 15 da 5d 3b
       0.015184342 0.0238803 0.019606005 0.003385191
000040 8e 44 42 bc 63 2c a2 3c be 93 97 3c 91 1e ae 3c
       -0.011857165 0.019796556 0.018503066 0.02125481
000050 44 bc b5 3b da 02 d4 b9 18 7b bf 3c e2 66 c3 bc
       0.0055461247 -0.00040437916 0.023374125 -0.02385277
000060 00 62 75 bc 07 8f 82 bc 30 94 62 3c d7 ac c7 bc
       -0.014976978 -0.015937341 0.013829276 -0.024374409
000070 18 b5 bb 3c f9 29 c2 bc 17 0f 7f bc 5c 31 8b bc
       0.0229135 -0.023701655 -0.015567563 -0.01699131
000080 6b 91 90 bc a9 eb c0 3c 25 aa cb bc c3 b1 9d bc
       -0.017647466 0.023549872 -0.024861405 -0.019249802
000090 18 29 a9 3c dc d7 2b 3c f2 e0 ae bc 7d 99 6d bc
       0.020649478 0.010488477 -0.021347497 -0.0145019265
0000a0 cc 86 d0 bc 59 77 c5 bc b1 87 e0 bb b8 bd c2 bc
       -0.025454901 -0.024104761 -0.006852113 -0.023772106
0000b0 f7 f0 ba bc d3 20 b2 bc 8e 17 99 bc cb 3f 8e bc
       -0.02281998 -0.021744167 -0.01868799 -0.017364403
0000c0 25 55 a3 bc e6 b3 86 3c 0b 34 ca 3c cf 79 97 bc
       -0.019938061 0.016443204 0.02468302 -0.0184907
0000d0 20 03 73 bb ea 25 9e 3c ff d4 a4 3c 2a e4 c6 bc
       -0.003708072 0.019305188 0.020121096 -0.024278719
0000e0 56 68 bb bc 65 4d d0 bc 02 91 34 3c ea 97 ad bc
       -0.0228769 -0.02542753 0.011020901 -0.021190602
0000f0 f3 d8 c3 bc 48 12 78 3c 2b d2 c9 3c a6 74 68 bb
       -0.02390716 0.015141077 0.024636349 -0.0035469919
000100 e3 e6 c6 3c 49 a9 c7 3c 6c 57 c2 bc d6 7b 9d bc
       0.024280017 0.024372714 -0.023723327 -0.019224089
000110 c7 af 88 bc d9 8f b1 3c 3c d4 c5 3c 38 f8 99 3c
       -0.01668538 0.021675037 0.024149053 0.018795118
000120 bc c7 ce bc b5 b9 a7 3c af d1 e6 3b 51 7c 89 3c
       -0.025241725 0.020474294 0.007044039 0.016782911
000130 dd b6 33 bc cb 23 3c 3b 19 3e 98 bb c4 41 c8 bc
       -0.010968891 0.0028707858 -0.0046460745 -0.024445422
000140 81 a1 c0 3c ba 79 cb bc aa e2 9c 3c 19 ab cd 3c
       0.023514511 -0.024838317 0.01915105 0.025106
000150 1a 01 a7 bc 8d 25 c8 3c a3 ad c3 3c d9 35 ca bc
       -0.020386267 0.024431968 0.023886507 -0.02468388
000160 34 66 cc 3c fb fe c2 bc 87 94 cb bc 82 ee 81 bc
       0.024951078 -0.023803225 -0.024851097 -0.0158608
000170 7d 20 b5 3c 09 9d cd bc 1b 92 a3 3c eb 8d 90 3c
       0.022110218 -0.025099294 0.01996713 0.017645797
000180 9e 5c 9f 3c f6 d2 b3 3c 11 1b bb bc 9b 93 c4 bc
       0.019453343 0.02195118 -0.022840055 -0.023996165

Y.net.2.weight f4 [100, 100]
000000 57 ac 45 bd c8 41 2e bc 68 01 08 bd b9 60 2b 3d
       -0.04826006 -0.010635801 -0.033204466 0.04184029
000010 e1 a5 1b 3d 2d 70 80 bd 8f fe 54 3d 93 18 0b bd
       0.03799999 -0.06271396 0.05200058 -0.033958983
000020 fe 27 2e be c4 82 d8 bd bd 92 05 3e b1 8e 5f 3d
       -0.17007443 -0.105718166 0.13044257 0.05457944
000030 e8 fc 03 3e 5a 3a d9 3c 18 65 3e bd 98 50 06 3e
       0.12889445 0.026517082 -0.04648313 0.13116682
000040 76 8e a2 bd cb 60 9e bc 4c ec 73 3c 0a 24 5e 3c
       -0.079373285 -0.019333264 0.0148878805 0.013558397
000050 cf 09 81 bc a1 4b 50 3d 65 3b 09 bd b6 83 2f 3c
       -0.015751747 0.050853375 -0.03350391 0.010712555
000060 29 09 0b 3d cf 7f c3 3c 54 fe 40 bd f1 a4 62 bc
       0.033944283 0.023864655 -0.047117546 -0.01383327
000070 55 75 04 be ff 3c dd bd e0 3e 47 bd 9a b0 81 bd
       -0.12935384 -0.1080265 -0.048643947 -0.06332512
000080 8f 0f 75 bd 74 4c 5e be 04 7b 69 bc a1 73 9d bc
       -0.05982929 -0.21708852 -0.014250521 -0.019220175
000090 4a ad 1d be 41 32 e3 3d 55 d6 8a bd 8e 51 3d 3d
       -0.15398136 0.110935695 -0.06779162 0.046220355
0000a0 24 10 2f be e8 7a f6 bd fc f6 b9 3d ca b8 65 bc
       -0.17096001 -0.12035161 0.09080312 -0.014021108
0000b0 ca 74 ae bc b6 63 d0 bc 78 7d b8 bd 43 88 d0 3d
       -0.021295924 -0.02543817 -0.09008306 0.1018224
0000c0 f9 d3 3e be 0e c0 2c bd 61 73 32 3e 75 e4 10 bb
       -0.18635549 -0.042175345 0.17426826 -0.0022108827
0000d0 d6 0d 1b 3d 65 cc b8 bd 20 d6 69 bd 85 c7 e7 bd
       0.03785499 -0.0902336 -0.05708897 -0.11317352
0000e0 83 81 b4 3d b8 d0 25 be 83 e1 1d 3e 60 b3 8a bd
       0.08813765 -0.16192901 0.15418057 -0.06772494
0000f0 ff fd e9 3d 1b 01 c4 3d 31 0a 3a 3e a8 0d 94 3d
       0.11425399 0.09570523 0.1816795 0.07229167
000100 87 25 a6 3d e3 ee 0d bd 3b d2 14 be 50 2c e3 bc
       0.081126265 -0.03465165 -0.14533322 -0.02773109
000110 fd 3e 13 bd b1 d0 d6 3d 4d 0f 92 3b fc 27 fc ba
       -0.035948742 0.104890235 0.0044573904 -0.001923799
000120 66 18 a2 bd a6 9d cc bd 46 d0 51 be 81 f0 35 3d
       -0.0791481 -0.099910066 -0.20489606 0.044418816
000130 fe 6e 0a ba 95 65 82 3d 70 74 48 3d d7 fb 7e bd
       -0.00052808214 0.063670315 0.04893917 -0.062251892
000140 87 f5 24 3e ff 89 c3 bd d5 ef d6 bd 86 38 da 3c
       0.16109286 -0.09547805 -0.10494963 0.02663828
000150 2f 11 f9 bd dd 30 08 3e 45 19 30 be 80 46 2f 3c
       -0.12161481 0.1329989 -0.1719714 0.010697961
000160 00 1f d4 bd d9 bc c6 3d 8d e9 0a be 8d e4 31 3e
       -0.10357475 0.097039886 -0.13565655 0.17372341
000170 f5 d4 2c 3e f1 bb 62 be 07 2f de bc bb 2b 31 3e
       0.16878112 -0.22142006 -0.027122034 0.17301838
000180 16 fe be bc 06 e3 1f 3d 10 7f b0 3d 57 cc b4 bc
       -0.023314517 0.039034866 0.08617985 -0.022070093
000190 28 01 be 3c 85 58 34 3d 2f b4 a9 bd 6c dc ea 3b
       0.02319391 0.04402973 -0.082863204 0.0071673896
0001a0 b9 28 cf bd e9 6a 3c bd 72 17 af bd 75 83 0e 3d
       -0.10115189 -0.046000395 -0.08549394 0.034793336
0001b0 12 f0 89 bc 3f ed e5 bb e9 ea 50 3d 73 8a d9 bc
       -0.016838107 -0.0070168073 0.051005278 -0.026555276
0001c0 91 a2 20 be bf ef da 3d 72 c0 6c bc 0f 5f 89 ba
       -0.15687014 0.10690259 -0.014450179 -0.00104806
0001d0 5a 65 91 bc 7b fd 8a bd 5e ca 28 be 65 fc dd bd
       -0.017748524 -0.06786629 -0.16483447 -0.10839156
0001e0 95 17 cb bd 15 2c fd 3d a8 73 06 3e 16 66 72 bd
       -0.09916607 0.123619236 0.13130057 -0.059179388
0001f0 e3 58 ab 3c fd 15 c9 bb 42 1b d5 3d aa 8a bb 3c
       0.020916408 -0.0061366544 0.1040559 0.022893269
000200 c8 ff 1a be da 23 0b 3d 06 60 5b 3c c2 88 4e 3d
       -0.15136635 0.033969738 0.013389593 0.05042339
000210 cb 64 7b 3b 22 42 33 3e 2b b6 2c be 13 69 1b bc
       0.0038359638 0.17505696 -0.16866367 -0.009485501
000220 bc cb 9e bc c4 1b a3 bd a8 8e a1 bd 59 05 f6 bd
       -0.019384257 -0.0796428 -0.07888538 -0.12012739
000230 85 db e6 bb df 13 6f 3c f6 13 f7 3d 44 1b 47 be
       -0.0070452117 0.01459214 0.12064354 -0.19443995
000240 0f 05 01 3e 89 80 88 bd 04 22 ba bd 42 2c dc bd
       0.12599586 -0.06665141 -0.09088519 -0.10750629
000250 5b 02 83 bd d4 c6 ba 3d 6a a2 d0 bd 32 00 31 bd
       -0.06396934 0.09119955 -0.10187228 -0.043213077
000260 01 2d dd 3c 3e 2b 20 bd be 5f 34 bd 7a 81 fd bd
       0.026998999 -0.03910374 -0.04403662 -0.12378211
000270 f1 e1 b9 3c 9b be e6 3d 48 e5 8a 39 8e 92 41 bd
       0.022690745 0.11266824 0.0002649224 -0.047258906
000280 c0 04 8d bd b8 14 a3 3d 49 43 25 bd 2f fe f2 bd
       -0.068856716 0.07962936 -0.04034737 -0.11864888
000290 31 85 30 bd 45 c8 04 be a9 24 85 3d 57 fe 7f bd
       -0.04309577 -0.12967022 0.06501133 -0.062498417
0002a0 93 83 d8 3d e9 0a 81 be b2 0e 09 be 0b 87 17 3d
       0.10571971 -0.25203636 -0.13384512 0.03699402
0002b0 0b 04 8a bd 9f f2 e3 bc 73 fc 49 bd d0 57 b2 3d
       -0.067390524 -0.027825652 -0.04931302 0.08708155
0002c0 1e 05 55 bd f6 ba 25 bd 66 1b 9d 3d 4e 68 5c bd
       -0.052006833 -0.040461503 0.076712415 -0.05381041
0002d0 2a 3a c7 bb a1 66 ed 3c 20 85 52 bd 5b e9 e1 3d
       -0.0060799317 0.028979601 -0.05139649 0.11030837
0002e0 25 a9 16 3d b8 21 70 3d 0f 22 a0 3d 82 98 12 bd
       0.036782403 0.058625907 0.07818996 -0.035789974
0002f0 bc 8b 7f bd f4 7b bc 3d ea fd 33 bd 1b 3d 0e be
       -0.06238912 0.0920333 -0.043943323 -0.13890497
000300 d3 01 fa 3d 3f 41 67 bd 54 5b aa 3c 48 f3 4b be
       0.12207379 -0.056458708 0.020795502 -0.19917023
000310 39 15 88 be 42 09 4f bd 91 b7 ac 3c bc 72 80 bc
       -0.26578692 -0.05054594 0.021083625 -0.01567971
000320 94 2d 7f bd 85 9d 92 3d 0d 6f 36 bb 73 bc a2 3d
       -0.062299326 0.07158951 -0.0027837188 0.079461
000330 dc 4e 86 bd f5 b5 c5 bd 22 2e 18 be 33 16 8f 3d
       -0.0655801 -0.09653846 -0.14861348 0.06986656
000340 59 3b c0 3d c5 01 10 3c fd c1 60 bc 09 ca a0 ba
       0.0938632 0.008789484 -0.013718125 -0.0012267242
000350 87 c6 79 bd ab 71 f4 bd 07 01 32 3e 54 e2 b1 3b
       -0.060980346 -0.11935743 0.17383204 0.0054285917
000360 4e 60 a4 bd 25 f4 2a be a5 24 31 3e eb 56 f0 bd
       -0.08026181 -0.16694696 0.17299135 -0.11735328
000370 db b2 c7 bd 80 1e e6 bd a5 8f 2a 3d dc f7 42 bd
       -0.09750911 -0.11236286 0.041640896 -0.04759966
000380 50 0b 9d bd 9f fb ab bc 24 46 79 3d aa 2c 23 3d
       -0.07668173 -0.020994006 0.060857907 0.039837517
000390 a1 95 b7 bd 81 6a 7f bc 68 3c 1b be 8d 36 25 bc
       -0.08964086 -0.015589357 -0.15159762 -0.010083807
0003a0 6d ec ef 3d 1e 2d a4 3d ba ce e5 bd 5b 36 ab bd
       0.117150165 0.08016418 -0.112210706 -0.08359977
0003b0 13 db 83 3d 4c 4b 12 be 8c 2e c7 bd 25 07 7a bb
       0.064382695 -0.14286536 -0.09725675 -0.003815123
0003c0 2f fe 99 3d c9 24 4b 3e 9e 6f 71 3c e5 6c 14 be
       0.07519185 0.19838251 0.014736084 -0.14494665
0003d0 7f ac f2 bd a2 9c 49 bd 4d 67 a8 bc 79 95 d7 3d
       -0.11849307 -0.049221642 -0.02055707 0.105265565
0003e0 38 ca 55 3d b5 68 27 3d 00 8e d2 3d 35 c6 d0 3d
       0.052194804 0.04087134 0.102809906 0.10194055
0003f0 ee b7 15 3e da 0b b9 3a f5 33 33 3d 92 1c 9a bd
       0.14620945 0.0014117912 0.043750722 -0.075249806

Y.net.2.bias f4 [100]
000000 80 90 c6 3c fa 36 87 bc 36 b6 c7 3c ba 06 15 3c
       0.024238825 -0.016505707 0.024378877 0.009095842
000010 34 cf e0 bc 15 cc c7 bc e9 6d bc bc c9 55 b4 3c
       -0.027442552 -0.024389306 -0.023001628 0.022013562
000020 03 96 c6 bc 70 42 bc 3c 00 59 6d 3a 36 88 c4 3c
       -0.024241453 0.022980899 0.00090540946 0.023990732
000030 d0 00 d0 bc 66 b3 d8 bc ce 3f 2c bb fe 50 ac 3c
       -0.025391012 -0.026452731 -0.0026283148 0.021034714
000040 73 14 b8 bc 7d 99 cb 3c e5 17 c5 bc 13 29 c8 bc
       -0.022470688 0.024853462 -0.024059245 -0.024433648
000050 d2 53 d9 bc 84 a9 92 bc 24 12 d3 bc 91 96 c7 3c
       -0.026529226 -0.017903097 -0.025765486 0.024363788
000060 41 d6 c6 bc e1 2b c5 bc 75 97 c8 bc 1a b9 c3 3c
       -0.024272086 -0.024068775 -0.024486283 0.023891974
000070 5a 15 d4 3c 9e 99 c8 bc 15 87 9f bc 8e de da bc
       0.025889087 -0.024487313 -0.019473592 -0.02671745
000080 83 95 91 3c 0f c1 c7 3c 33 2b db bc db 71 d0 bc
       0.017771488 0.02438405 -0.026753997 -0.025444916
000090 8c 3d 9c bc 80 fa 5c bc ff 4d d5 3c a9 36 b9 3c
       -0.019072317 -0.013487458 0.026038168 0.022609072
0000a0 b2 c8 c5 bc 3a dc 82 3c 9f b6 2d 3b ea eb 05 bc
       -0.02414355 0.015974153 0.0026506556 -0.008173922
0000b0 f6 c9 ae 3c 93 68 d8 bc 0d 52 b4 3c be 01 b1 3c
       0.021336537 -0.026417052 0.022011781 0.021607276
0000c0 bb 55 ce 3c 11 50 c4 bc 10 54 c8 3c 0d 54 99 bc
       0.025187364 -0.02396396 0.024454147 -0.018716836
0000d0 d6 1a d7 3c ed a9 cb bc 29 15 10 bc 1d 96 cf 3c
       0.026257914 -0.0248613 -0.0087941075 0.025340134
0000e0 60 f1 19 3c 38 54 d9 3c 68 f1 77 3c 92 98 38 3b
       0.009395927 0.026529416 0.015133239 0.002816711
0000f0 12 d8 c1 bc e4 3d cc bc 99 7b e8 3c 15 d4 cc 3c
       -0.0236626 -0.024931855 0.028379248 0.025003472
000100 fe 84 d1 bc 08 53 c3 bc ad 74 cd 3c ad 87 c0 3c
       -0.02557611 -0.023843303 0.02508005 0.023502195
000110 7a 98 db bc 20 b9 d3 3c af af d5 bc 6c bf d1 3c
       -0.026806105 0.02584511 -0.026084749 0.025603972
000120 c7 33 05 bc 00 e7 d0 3c 9a dd bd bc 8b 22 bf bc
       -0.00813002 0.025500774 -0.023176957 -0.023331901
000130 50 98 c5 bc d0 e3 d1 3c 9c d6 d4 3c 27 95 db b9
       -0.02412048 0.025621325 0.02598124 -0.00041882062
000140 95 27 d1 3c 79 ae cd bc 7e 6c c1 bc 8b 37 c6 3c
       0.02553157 -0.02510761 -0.023611303 0.024196407
000150 88 6b d3 3c 34 1d 55 3b ec e3 cf bc 40 1a 92 3c
       0.02580811 0.0032518627 -0.025377236 0.017834783
000160 94 65 3e 3c 73 18 bb 3c 94 8e cc 3c 9c be 6b bc
       0.011620898 0.022838807 0.02497033 -0.014388707
000170 c8 dd c6 bc 23 04 4f bc 5e b1 1d 3c f9 20 1d ba
       -0.024275675 -0.012635264 0.009624807 -0.0005993988
000180 99 8a bb 3c 91 25 d5 3c 23 d4 cc bc d1 b2 bb bc
       0.022893237 0.02601889 -0.025003498 -0.022912415

Y.net.4.weight f4 [404, 100]
000000 55 01 17 3e 7f 22 94 bc ee 9d fd 3c 7f f8 5f be
       0.14746602 -0.018082855 0.030959096 -0.21872137
000010 b6 4e 92 3d 83 d1 3b bc da 12 73 bb 46 ab 90 3d
       0.07143919 -0.011463526 -0.0037090094 0.07063918
000020 7e dd 84 3d f2 50 33 3d 8a 2c 8b bd 34 09 6f bd
       0.06487559 0.043778367 -0.067956045 -0.058358386
000030 b1 2f 82 3e 2e 35 a4 3c b9 13 22 be 13 a2 1d 3e
       0.2542701 0.02004489 -0.15827836 0.15393858
000040 6f be 2b ba b6 f6 0d bc 81 64 d9 bc fb ee c5 bd
       -0.0006551509 -0.0086647775 -0.026537182 -0.096647225
000050 23 42 80 3d 0a 61 8b 3e 89 e1 a7 bd 7a a8 7e be
       0.062626146 0.27222472 -0.08197314 -0.24868956
000060 e7 c1 00 3e 58 98 b3 3d 18 57 3f be 34 c8 30 3d
       0.12573968 0.08769292 -0.18685567 0.04315968
000070 7b b0 e7 bc 7d 48 18 be 15 40 8a 3e ac 74 1d 3d
       -0.028282395 -0.14871402 0.27002016 0.038441345
000080 fb d5 9d 3d 3e 48 87 3d ec 2d 11 3e b9 5a ac 3e
       0.07706829 0.06605576 0.14177674 0.33662966
000090 2d 57 88 3e 42 73 bc bc e9 0a a0 3d 8e 51 72 be
       0.2662901 -0.023004178 0.07814581 -0.23663923
0000a0 f7 be 48 bd 5c 0d 5e bd 55 14 e8 bd c4 ee 3c be
       -0.049010243 -0.05421196 -0.11332003 -0.18450457
0000b0 b4 0b 9a be 8a 2d 80 38 02 ed c4 3c b1 93 11 3d
       -0.30087054 6.111998e-05 0.024038795 0.03554124
0000c0 7a a7 d1 3d a7 81 0b be 9b 71 03 bd 48 9a 18 3d
       0.10237022 -0.13623677 -0.032090764 0.03725651
0000d0 9a 2c 24 3d 2f 30 47 bc c1 4d 85 bd 59 b7 06 be
       0.040081598 -0.012157484 -0.06508971 -0.13155879
0000e0 d3 01 87 3b d3 fe 73 bd 17 0a 8b be 7b 07 d8 3e
       0.0041200905 -0.05956919 -0.27156135 0.42193207
0000f0 d9 0e 3a 3e fa ea c1 3c eb fe e5 bd 63 2a 0c 3e
       0.18169726 0.023671616 -0.11230262 0.13688044
000100 8b d8 51 3d dc 83 93 3e 24 ba 71 3d 87 00 69 3d
       0.051231902 0.28811538 0.05901541 0.05688527
000110 1f f3 39 be 2b bd be 3d 91 7e b3 bd 37 78 c3 3d
       -0.1815915 0.09313425 -0.08764375 0.095444135
000120 d9 2f 8e 3e db 94 10 bd c8 68 12 3d 90 7a ca bc
       0.2777088 -0.03529821 0.03574446 -0.024716645
000130 2e 3f 61 3d 73 fb 67 bc ab a1 14 3e c4 7e 11 bd
       0.054991893 -0.014159071 0.14514796 -0.035521284
000140 3c a1 1b bd 19 0a ce 3d 52 75 22 3c 11 53 9b bd
       -0.037995562 0.1006052 0.009915667 -0.07584203
000150 8b 62 ab 3d 7f 80 8a be 0e 4e 2c be f6 6d e8 3d
       0.08368405 -0.2705116 -0.1682665 0.113490984
000160 94 fd 54 3d fa af d0 3c 09 ee fc b8 5b c0 6e be
       0.051999643 0.025474537 -0.00012060634 -0.23315565
000170 2b 72 fe bd bd 77 0f be 3f c3 15 3d 35 4a e4 3d
       -0.124241196 -0.1401052 0.036563154 0.11146966
000180 28 6e 1c bd 9e 93 01 3e 31 72 7b bc 35 61 cd bd
       -0.03819099 0.12653968 -0.01534705 -0.100283064
000190 77 59 07 3e 46 ca de bd ab 05 58 bd 4d d7 25 be
       0.13217722 -0.10878424 -0.05273978 -0.16195412
0001a0 73 8d 7d 3d 36 63 8a 3d ca 50 da bb 06 c7 e8 bd
       0.061902475 0.06757204 -0.006662463 -0.11366086
0001b0 e0 6f ff 3d 9b 54 bb 3c 6b fc f0 bc 03 31 55 bd
       0.1247251 0.022867491 -0.029417237 -0.052048694
0001c0 ac 62 2d 3e 21 0b 1b 3d 79 c6 8e be 0f 8a 3f 3e
       0.16932172 0.03785241 -0.27885798 0.18705009
0001d0 69 e1 27 be b2 e8 7c 3d 21 78 13 bd 09 98 43 3d
       -0.16394581 0.061745353 -0.036003236 0.047752414
0001e0 47 a9 33 3c a8 61 f0 3e 2b b4 20 be f4 3b b8 bd
       0.010965652 0.46949506 -0.15693729 -0.0899581
0001f0 c3 24 2d 3d 3a 21 6b 3e 63 a1 12 be 3a 7c 8e 3d
       0.042271387 0.22961894 -0.14319377 0.06957288
000200 4b 6c ca 3d 8d af 29 be 4b 19 95 3e f0 77 bd bd
       0.098839365 -0.16570874 0.2912086 -0.09251392
000210 36 a8 d1 bd d9 64 99 bd c8 44 a6 bd 7c 88 82 3e
       -0.10237162 -0.07489938 -0.08118588 0.25494754
000220 61 b1 8f 3e 88 e0 81 bd bf 75 19 3e ae 44 75 be
       0.28065017 -0.06341654 0.14986323 -0.2395198
000230 50 6a 92 bd c2 12 a1 bd 76 a0 de bd c5 1e 15 be
       -0.07149184 -0.07864906 -0.10870449 -0.14562519
000240 a1 2d ac be 36 e2 e5 bd 0e 5f 77 bd 4c 2b 98 3d
       -0.33628562 -0.11224787 -0.060393386 0.07430133
000250 ad 3b 80 3e d6 e1 d0 bd bc b3 57 bc 7c ca 07 3e
       0.2504553 -0.10199325 -0.013165411 0.13260835
000260 11 c6 77 bc b5 b3 16 3d 18 df eb bd de 83 ac bc
       -0.015122906 0.036792476 -0.11517161 -0.021058973
000270 6a ee 90 bd 0e 82 62 bd 57 da 67 be e9 15 a5 3e
       -0.07076724 -0.05529981 -0.22641884 0.3224328
000280 3f e6 15 bc f3 87 0b be 31 29 86 3a 14 b7 a9 bc
       -0.009149133 -0.1362608 0.0010235665 -0.020717181
000290 8b 7a 6c 3d f9 2e 71 3e c6 0b 67 bd bd 60 e1 ba
       0.057734054 0.23553075 -0.056407712 -0.0017194968
0002a0 79 35 b7 bd 90 1b d3 bd 75 5f 02 bc da 68 3a 3e
       -0.08945746 -0.103079915 -0.007957329 0.1820406
0002b0 18 4b 34 3e 2b 2f e5 bd 5b ff 82 bd 6c d4 9c bd
       0.17606771 -0.11190637 -0.063963614 -0.07657704
0002c0 af dd cc bd 49 e5 78 bd 3b e9 1d bd d3 93 af bd
       -0.1000322 -0.06076554 -0.038552504 -0.08573117
0002d0 fb a3 88 3d 41 1f d5 3d 61 f6 1f 3e 76 1d 1c 3d
       0.06671902 0.10406352 0.1562133 0.038114034
0002e0 75 ff fc 3d 48 80 95 be b1 b6 de bd 41 fd e4 bd
       0.12353412 -0.29199433 -0.10874689 -0.11181117
0002f0 29 da 19 3b 57 47 96 bd 91 17 17 3d 95 93 27 be
       0.002347598 -0.07337826 0.03688771 -0.16364892
000300 7d 2c 72 bd 35 f8 10 be de 46 20 3e 80 9e e6 3d
       -0.05912446 -0.14157183 0.15652034 0.112607
000310 af 85 f4 bd ba 28 06 3e 37 d9 be 3c 99 b3 8e bd
       -0.119395606 0.13101473 0.023296935 -0.06967849
000320 b7 72 11 3e 68 10 fa bd 71 84 26 be 50 d6 3f be
       0.14203916 -0.122101605 -0.1626146 -0.18734097
000330 34 5c b9 bd 4a a2 94 3d 26 eb 18 3e c1 ce d7 3b
       -0.090507895 0.07257517 0.14933452 0.0065859263
000340 9e 8c 7f 3c 77 7e 08 3e 44 29 e4 bd a4 5c ca bd
       0.015597491 0.13329493 -0.11140683 -0.09880951
000350 01 7b 47 3e ed 76 d4 bd 9f 38 96 be 65 b8 25 3d
       0.19480516 -0.10374246 -0.29340073 0.040459055
000360 42 23 f1 39 d6 05 8b 3d f7 73 23 3c 37 9a ac bb
       0.0004599337 0.067882225 0.009976379 -0.0052674073
000370 e1 40 9f bd 73 4e be 3e 8b ef a1 bd f3 9c 4b be
       -0.077760465 0.37169227 -0.07907017 -0.1988409
000380 08 85 6b 3d 3a 7d 48 3e 57 7d c9 bd f4 dc 3b bb
       0.057499915 0.1957902 -0.0983836 -0.0028665634
000390 b5 2e 65 3d bb 1a 3b bd 02 36 9c 3e 2e 26 6b bd
       0.055952746 -0.04567979 0.30509955 -0.057409458
0003a0 88 b7 ad 3d 92 e7 43 3d bf 5a 5d bd 99 68 30 3e
       0.084822714 0.047828265 -0.05404162 0.17227401
0003b0 66 f6 b2 3e b3 0c 57 bd 5b ec 5c 3e af 1a 8a be
       0.34953612 -0.052502345 0.21574537 -0.26973483
0003c0 4d 7b b0 bd 59 bf 79 bd fa 8b a1 bd 9c 38 20 be
       -0.08617268 -0.0609735 -0.078880265 -0.15646595
0003d0 35 7e ff bd b9 9b 86 3d 53 3b af 3d ee 34 2d 3c
       -0.12475244 0.065726705 0.08556237 0.010571701
0003e0 a8 30 61 3e 8f c8 e4 bd 47 f8 ea 3d b6 6f 4d 3e
       0.21991217 -0.11171066 0.114731364 0.20062146
0003f0 14 b6 43 bd f4 2b 9c 3d 50 94 07 be 48 f4 25 be
       -0.047781065 0.07625571 -0.1324017 -0.16206467

Y.net.4.bias f4 [404]
000000 1b 29 6d bc 74 79 82 bc cc c1 a6 bc 6e af 8a bc
       -0.014475132 -0.015927054 -0.020356081 -0.016929355
000010 3c e9 8a bc dd 88 92 bc 98 76 ab bc f8 df b6 bc
       -0.016956918 -0.017887527 -0.020930573 -0.022323593
000020 3d da d2 bc cc 83 ba bc d7 72 9a bc 6a d0 be bc
       -0.02573883 -0.022767924 -0.018853588 -0.023292739
000030 be af c1 bc 02 e7 b4 bc 47 49 9f bc e7 fe cf bc
       -0.02364337 -0.02208281 -0.019444121 -0.025390102
000040 35 aa f7 bc 62 d4 e6 bc ea 1e ee bc e2 a5 db bc
       -0.030232528 -0.028177444 -0.029067475 -0.026812498
000050 0b 2e fb bc 09 2b f3 bc d4 f4 02 bd aa cf f8 bc
       -0.030661603 -0.029683607 -0.031971768 -0.03037246
000060 ed 7b 05 bd 87 2e 07 bd 16 3e 0c bd a7 eb 0a bd
       -0.032588888 -0.033003356 -0.034238897 -0.03391614
000070 46 e2 25 bd a0 f0 2a bd b7 c9 22 bd 3f 7a 21 bd
       -0.040498994 -0.041733384 -0.03974315 -0.039423224
000080 58 9e 42 bd b8 a2 3c bd 2f c5 3f bd 7a 6c 34 bd
       -0.04751429 -0.04605362 -0.04681891 -0.044048764
000090 71 1d 2d bd 83 fd 30 bd 93 03 4c bd 7b 0e 46 bd
       -0.042264406 -0.043210518 -0.049808096 -0.048353653
0000a0 d7 9e 3d bd bc 85 4e bd 76 88 51 bd dd be 4d bd
       -0.04629406 -0.050420508 -0.05115553 -0.05023085
0000b0 04 70 47 bd 80 ff 1c bd 37 0e 1f bd a5 70 00 bd
       -0.04869081 -0.0383296 -0.038831916 -0.031357426
0000c0 21 49 fb bc 39 81 06 bd e7 38 19 bd 54 98 27 bd
       -0.030674519 -0.03283808 -0.037407782 -0.040916756
0000d0 db f9 1f bd 27 7c 3b bd 17 43 46 bd b3 cd 49 bd
       -0.03905664 -0.045772698 -0.048403826 -0.049268436
0000e0 7f 61 23 bd 77 f0 06 bd 62 db 15 bd ec 6a 1f bd
       -0.0398879 -0.03294417 -0.036586173 -0.038920328
0000f0 1d f0 f1 bc 5c cb 1a bd a7 e2 14 bd e7 4f ee bc
       -0.02953344 -0.037791595 -0.036348965 -0.029090835
000100 cd 6a 0d bd 39 1a 44 bc ad 93 13 bc 01 41 4d bc
       -0.03452568 -0.011969143 -0.009007377 -0.012527705
000110 da 93 f8 bb 3e 73 45 bc 42 10 9f 37 ca d1 1e bc
       -0.0075859847 -0.012051402 1.8961848e-05 -0.009693572
000120 2c d7 51 3b 0e d0 55 3c 3f 64 27 3c 40 28 11 3c
       0.0032019122 0.013050092 0.010216772 0.008859694
000130 e1 ab c4 3c 03 42 0b 3d b4 4e b7 3c c7 1f 28 3d
       0.02400774 0.0339985 0.022376396 0.04104593
000140 fe 84 1a 3d ce 94 d9 3c 93 4c 29 3d 90 e8 40 3d
       0.037724487 0.026560213 0.041332792 0.04709679
000150 cc 4f 53 3d 29 f5 86 3d ee 14 96 3d 1a c0 84 3d
       0.051589772 0.06589729 0.07328211 0.06481953
000160 a6 40 8a 3d ed ee 47 3d 7c ad 7b 3d 11 15 76 3d
       0.06750612 0.04881184 0.061444744 0.060078684
000170 f0 34 69 3d 32 dd 83 3d cb 9f 5f 3d f8 f4 4f 3d
       0.05693525 0.06438674 0.05459575 0.05077073
000180 f7 a5 39 3d b5 56 60 3d ad 1e 3f 3d 21 8e 4a 3d
       0.045324292 0.05477019 0.046660114 0.04945195
000190 00 f9 6b 3d 39 a3 f0 ba f0 a0 5c 3b a5 ff 09 3c
       0.05761051 -0.0018359191 0.0033665262 0.008422767
0001a0 16 0a 36 3c c7 f7 61 3c 7e ee 9c 3c 53 bc b3 3c
       0.011110803 0.013791985 0.01915669 0.021940386
0001b0 44 2e 6a 3c 80 5e 7a 3c aa 0d 7f 3b ae 01 d6 3b
       0.014293257 0.01528132 0.0038918057 0.006530962
0001c0 b6 47 9d 3c 61 be 0a 3c 24 95 d4 3c f6 c0 25 3c
       0.019199234 0.008468241 0.025950022 0.010116806
0001d0 90 20 7d 3c c3 f0 de 3c 42 bc d3 3c 49 14 e7 3c
       0.015449658 0.027214414 0.025846604 0.028207915
0001e0 f1 85 ef 3c cc 7c 63 3c 21 4a a6 3c b7 d5 be 3c
       0.029238673 0.013884734 0.02029902 0.023295267
0001f0 1b e6 d7 3c 7a 5d 1a 3d 32 5b ee 3c a8 76 1a 3d
       0.02635484 0.037686802 0.02909622 0.037710816
000200 53 dd 19 3d 6e 9c 44 3d e6 e1 3a 3d b8 d7 4e 3d
       0.037564587 0.048000745 0.04562559 0.050498694
000210 ee e0 41 3d 9b d8 77 3d 3a 3b 56 3d c5 88 8c 3d
       0.04733365 0.060509305 0.052302577 0.06862024
000220 ea b7 60 3d e8 e4 65 3d dd 30 4a 3d ab 32 58 3d
       0.054862894 0.056126505 0.049363006 0.052782696
000230 81 06 6e 3d 39 79 7a 3d 4c e6 89 3d 1d 19 67 3d
       0.05811167 0.061150763 0.06733379 0.056420434
000240 6b da 5a 3d 3c 26 6e 3d 77 03 41 3d 20 da 20 3d
       0.053430956 0.058141932 0.047122445 0.03927052
000250 fc 4a ea 3c 28 7d fb 3c 1a 03 10 3d c9 ee 09 3d
       0.028600208 0.030699328 0.035159208 0.03367499
000260 8e 65 1b 3d 29 19 f9 3c a1 f2 4c 3d e4 6d 3f 3d
       0.037938647 0.030407505 0.050036076 0.04673566
000270 01 f7 36 3d 62 8d 25 3d 75 36 2c 3d e3 28 d4 3c
       0.044669155 0.040418036 0.04204412 0.025898403
000280 6d 51 d0 3c d6 12 0f 3d 94 24 42 3d 80 30 f3 3c
       0.025429452 0.034930073 0.047398165 0.029686213
000290 f2 28 f3 3c dd 15 d6 3c 9e 3b c7 3c 79 7f 05 3c
       0.02968261 0.026133472 0.02432042 0.008148068
0002a0 2a ce 4b bb 5a 79 2c ba d4 8e 89 3b cb ee 0a 3c
       -0.0031098225 -0.0006579362 0.0041979346 0.008479784
0002b0 2c a2 f7 bb 10 de 36 bc 53 e8 0d bc a2 cb 87 bc
       -0.007557174 -0.011161342 -0.008661347 -0.016576592
0002c0 9d 9e 56 bc 5c fd bd bc 26 84 78 bc a1 2d bf bc
       -0.01309934 -0.0231921 -0.015168225 -0.023337187
0002d0 08 a7 08 bd 1b 60 fe bc 20 4a e1 bc 2d b1 14 bd
       -0.03336242 -0.031051686 -0.027501166 -0.03630178
0002e0 31 10 d2 bc 10 a4 0f bd 64 00 41 bd 69 d4 31 bd
       -0.025642486 -0.03506857 -0.047119513 -0.04341546
0002f0 6e 09 3e bd c6 8a 4c bd 67 a1 22 bd 5c a0 1d bd
       -0.04639571 -0.049937032 -0.039704707 -0.03848301
000300 e8 0d 09 bd cc 72 2d bd bb 15 0a bd 9c e9 24 bd
       -0.033460528 -0.042345807 -0.03371213 -0.04026185
000310 d0 8d 0c bd 39 8d d3 bc 78 3e ed bc 49 05 26 bd
       -0.03431493 -0.025824176 -0.028960451 -0.040532384
000320 3a 03 de bc 22 af 2e bd 0f f0 9f 3c 3e af 84 3c
       -0.027101148 -0.04264749 0.019523649 0.016196843
000330 f1 dd 9f 3c db 93 ac 3c 04 00 a7 3c 5a 9c ac 3c
       0.01951501 0.021066597 0.02038575 0.021070648
000340 2c ac 96 3c 87 a4 97 3c 62 ae 96 3c c6 a5 b0 3c
       0.018392645 0.01851107 0.0183937 0.021563422
000350 d3 57 ba 3c db 2a ad 3c f5 53 ac 3c 4e cb a1 3c
       0.022746956 0.0211386 0.021036128 0.019750264
000360 40 1a 8f 3c ab b0 97 3c c5 4d a9 3c 50 05 a7 3c
       0.017468572 0.018516859 0.020666966 0.020388275
000370 fe a3 a6 3c 8e 25 a2 3c b4 9f a6 3c 85 30 a7 3c
       0.02034187 0.019793298 0.020339824 0.020408878
000380 2a 4a 9c 3c 84 84 9a 3c ae c7 a4 3c a1 f9 95 3c
       0.019078333 0.018862016 0.020114746 0.018307509
000390 73 b3 ae 3c b7 df a8 3c 62 6f ac 3c 44 b3 a5 3c
       0.021325802 0.020614488 0.021049205 0.020227082
0003a0 aa 6e b0 3c 26 0a a9 3c 1c cd a1 3c 6a 4b a0 3c
       0.021537144 0.020634722 0.019751124 0.01956721
0003b0 fc 59 98 3c 97 e8 97 3c 84 df ae 3c 81 de a9 3c
       0.018597595 0.018543525 0.021346815 0.020735981
0003c0 fa 8c 98 3c 2f 92 a4 3c 74 5f a5 3c 62 4f a9 3c
       0.01862191 0.020089237 0.020187117 0.020667735
0003d0 b2 70 b6 3c f2 c2 ae 3c 18 a3 a3 3c 9f d2 b7 3c
       0.022270534 0.021333192 0.01997523 0.0224393
0003e0 47 50 ac 3c 12 50 ab 3c d7 4e b8 3c c3 67 9d 3c
       0.021034373 0.020912204 0.022498531 0.019214517
0003f0 f7 3a bf 3c 35 9b b1 3c 8f 28 ae 3c e4 dd b3 3c
       0.023343546 0.021680454 0.021259574 0.021956392

Z.net.0.weight f4 [20, 4]
000000 ee e1 a7 3c db b3 cd 3c 47 fa 15 3e e5 f4 2e 3d
       0.020493474 0.025110176 0.14646254 0.04271402
000010 15 5f ad 3c d0 d4 e8 3e 37 1b 04 be a8 29 32 3e
       0.021163503 0.45474863 -0.12901007 0.17398703
000020 be 33 e7 bd f7 ea cf bd da ea 5c be 11 83 4a 3e
       -0.11289166 -0.10152238 -0.21573964 0.1977656
000030 a3 80 bd 3e b9 ab 5c bd 33 4d 97 3e 35 d4 6d be
       0.37012205 -0.053874705 0.29551086 -0.23225482
000040 87 08 b3 bd 5b 4f 1a be a6 6b 29 3e 29 42 4f be
       -0.08741861 -0.15069334 0.16544971 -0.20240082
000050 23 d7 ed 3d ef 80 3e be fd 8d 90 bc bc 0a ac 3e
       0.116133 -0.18603872 -0.01764583 0.3360194
000060 3c 2a 96 3d 07 ae 4a be 1a fd 70 bc e2 94 9f bd
       0.07332274 -0.19792949 -0.014708782 -0.07792069
000070 8d c9 be bc 52 27 30 3d 2d 27 bf 3d b8 62 a6 3e
       -0.023289466 0.04300625 0.09333644 0.3249719
000080 d8 65 7f 3d 1e 2d 0a 3e c2 22 b7 3d b4 64 66 be
       0.062352985 0.13493773 0.089421764 -0.22499353
000090 cf fb 98 3e 8b 5f b7 bd 33 7e c6 3e 41 c0 7b bd
       0.29879615 -0.0895377 0.38768157 -0.061462644
0000a0 cc 36 77 3d e9 93 1c 3e 2c d2 be 3e ca 6f c7 3e
       0.060354993 0.15290798 0.37269723 0.38952476
0000b0 12 f2 97 bd 91 f4 db bd 80 e4 19 3e 47 bc 0e 3f
       -0.07419218 -0.10740007 0.15028572 0.5575604
0000c0 ba 68 b0 3d e1 d1 47 bc 51 44 70 3e 0b f7 19 3e
       0.08613725 -0.012196035 0.2346356 0.15035646
0000d0 bd 67 a0 bc 8e 07 63 3e 1d 2a 4b 3d 2f a0 21 be
       -0.019580716 0.2217085 0.04960071 -0.15783761
0000e0 b1 86 a1 bd 02 2c 2b be 85 1e ad bc 7c c0 ee 3e
       -0.078870185 -0.16716006 -0.021132717 0.4663123
0000f0 75 c6 08 bd bc 35 ef bd 3a 83 46 be fe db 88 bd
       -0.03339239 -0.11680171 -0.19385996 -0.06682585
000100 75 2b 8b 3d f4 16 1a 3c 5c 77 a9 bd 7f ca 9b 3e
       0.06795398 0.0094048865 -0.08274719 0.3042793
000110 71 8c a9 be 87 38 4d bd 4f 5b 29 bf fa 6d 32 3f
       -0.3311496 -0.050102737 -0.6615495 0.6969906
000120 08 81 8f 3e 84 98 3f be 45 3a 9d 3e 61 d4 23 bf
       0.2802813 -0.18710524 0.3070852 -0.6399594
000130 a4 9d db bd 06 a1 53 be b5 18 2a bf 62 c0 fc bc
       -0.10723427 -0.20666894 -0.6644395 -0.030853454

Z.net.0.bias f4 [20]
000000 01 18 58 be 5c c4 df bd 6e 1b 0b 3f 2a 6d dd 3d
       -0.21102907 -0.109261245 0.5433873 0.10811837
000010 af 29 b9 bd da ef f3 bd dd 6a 6a be 9e ba bc bd
       -0.09041154 -0.119109824 -0.22892328 -0.09215282
000020 88 48 83 be d8 13 1f 3c f2 ce 9a 3e 73 85 1f bd
       -0.25641274 0.009709321 0.30236012 -0.038945626
000030 68 2e 30 3e e1 26 90 3e 6e 53 02 be cb 53 a9 3d
       0.17205203 0.28154662 -0.12727138 0.08267935
000040 a5 86 b2 3d 38 16 d3 bd f9 cc c8 3d 9d 1a 9b 3d
       0.08717088 -0.10306972 0.098047204 0.075734355

Z.net.2.weight f4 [101, 20]
000000 30 01 97 be 8d fb 83 be 91 e1 c5 3d 7e 8d 1a 3d
       -0.29493093 -0.25777856 0.09662164 0.037732594
000010 95 3a e4 bd ec 44 29 be c2 e7 01 be 11 06 11 be
       -0.11143986 -0.16530198 -0.12686065 -0.1416247
000020 90 cd 9f 3c 3d 05 0c be a6 92 cb 3e ef 27 1f 3d
       0.0195072 -0.13673873 0.3976032 0.038856443
000030 35 bd 0e 3e a2 79 48 3d 6c 2f ea bd f3 50 ec bd
       0.13939364 0.048944123 -0.11434826 -0.11538877
000040 2b d6 79 3e 6d 59 0d be 17 1f f1 bc 63 10 85 3e
       0.24398105 -0.13803644 -0.02943377 0.25989065
000050 7b f6 2b be 35 ac 38 be 27 71 84 3e 5e 3f 95 3d
       -0.16793244 -0.18034442 0.25867578 0.07287477
000060 d9 36 29 be 54 fb 1b 3e 4d bb e9 bd 47 e7 0c be
       -0.16524829 0.15232593 -0.11412678 -0.137601
000070 58 8c 9c be 5c bc cc bd 53 61 2c 3e 78 9b f9 bd
       -0.30575824 -0.09996864 0.16834001 -0.121878564
000080 64 51 e6 bc 23 9c 81 3e e6 7b e2 bd 63 27 b1 bd
       -0.028114982 0.25314435 -0.11058788 -0.086500905
000090 ba ec d3 bc f8 1f 92 3c 35 6d c1 bb 8b 95 cf bd
       -0.025869716 0.01783751 -0.005902911 -0.10135945
0000a0 03 67 80 be 1f 1a 24 3d 27 d2 bc 3e 7b a6 ed 3d
       -0.25078592 0.040063974 0.36879084 0.11604019
0000b0 b5 4b 17 3a ee d3 44 3d 1a 6e f3 bc e3 d8 1e bd
       0.0005771474 0.048053674 -0.029715586 -0.038781058
0000c0 2f 68 30 be e0 de 03 be 4f d5 d6 3d 0d 94 5b 3d
       -0.17227243 -0.12877989 0.10489904 0.05360799
0000d0 f7 00 c3 3c 17 0c 82 3e b0 73 f6 3d e1 bc d3 bd
       0.023804171 0.2539985 0.120337844 -0.1033876
0000e0 1e bf 3e bd 14 2d 7f be dd 14 8c bd 16 ac db 3d
       -0.046568982 -0.2491954 -0.06839917 0.10726182
0000f0 93 5a b3 be dc 5a 7f 3d 49 a4 48 3e 3c 54 58 3e
       -0.3503004 0.06234251 0.1959392 0.21125883
000100 90 77 a0 3d c7 2b 82 be f0 b6 0b be 23 73 75 bd
       0.07835305 -0.25424024 -0.13644004 -0.059924256
000110 57 67 82 bd ed 9b ab 3c cb 83 4d 3e 79 45 80 3e
       -0.06367367 0.020948375 0.20069806 0.25053003
000120 6f f1 d4 3d 09 73 47 3e 89 a1 11 3e 5e 72 fa 3d
       0.10397612 0.19477476 0.14221777 0.12228845
000130 7b 03 8c bd 9c 0b 82 bc 93 b5 16 3e b0 19 73 3e
       -0.06836601 -0.015874676 0.14717703 0.23740268
000140 20 21 9f bd e5 91 90 bd 14 0d 95 3e db 31 5a bd
       -0.0776999 -0.07059077 0.2911154 -0.053270202
000150 88 66 52 3a 46 79 54 3d 90 8d e3 bd 2c 77 48 be
       0.00080261426 0.051873468 -0.11110985 -0.1957671
000160 da e7 92 be 18 84 a2 bd 12 ec 5c 3e ed b8 5a bd
       -0.28692514 -0.07935351 0.21574429 -0.053399015
000170 65 d0 7d 3a a7 32 8e 3d c7 82 2e be 12 23 8f 3d
       0.0009682237 0.06943255 -0.17042075 0.06989111
000180 3b 24 26 3e fc 73 06 be 7a e9 d1 bc 33 a2 0e bd
       0.16224758 -0.13130182 -0.025624026 -0.034822654
000190 23 3b b5 bd 8c 88 7f bd ef 26 e3 3e 11 ee ee 3d
       -0.0884917 -0.06238608 0.4436564 0.11666501
0001a0 d6 20 77 3c dd 8c 0a 3e 34 f5 22 be 56 66 aa bb
       0.015083512 0.13530298 -0.1591385 -0.0052001877
0001b0 0e 31 76 be 7e 37 6c be 67 2f a1 3c 64 9d d2 bd
       -0.2404215 -0.23068044 0.019675924 -0.10283926
0001c0 25 7a 10 be a8 f8 b0 3d 3e 7d d6 bd d7 e3 02 bd
       -0.14109094 0.086411774 -0.10473107 -0.031955566
0001d0 1c 15 bd 3e 6c 5c 3d be 5b 7d af bc e6 21 04 be
       0.36930168 -0.18492287 -0.021422079 -0.12903556
0001e0 a2 8b 2b be 18 38 97 bd a7 6c b3 3e 71 70 d7 3d
       -0.16752484 -0.07383746 0.35043833 0.10519493
0001f0 6f 5f ec bc a2 4d 5e be a5 d1 4d bc 29 65 23 be
       -0.0288541 -0.21709302 -0.01256219 -0.15956558
000200 3d 04 65 be b2 11 f7 3c 57 bc 02 3e c3 da fe 3d
       -0.22364898 0.030159805 0.12767158 0.12444069
000210 7a 4f 93 3d 4a 65 2c 3e 7a 01 04 be 5f 2d 73 bd
       0.07192893 0.16835514 -0.12891188 -0.05936944
000220 a3 16 80 3d 74 09 c3 3d a0 84 eb 3d fd 88 e5 bc
       0.062543176 0.095232874 0.114999056 -0.028019423
000230 6b 23 b4 be 38 8c 6b bc 24 13 e1 3d 90 e7 33 3e
       -0.35183272 -0.0143766925 0.10989979 0.17568803
000240 5c c3 b3 3d 8d 27 18 be f7 38 dd ba 17 42 af be
       0.08777496 -0.14858837 -0.0016877939 -0.3423011
000250 0d 98 be be 50 d5 42 3d 64 fe 84 3e 4b 77 04 3e
       -0.3722538 0.047566712 0.25975335 0.12936132
000260 e8 3c 89 bb d6 b5 6f 3e 57 de 2e be ff aa f1 3c
       -0.004188169 0.23409209 -0.17077003 0.029500483
000270 3d cd 3c 3c ad cf 1d 3e 53 c5 75 3d 91 1d 4a bc
       0.011523542 0.15411253 0.060002636 -0.012336151
000280 9b 94 60 be fc 7d 00 be 91 c8 9e 3e 7e f9 7a 3d
       -0.21931688 -0.12548059 0.31012395 0.06127309
000290 59 d5 26 be b2 b7 3a 3c 80 62 19 be fc 3f db bc
       -0.16292323 0.011396335 -0.14978981 -0.026763909
0002a0 fc 58 4f be ee 0f ab bd 58 bb 3d 3e d5 42 46 3e
       -0.20248789 -0.08352648 0.18528497 0.19361432
0002b0 4d f0 d7 bd e6 d3 47 3e 52 31 92 be 4d 9d 2d 3e
       -0.105438806 0.19514427 -0.28553253 0.16954537
0002c0 96 db b2 3d 12 eb f3 bd 2e af 0c 3d 10 c3 97 39
       0.08733289 -0.119100705 0.034346752 0.00028946297
0002d0 f2 48 52 bd 72 7e a0 bd 89 db 9c 3e 38 ef 84 bd
       -0.051339097 -0.078366175 0.30636242 -0.0649094
0002e0 47 28 86 bd 29 de 9a bd 73 bf f2 bd d6 6c 27 3c
       -0.06550651 -0.07561905 -0.11852922 0.01021882
0002f0 f5 bb 43 be 8e 1b 06 bd 3e 74 52 3e 36 63 5f be
       -0.19114669 -0.032741122 0.20552155 -0.2181519
000300 a7 a9 7a 3e f1 0f 2a 3e 92 56 27 3c 96 32 88 3d
       0.2447878 0.16607644 0.010213511 0.066502735
000310 3f cf 9c 3d 3c 0c 13 bd 8d 24 d1 3d 9a 60 5f 3d
       0.076567166 -0.03590034 0.1021205 0.054535486
000320 1e 73 04 be 4e b4 89 be f0 f8 49 3e d8 92 07 3e
       -0.12934539 -0.26895374 0.19723868 0.1323961
000330 a7 07 08 be ad 26 99 bd 78 e1 0d be f0 b8 41 be
       -0.13284169 -0.0747808 -0.13855541 -0.18918204
000340 3c d2 30 be 89 ab d8 bd bf 11 2a 3e a3 ed bf 3c
       -0.17267698 -0.10579593 0.16608332 0.023428744
000350 ba 7b 99 be eb ac 32 3e 9a e0 37 bd 44 e5 a5 bd
       -0.29977208 0.17448775 -0.04489193 -0.081003696
000360 94 b6 84 3e 94 39 82 3d 29 56 a3 3d f7 56 08 be
       0.25920546 0.063586384 0.07975418 -0.13314424
000370 f9 8b 20 3d 9c 3b dd bd d1 67 dd 3e 1c a9 36 3d
       0.03919599 -0.10802385 0.43243268 0.04459487
000380 1c 05 ab bd d5 26 6a bd 40 67 ec 3c d6 d6 3a bc
       -0.08350584 -0.05716594 0.028857827 -0.01140376
000390 04 23 92 be a2 a7 15 bd f4 60 85 3d 2f bf 96 bd
       -0.2854234 -0.03653682 0.06512633 -0.07360684
0003a0 d5 c4 75 3c 26 8a a2 3e 08 79 d2 bd e2 fc d7 3d
       0.015000542 0.31746024 -0.10276991 0.105462804
0003b0 e5 01 63 3e 58 eb 02 be 39 0d 29 bd b8 4a 81 bd
       0.22168691 -0.12785089 -0.041272376 -0.063130796
0003c0 75 33 5d be 4e fb a9 3d 64 a9 a2 3e d8 07 b4 bd
       -0.2160166 0.08299886 0.3176986 -0.087905586
0003d0 21 52 71 3e 03 25 9c 3b 3a 18 1d 3d 23 cd 4a be
       0.23566486 0.0047651543 0.038353182 -0.19804816
0003e0 c0 77 0e be 30 dd 13 3e c6 3a ef 3e 1e 8e a2 3d
       -0.13912868 0.14439845 0.46724528 0.07937263
0003f0 ec d2 21 3d 9d aa a8 3d 73 b1 8c be 7f 3e 6a 3e
       0.03950779 0.08235667 -0.27479133 0.22875403

Z.net.2.bias f4 [101]
000000 4a 4e 28 3e d5 fb 22 3e 21 5e 32 3e 89 db 29 3e
       0.16436115 0.15916379 0.1741872 0.16587652
000010 38 47 22 3e b3 33 2c 3e 9a 18 fa 3d 02 16 0d 3e
       0.1584748 0.16816597 0.122117236 0.13777927
000020 ad 56 aa 3d 2b 0e 01 3e 44 b4 6d 3e 49 9b c7 3d
       0.08317313 0.12603061 0.23213297 0.09746415
000030 fd 9f e8 3d 1c 73 d9 3d 5c 9b 8c 3d d6 fd 9d 3d
       0.1135864 0.106176585 0.0686557 0.07714431
000040 bc 43 c8 3d f1 33 b0 3d 5b 63 b9 3d d7 9f ae 3d
       0.09778544 0.08603657 0.09052154 0.08526581
000050 df fc c2 3d 83 b6 88 3d 89 db 8f 3d 24 5f 6b 3d
       0.095208876 0.06675436 0.07024295 0.05746378
000060 e2 e8 c5 3d 78 1b 54 3d 9a 5b 8b 3d 92 6a b6 3d
       0.096635595 0.05178401 0.06804581 0.089070454
000070 ce e2 84 3d f1 3c 6c 3d f8 67 79 3d 64 c7 87 3d
       0.06488572 0.057675306 0.060890168 0.066298276
000080 2c 70 6c 3d 86 7e 3f 3d 24 08 58 3d 4c 46 81 3d
       0.057724163 0.04675152 0.05274214 0.06312236
000090 52 0c 60 3d cf e4 70 3d c3 c3 3f 3d 3b 76 93 3d
       0.05469925 0.05881196 0.046817552 0.07200285
0000a0 ea 6d 80 3d 12 56 7a 3d aa 73 b4 3d 72 a8 74 3d
       0.062709644 0.06111724 0.08811124 0.059730954
0000b0 a5 0f 6a 3d 51 70 7b 3d 6e e2 87 3d 2d a0 61 3d
       0.057143826 0.06138641 0.06634985 0.055084396
0000c0 cd 0c 8d 3d 7e 31 66 3d cd 84 a9 3d 19 84 53 3d
       0.06887207 0.056199543 0.08277283 0.05163965
0000d0 fc 52 7b 3d bf d0 5c 3d 13 63 a3 3d c0 18 90 3d
       0.061358437 0.053910013 0.07977881 0.07035971
0000e0 9d 4d 8c 3d a5 26 93 3d 42 1e 81 3d 8f e1 77 3d
       0.06850741 0.07185105 0.06304599 0.060517844
0000f0 28 eb 69 3d 91 0f 9c 3d e2 05 7f 3d 07 d3 84 3d
       0.057109028 0.076201566 0.06226147 0.06485563
000100 23 ce c7 3d 4f 4e 01 3e fc 94 b6 3d ab 4f 7e 3d
       0.09756114 0.12627529 0.08915135 0.062087696
000110 c7 ea 09 3e 11 1c ca 3d 7b 27 92 3d 37 64 c5 3d
       0.13468467 0.098686345 0.071364366 0.09638255
000120 1b 12 b0 3d 30 b2 04 3e 42 2d c3 3d cd 43 b4 3d
       0.08597203 0.12958598 0.095301166 0.088019945
000130 dd c8 14 3e 05 d3 fa 3d 6c 31 18 3e 86 33 01 3e
       0.14529748 0.1224728 0.14862603 0.12617311
000140 d9 3b 0a 3e da 7a 0a 3e 7a 1d fc 3d 80 48 e9 3d
       0.13499393 0.13523427 0.1231031 0.113907814
000150 e2 4c 4c 3e 7c 9f 0e 3e f9 34 24 3e 7b 00 29 3e
       0.19951203 0.13928026 0.16035832 0.1650409
000160 d1 11 1f 3e 9c f4 42 3e b1 00 1e 3e d2 b4 4c 3e
       0.1553414 0.19038624 0.15429951 0.19990852
000170 25 ba 25 3e 00 fd 49 3e 29 29 41 3e 0b 2b 36 3e
       0.1618429 0.19725418 0.18863358 0.17789857
000180 68 6b 10 3e 93 9a e3 3d 8e c9 c0 3d 7b 5b 9b 3d
       0.14103472 0.11113467 0.094134435 0.07585808
000190 79 b4 a0 3d
       0.078469224
