src/logs/Backward-Euler/model.pth (torch_old, 294267 bytes, 57 tensors)

Y.net.0.0.weight f4 [100, 4]
000000 d7 7c 92 3e a6 48 94 be e3 ab f6 3d 2b 8e 0a 3d
       0.2861087 -0.28961676 0.120445035 0.03382699
000010 ec 58 14 be d5 bd c0 be cd 12 d4 bd 49 af 39 bb
       -0.14487046 -0.3764483 -0.103551485 -0.0028333238
000020 de 16 45 bd 77 6b ab 3e 94 3e 50 3c 1a 64 37 be
       -0.04811751 0.33480427 0.012710232 -0.1790928
000030 25 cd 34 be 79 00 83 3d 82 1c d0 bd 33 a4 d2 3d
       -0.17656381 0.063965745 -0.101616874 0.10285225
000040 c7 29 db 3d 47 2a 3c 3e 90 c9 bb 3d de 30 81 3d
       0.10701328 0.18375503 0.09169304 0.06308149
000050 07 10 56 3e 49 26 7f be 3f c0 16 bd 73 a8 1f 3d
       0.20904551 -0.24916948 -0.036804434 0.038979005
000060 af 66 0a 3d 56 de 20 3d e3 19 81 3d 99 b3 56 3d
       0.033789333 0.039274536 0.063037656 0.05241737
000070 c8 66 3d be e4 1e a6 3d 7c 07 81 3e e5 77 ca 3d
       -0.18496239 0.08111361 0.25201023 0.09886149
000080 d4 34 2e be 05 19 95 be 39 d4 2a be 9c c0 d1 3d
       -0.1701234 -0.2912065 -0.16682519 0.102418154
000090 04 da 2a be fd aa b4 3b 83 d2 09 3c f8 de e2 bd
       -0.16684729 0.0055135475 0.008412006 -0.11077684
0000a0 c1 c9 47 3d 9a 5d fb 3d 8d d4 94 3d da 77 62 be
       0.048776392 0.122737125 0.07267103 -0.22116032
0000b0 1a ca 90 bd 8a 7c 95 bd da 87 75 bd be 65 f4 3d
       -0.07069798 -0.072991446 -0.05994401 0.11933468
0000c0 b0 81 a6 bd de e7 32 3d 7d 5e 38 3d 5e 02 94 3e
       -0.08130205 0.043678157 0.045011986 0.28908056
0000d0 a7 2a 83 bc 3d b7 cb bd 00 36 4b 3e ef 15 c8 bd
       -0.01601155 -0.09947059 0.19844818 -0.097698085
0000e0 87 6b 05 be e1 d7 00 3b 44 a2 84 3b 50 dd 94 3b
       -0.130293 0.0019659924 0.004047664 0.004542984
0000f0 41 14 e7 bc 9d 25 ca 3c c5 2c 87 3d 68 2d 6c be
       -0.0282079 0.024676139 0.06600336 -0.23064196
000100 dd f3 97 bd 14 eb 45 3e ba 82 6d bd e6 50 93 3e
       -0.0741956 0.19327956 -0.057986 0.28772658
000110 55 fe a7 3e 0e ca 41 3d 01 84 34 3e 88 95 98 be
       0.32811227 0.047311835 0.1762848 -0.29801583
000120 3f 79 1b 3d ef 52 b7 bd 82 2b c1 3c d7 4c 62 bd
       0.037957426 -0.08951365 0.023580316 -0.05524906
000130 2f a3 ff bd e7 57 bc bd 93 ef 0a bd b0 59 f2 3d
       -0.12482297 -0.091964535 -0.033919882 0.11833513
000140 19 39 2e 3e 57 41 44 be 10 74 10 bd cb 6f d4 3d
       0.17013969 -0.1916555 -0.035266936 0.10372885
000150 18 9b d5 3d 83 f4 ab 3d c6 1d f5 bc 9b 7b 42 3b
       0.104299724 0.08396246 -0.029921424 0.0029675725
000160 74 cc b9 3d 31 e3 05 3e 2b 9d 01 3e 79 e2 7c bd
       0.090721995 0.13074948 0.12657611 -0.06173942
000170 fa 61 1f bd d4 b1 c2 3d 47 35 e7 bc c6 79 a8 3c
       -0.038911797 0.09506574 -0.028223647 0.020565879
000180 aa d5 06 be d7 e4 26 be d2 3f ab 3b c7 a1 26 bd
       -0.13167444 -0.16298233 0.005226114 -0.040681627
000190 87 99 9f 3c 38 a6 5d 3e 71 a2 8e be f8 3a c4 3b
       0.019482387 0.21645439 -0.27858308 0.005988475
0001a0 7e 19 6a bb 35 35 ae bc 1f 87 f9 bd 21 57 14 3c
       -0.003572076 -0.021265605 -0.121839754 0.009053976
0001b0 92 8b 8d bc 66 5f c3 bd f6 b1 a0 3c d0 17 be 3c
       -0.017278466 -0.0953968 0.019616108 0.023204714
0001c0 14 53 63 3d 4f 59 e6 3d 7d 82 dd bd 3b fc f4 3d
       0.05549915 0.11247503 -0.10815904 0.11962172
0001d0 7a 1c 1b 3e c2 93 94 bd 01 a3 49 bd 98 1e b1 3b
       0.15147582 -0.07254745 -0.04922772 0.0054052584
0001e0 eb 4d c0 bb 7f e5 ef bc 2f 65 da bd 21 b9 91 3d
       -0.0058686635 -0.029284237 -0.106638305 0.07115389
0001f0 8a 22 23 3d 4a b9 34 3e d5 df 53 3c c0 e1 3a 3e
       0.03982786 0.17648807 0.012931784 0.1825018
000200 10 05 a9 bd ed ec 22 be b6 22 f2 bd 45 f0 44 3d
       -0.08252919 -0.15910693 -0.11823027 0.0480807
000210 b8 29 b3 ba a0 30 84 3a 08 eb c0 bb 8e fa e8 39
       -0.0013669049 0.0010085292 -0.005887393 0.00044437166
000220 35 00 01 be ba 2d ad 3e ff fe aa bd d3 b6 6f bd
       -0.12597735 0.3382395 -0.08349418 -0.058523964
000230 96 46 3a 3d 28 28 6a be 78 3f 05 be d6 ce 71 3c
       0.045477472 -0.22866881 -0.13012493 0.014758786
000240 e2 9f 98 bd dc 00 8c 3e 71 36 92 3d f5 dc 3b be
       -0.0745237 0.27344406 0.0713929 -0.18346007
000250 50 9a 21 bd 3e 07 1b 3e 4d 5d 72 bd 11 bf 74 3d
       -0.039453804 0.15139481 -0.05917101 0.059752528
000260 42 28 d8 3d 42 cb a4 3e ba fe 2b 3e 54 d9 2c bd
       0.105545536 0.32186323 0.16796389 -0.042199448
000270 46 18 bc 3c bb b8 d9 3c 72 47 4b 3b 68 58 83 3b
       0.022960793 0.026577344 0.0031017927 0.0040083416
000280 70 6b fd 3d cc 9a 5a 3e 8f a0 02 bd eb 2b 19 3e
       0.12374008 0.21348113 -0.0318914 0.1495816
000290 9c 72 64 bb ca a0 4d be 0a c4 4a 3e 67 f8 10 3d
       -0.0034858352 -0.20080867 0.19801345 0.035393145
0002a0 31 99 ea 3b 8e 9d 18 be 72 15 73 3d 1a 83 7e 3e
       0.007159375 -0.14903852 0.059346624 0.24854699
0002b0 3a 2b e4 3c 8e 9b ab 3d 10 08 11 3d 1b 6e 6d be
       0.027852643 0.08379279 0.03540808 -0.23186533
0002c0 a6 43 74 be 0e 24 ce 3d de 77 6f bd 98 d5 a8 bd
       -0.23853931 0.10065471 -0.058463924 -0.08243865
0002d0 e9 68 6c 3d 05 fb 62 3d f9 d8 01 3e 9a a3 5c 3c
       0.057717238 0.055415172 0.12680425 0.01346674
0002e0 5b dc 8c be 10 ab 56 be 9b 63 19 3e 83 4b d0 bd
       -0.27511868 -0.20963693 0.14979403 -0.10170653
0002f0 86 c5 19 3e 3e 1c 1b 3e 97 ce bc 3d 57 ba 42 3d
       0.15016755 0.15147492 0.092190914 0.04754099
000300 e0 63 b0 bc 2c f5 ec 3d c7 bb 94 3e 50 7a 1d 3e
       -0.021532 0.115702 0.29049513 0.1537869
000310 d0 59 64 be d1 c3 0b 3e bc 76 83 3e cd d6 47 3d
       -0.22299886 0.13648917 0.25676525 0.048788834
000320 b9 12 b3 bc 66 61 50 3e d9 0d 5f be c4 c5 15 be
       -0.021859514 0.20349655 -0.21782626 -0.14626223
000330 a1 e7 2f bb 34 67 f2 ba e5 9d ce ba de 2f 2d 3c
       -0.0026840942 -0.0018493892 -0.0015763609 0.010570494
000340 1e 14 ad be 3a 42 65 bc 1d d3 3b 3d 95 2b b3 3d
       -0.3380441 -0.01399284 0.04585563 0.08748547
000350 19 3e 66 bd 4c 10 21 3e f8 4a d5 bd 16 72 de 3d
       -0.056211565 0.15728873 -0.1041469 0.10861604
000360 10 84 d7 bc 4a bf cc 3d 84 06 b0 3c 4d 51 31 be
       -0.02630809 0.09997423 0.021487482 -0.1731617
000370 4a f6 16 be 9a af 3e 3d 18 0e c4 3d c6 cf bb 3d
       -0.1474239 0.046554185 0.09573001 0.09170489
000380 51 90 5b 3d 51 c7 82 bd 8e df e0 3c 12 b4 d7 3d
       0.053604428 -0.06385673 0.02745035 0.105323926
000390 82 f3 de 3d f6 1d 3d 3d bf 43 3a 3d 98 99 12 be
       0.10886289 0.04617115 0.045474764 -0.14316404
0003a0 62 6d b5 3b ec a4 9b be f3 10 04 be e4 06 3f 3e
       0.005536721 -0.30399263 -0.1289709 0.18654972
0003b0 ea 93 18 3d 1d 76 ae 3e 30 3d 8f bc 48 fd 1a 3d
       0.037250437 0.34074488 -0.017485231 0.037839204
0003c0 3c 34 a0 bd 8d 0f a0 bc 87 cb 24 bd 89 a4 a1 3d
       -0.07822463 -0.019538665 -0.04023316 0.07892711
0003d0 c9 6b 1d 3d 24 1a 94 3c 76 fb 85 bc 83 6c f2 bb
       0.03843287 0.018078871 -0.016355257 -0.0073981895
0003e0 5f e7 b2 bb ac 55 94 bb 51 2e 13 bd 41 dc 66 bb
       -0.0054597105 -0.0045268144 -0.035932843 -0.0035226496
0003f0 b8 9f 08 3e a1 ed ed bd 0b a6 83 3e da 50 3c 3e
       0.13342178 -0.1161759 0.25712618 0.18390217

Y.net.0.0.bias f4 [100]
000000 29 e1 b9 3c 4c 3f bc 3d 76 38 b6 3e 1a a4 8a 3d
       0.022690373 0.091917604 0.3558995 0.06769581
000010 42 17 f9 3d ee a9 3d 3c d5 31 8b bc 42 eb d2 3d
       0.12162639 0.011576159 -0.016991535 0.10298778
000020 6e 49 a7 3c db c3 8e 3d 7e 91 8d 3b 20 e0 3c 3e
       0.020420756 0.0697095 0.0043203225 0.18444872
000030 50 e1 31 3c 37 22 41 3d 65 59 6f 3e aa d6 40 3d
       0.010856941 0.04715177 0.23373945 0.04707972
000040 32 9b 66 3d 72 94 6a 3d dc ee 9f 3d 61 3a 52 3e
       0.05630035 0.057270475 0.07809231 0.20530082
000050 74 22 5d 3d b8 f0 84 3e e2 ac fa 3c b8 32 2d 3d
       0.053987935 0.25964904 0.030600015 0.042284697
000060 52 b1 ad 3d 09 cd eb 3d e3 32 15 3d 1e 9f 17 3e
       0.08481087 0.11513717 0.036425482 0.14806792
000070 be d8 86 3e 7c 13 92 3d e9 34 78 3d 54 ab fc 3c
       0.26337236 0.071326226 0.060597334 0.030843414
000080 9e b7 83 3d 89 ef d2 3c 6a 4f ed 3d 32 39 22 3d
       0.064315066 0.025748985 0.11587413 0.039605327
000090 8f c6 d3 3d 2c 49 99 3d 52 68 32 3e 90 c3 0d 3d
       0.103406064 0.074846596 0.17422608 0.03461033
0000a0 ca b5 ac 3c 66 e0 a2 3c 43 3b 2d 3d 94 ae 80 3d
       0.021082778 0.019882392 0.042292845 0.06283298
0000b0 d2 6a 26 bc c6 ad 25 3d 17 23 04 3d ea 4c 41 3e
       -0.010157304 0.040448926 0.032260027 0.18876997
0000c0 c7 1c 23 3e 1b 43 53 3d fa 83 2f 3d b8 a8 b2 3d
       0.15928946 0.05157767 0.042850472 0.08723587
0000d0 18 ff d8 3d a1 fc 0f bc 0b ca 77 3d ff 22 1e 3e
       0.1059553 -0.008788259 0.060495418 0.15443037
0000e0 9c 6f 59 3e bd 85 aa 3c b9 bb d8 3d 8d 27 4d 3d
       0.21233982 0.020815725 0.1058268 0.050086547
0000f0 8e 03 e2 3c 76 aa ba 3d 77 23 c0 3d 60 25 18 bd
       0.027589586 0.09114544 0.093817644 -0.03714502
000100 73 39 b3 3d 3a fc bd 3d ac 75 2c 3f 21 75 e9 3d
       0.08751192 0.09276624 0.67367053 0.11399294
000110 2c 90 09 3e 39 95 6f 3e 77 80 4a 3e f6 74 4d 3d
       0.13433903 0.23396768 0.19775568 0.05016037
000120 7b eb 1e 3d 66 01 f5 3d 3a 36 ac 3c 04 02 a8 3d
       0.03879879 0.11963157 0.021021951 0.082035094
000130 2a 85 ef 3d 7c fb 36 3d c4 16 ca 3d c0 48 e9 bb
       0.11695321 0.044673428 0.098676234 -0.007119268
000140 e2 1b e5 bc d0 ab da 3d f4 00 da 3d d3 68 84 3e
       -0.027967397 0.10677302 0.10644713 0.25861225
000150 8e 05 46 3e c1 2c 45 3d df e4 3c 3d 32 24 16 3e
       0.19338056 0.048138384 0.046116706 0.14662245
000160 28 74 9a 3e a3 5b 0e 3d 6d 14 3d 3e bf bc 11 3d
       0.30166745 0.03475536 0.18464823 0.035580393
000170 b5 a4 48 3a a8 fa 89 3e 13 fa a2 3d 76 7d 49 3e
       0.0007653938 0.26949048 0.07957854 0.19676766
000180 94 8f 2f 3d c3 1c 80 3c 09 75 01 3e 71 c2 3e 3d
       0.042861536 0.015638715 0.12642302 0.046572153

Y.net.1.0.weight f4 [100, 100]
000000 f1 4e a7 be 48 c7 85 3d 3b 27 02 3e d6 85 55 bd
       -0.32677415 0.065321505 0.12710278 -0.05212959
000010 43 24 87 bb 91 95 89 be 5e 56 9a bd 3a fb 60 be
       -0.004124196 -0.26871923 -0.075360045 -0.21970835
000020 2f 85 c8 3d d1 8d 25 be 26 37 59 be 0d fb e7 bd
       0.09791028 -0.1616738 -0.21212444 -0.11327181
000030 32 cb a2 bc 2d 74 fd bd e4 92 b1 be 0e b0 7e 3e
       -0.019872282 -0.123756744 -0.3468238 0.24871847
000040 01 d5 8c be 84 8d 0c 3e 6e 22 de 3d 20 7d 88 bd
       -0.2750626 0.13725859 0.10846411 -0.06664491
000050 68 7b 3d 3e 66 25 95 bd 00 ac 0a 3e 24 87 a9 bd
       0.18504107 -0.07282524 0.13542175 -0.08277729
000060 c3 9e 4b bd d8 6b 94 3d 1e b8 c4 bd e2 53 4a bd
       -0.049711954 0.07247132 -0.0960543 -0.049396403
000070 fc 92 72 3e f0 d1 f6 bd 25 ed 09 bd bd b8 29 be
       0.23688883 -0.12051761 -0.033673424 -0.16574378
000080 3d bb e8 3c fb ff 27 3e 76 6b 98 3d e4 f1 a1 3d
       0.028409595 0.16406243 0.074423715 0.07907465
000090 f9 02 52 3e 13 e1 45 bd e4 b5 eb bc 3f 91 16 3f
       0.20508946 -0.04831035 -0.028773256 0.5881538
0000a0 d9 57 1d bc 14 d3 18 be 95 2d ee be 2c b3 db bd
       -0.009603464 -0.1492427 -0.4651915 -0.10727534
0000b0 28 76 69 bc 1e 57 84 3e fe f1 6a bd 17 b2 21 be
       -0.014249362 0.25847715 -0.057359688 -0.15790592
0000c0 8c 58 2f 3d 07 90 87 3e fe 82 34 bd d2 0c 8f be
       0.042809054 0.26477072 -0.044070236 -0.2793947
0000d0 af a2 55 3c 98 c0 94 be 8f 21 85 3c e6 dd 82 be
       0.013039275 -0.29053187 0.016251354 -0.2555992
0000e0 3c 72 a9 3c bf 86 82 3d a7 e5 dd be c2 c9 70 3d
       0.020684354 0.06373357 -0.43339273 0.05878616
0000f0 2e 0a d2 bc 1d e9 a0 be c6 55 bc bd 71 bc 57 3e
       -0.02563962 -0.3142785 -0.091960475 0.21067978
000100 69 b1 9a be 02 62 95 3c e9 03 12 bd 99 06 4b 3d
       -0.30213478 0.01823521 -0.03564826 0.04956684
000110 21 ea 19 3e b6 1f d5 bd 80 0e bb 3e 2a 6f fc 3e
       0.1503072 -0.10406439 0.365345 0.4930356
000120 c9 54 a0 bd 6d 93 4c bd 69 5d b1 3d e1 3b e4 3e
       -0.078286715 -0.049945284 0.08660395 0.44576934
000130 ec d1 7d 3d e3 05 14 3f 04 cb d5 3d 12 78 26 3e
       0.061967775 0.5782148 0.10439113 0.1625674
000140 03 12 83 3c 34 3a a9 bd 7a 90 44 be 4e e3 8f bd
       0.0159998 -0.082630545 -0.19195738 -0.07025777
000150 e7 d2 1a 3e f6 45 ad 3e f1 9b 25 be bd a5 02 be
       0.15119515 0.33842438 -0.16172768 -0.12758537
000160 b8 58 7f 3c 44 fc 85 3c 7a 0e ff 3d 27 d4 c3 bd
       0.015585117 0.016355641 0.12453933 -0.09561949
000170 76 4e 74 be 3d c7 3d be d8 99 fb be 7a 36 4a bd
       -0.23858055 -0.18533035 -0.4914081 -0.04936836
000180 9e f0 3e 3e ea b3 1f 3e 59 ad 2e bd 0f ff 1f be
       0.18646476 0.15595976 -0.042645786 -0.15624641
000190 af a9 8f bd 92 2a 26 3d 63 eb 11 be 9a 32 1e be
       -0.070147865 0.040567942 -0.14249949 -0.1544899
0001a0 eb 82 f4 3d 84 e6 92 bd 19 ae f6 3d 9f 58 da 3d
       0.11939033 -0.071728736 0.12044925 0.106614344
0001b0 c9 12 2a bc 52 1a 21 3d b7 c1 9d bb ea 75 9b 3d
       -0.010380455 0.03933174 -0.0048143524 0.0759085
0001c0 d3 a0 09 3c f1 7c 09 3d e0 17 b8 ba 51 0a 9d bd
       0.00840016 0.03356642 -0.0014045201 -0.07667983
0001d0 d6 0a f9 bd 76 07 4d bd 4e 37 04 be 26 09 c3 bc
       -0.1216027 -0.050055943 -0.12911722 -0.023808073
0001e0 cf c3 65 be 78 0f 83 bd 4d 60 8f 3d c7 6f 9c bc
       -0.22437976 -0.06399435 0.0700079 -0.019096268
0001f0 64 e1 65 3c ac 5e 92 3c 13 e5 80 3d 52 b1 3f bd
       0.014030788 0.017867409 0.062936924 -0.046799965
000200 61 95 96 3c cb 2a 84 bc 35 69 88 bc f2 b2 a2 3d
       0.018381776 -0.016133687 -0.01665173 0.07944287
000210 ae 14 bb 3c 46 c5 43 3d 3b 17 55 3e 16 aa 94 bd
       0.02283701 0.047795556 0.20809643 -0.07259004
000220 da dc 20 bc a2 f4 90 3d c9 67 15 be 15 55 62 3d
       -0.00981828 0.0707791 -0.14590372 0.05525692
000230 7c f3 97 bd 2d 36 c4 3c 0f 3b 06 3e b3 2d 2e 3e
       -0.07419488 0.023951614 0.13108467 0.1700962
000240 55 78 80 bd 69 c6 29 3e 6a a2 18 3d 26 e3 a1 3c
       -0.062729515 0.16579594 0.037264265 0.019761633
000250 21 66 b1 bd 91 a4 66 bd 4d b1 67 3d dd 63 2c 3d
       -0.08662058 -0.056309287 0.05656557 0.042087425
000260 71 14 0e bd 4d 69 37 bc c5 8b 2c bd b6 67 28 3c
       -0.034687463 -0.011194539 -0.042125482 0.010278633
000270 d8 72 05 be 99 fb 32 3d 6e 89 7b 3c 03 03 e1 bd
       -0.1303209 0.043696973 0.01535259 -0.109869026
000280 7e e1 88 39 1c 26 d8 3d 3c 9f 3a 3d 93 1b 7c 3d
       0.00026107946 0.10554144 0.045562014 0.061549734
000290 ac 33 9e bc 89 95 39 3e ac ea b0 bd 72 66 5a bd
       -0.019311748 0.1812345 -0.0863851 -0.053320356
0002a0 82 39 61 3d 9d 63 a7 bd 11 f5 1e 3e 6a 59 50 3d
       0.054986484 -0.081732966 0.15523173 0.050866522
0002b0 54 4f d2 bc df 33 37 bd c5 07 3d be f0 e9 d9 3d
       -0.025672592 -0.044727203 -0.18459995 0.10640323
0002c0 f6 64 7c bd f2 0b 91 bd 8c 31 e0 3d 87 72 af 3d
       -0.06161972 -0.070823565 0.1094695 0.08566766
0002d0 88 b9 d7 bb e1 84 21 3c 0c fc 04 be aa 1f eb bd
       -0.0065833963 0.009858341 -0.12986773 -0.11480649
0002e0 da 77 0d be a6 cd 3f bd 17 8f 76 be 19 29 f6 bd
       -0.13815251 -0.04682698 -0.24078022 -0.120195575
0002f0 f9 35 50 3d 9d f0 ed bc 3b d8 40 be 13 f9 33 3d
       0.050832722 -0.029045397 -0.18832485 0.043938708
000300 a3 e7 12 be 62 35 3f 3d 0d 9b 98 3d 5f e0 ae bd
       -0.14346175 0.04668177 0.074514486 -0.08538889
000310 52 d7 dc 3d f0 70 32 3d f7 51 9e bd 23 99 87 3e
       0.107832566 0.043564737 -0.07730477 0.26484022
000320 86 32 4e 3c 91 12 95 3c e5 1c 16 bb b4 7d 8d bc
       0.012585288 0.01819733 -0.0022905406 -0.017271854
000330 ae 81 fb 3d 15 12 99 3d 38 c2 9a 3d 29 21 02 3c
       0.12280594 0.07474152 0.075565755 0.007942476
000340 ef f3 a0 3d 2a 7c 9d 3d 31 13 87 3d bd c9 0b bd
       0.07859027 0.07689698 0.06595457 -0.03412794
000350 6c f4 06 3d 77 8c 05 3e 1a ac 5b bd 88 49 5f 3d
       0.032947943 0.13041864 -0.053630926 0.054513484
000360 ec af 92 3d 69 58 aa bd e2 d4 09 3d c9 de 85 bd
       0.07162461 -0.08317644 0.033650286 -0.065366335
000370 de 60 45 3c 69 67 cf 3d f8 15 36 be a9 9d ce bd
       0.012047021 0.10127146 -0.17781818 -0.10088665
000380 6e 54 84 bc 41 b8 00 3d ce f4 55 bd 00 7e 4e be
       -0.01615354 0.03142572 -0.052235417 -0.20165253
000390 19 d4 45 3e 5a 37 a6 bd 0b a4 a8 bd d4 9e 8a 3c
       0.1931919 -0.08116026 -0.08234414 0.016921438
0003a0 4a 24 3b 3e 3c 38 51 3d 44 a1 78 3d 60 79 08 be
       0.18275562 0.05107902 0.06070067 -0.13327551
0003b0 e3 eb 86 3d b1 87 11 bc bf 71 7e bc 75 97 8c 3c
       0.065879606 -0.008882449 -0.015530049 0.017162064
0003c0 ad 93 8c 3d 8f c2 d2 bc 0b 3e 2a 3e 82 20 9b bd
       0.068641044 -0.025727538 0.1662523 -0.0757456
0003d0 09 a1 fb bc 61 5f 1b bd 1e bb ed bc 65 0d 96 bc
       -0.030716436 -0.037932757 -0.029019888 -0.018316934
0003e0 dc fc 11 3e d7 1e 8c bd 4d 1a 36 3e 95 b3 9e bd
       0.14256614 -0.0684182 0.1778347 -0.07749096
0003f0 6d 38 f6 3c 6a c9 4f be 50 97 64 bc 4e 63 af bc
       0.030056203 -0.20291677 -0.013952091 -0.021409657

Y.net.1.0.bias f4 [100]
000000 17 d9 48 bc f5 47 db 3a 39 26 d8 3c 8c 97 bd 3e
       -0.0122587895 0.0016729819 0.026385413 0.37029684
000010 dd 3d e5 3c f5 7a 9e 3a 37 5e 99 be b6 d7 02 3d
       0.0279836 0.0012091087 -0.29954693 0.031944
000020 fc f4 84 3c 27 f7 04 3e 9a 65 bd 3c b8 e6 21 3e
       0.016230099 0.12984906 0.023119736 0.15810668
000030 33 87 e1 3a 7d cd 19 3c bf 84 4e 3e a9 2b 20 3d
       0.001720643 0.009387371 0.20167826 0.039104138
000040 a5 ce 65 3c c9 92 fb 3c 1b 0c 17 3d c5 83 d0 3c
       0.014026319 0.030709641 0.03687678 0.025453458
000050 12 dc d6 3d 8f 35 d5 3c ad 51 db bb b0 b3 8e 3c
       0.10491194 0.026026515 -0.006693086 0.017419666
000060 d6 de bf 3d 11 f1 dc 3e d4 d5 b6 3c 38 3a e9 3d
       0.093686745 0.4315267 0.022318758 0.113880575
000070 98 02 ef 3c 55 8b 72 3d a7 e5 a1 3d 96 58 ed 3c
       0.029176041 0.05921491 0.07905131 0.028972905
000080 7c 04 be 3d b7 32 31 3d 49 f8 fd 3c e5 2c 3d bc
       0.09278199 0.043261256 0.03100218 -0.011546348
000090 46 d3 96 3b 9a cb d6 3c d9 39 3b 3b 9a 90 a1 3c
       0.0046028225 0.026220132 0.0028568415 0.019722272
0000a0 b5 ae cf bb 8a b7 6c 3c 74 bb 0a 3d 65 c0 08 3d
       -0.0063379654 0.014448056 0.033870175 0.033386607
0000b0 f8 83 c3 3c 6c 21 09 3a 05 68 ef 3c 92 a9 ee 3c
       0.023866639 0.00052311155 0.029224405 0.029133592
0000c0 82 12 4d 3e 33 3b 0a 3e b8 60 9c 3d 47 c0 8f 3d
       0.20026591 0.13499145 0.07635635 0.07019096
0000d0 b1 b9 69 3c 6a 03 85 3c 56 8d 7b 3d 8d 2f d6 3e
       0.014265464 0.01623698 0.061414085 0.41833153
0000e0 c6 da 37 3d 66 a5 e5 3c cb 55 1b 3d e0 65 69 3d
       0.044886373 0.02803297 0.037923615 0.05698192
0000f0 b6 80 8d 3d da eb 95 3c 26 48 6c 3d ba 5b c1 3b
       0.06909315 0.01830094 0.057685994 0.0059008272
000100 b8 c3 1a 3a 00 5c 7c 3c a6 02 5b 3d 20 39 18 3c
       0.0005903798 0.015402794 0.053469323 0.009290963
000110 a8 98 8a 3e bb c1 40 3c 27 7f e5 3b 48 00 3c 3d
       0.27069592 0.011764939 0.007003683 0.045898706
000120 fb 50 2d 3d 35 ec 33 3e 99 49 e4 b9 ce 1d 47 3d
       0.042313557 0.17570575 -0.00043542383 0.04861241
000130 ca 8c 37 3e 5b 41 a4 3e d5 24 c6 3c c3 b1 b7 3c
       0.179248 0.32081112 0.024187485 0.02242363
000140 b8 14 bb 3d 6b a0 03 3d 63 6d 1d 3d 49 6a 40 3c
       0.09134811 0.03213541 0.038434397 0.01174409
000150 19 41 72 3c 72 b7 07 3c 4f b0 31 3d 43 d1 34 3d
       0.014786028 0.008283483 0.04338103 0.04414488
000160 23 62 67 bb 56 9f a0 3c 14 b4 f7 3c 11 5a 80 3c
       -0.0035306297 0.019607227 0.030237235 0.015667947
000170 bc 95 62 3c 33 2e 3c 3c 39 8d 05 3d eb 36 56 3e
       0.013829645 0.011485624 0.032605384 0.20919387
000180 7f 2f a5 3c 42 9e 1e 3c 70 a7 ec 3d 9c 99 56 3e
       0.02016425 0.009681286 0.11555374 0.20957035

Y.net.2.weight f4 [4, 100]
000000 ea 8c 01 3f 9c 2e 57 3f ba d0 92 3f dc dd c0 3f
       0.5060564 0.84055495 1.1469948 1.5067706
000010 b8 4c 1f bf 4c 7d 73 bf 64 5c 91 bf ab 33 0a 3f
       -0.6222644 -0.9511306 -1.135632 0.5398509
000020 9c 90 9b 3e 6f 05 76 3e 8b f8 8f be 9f 50 fd bf
       0.30383766 0.2402551 -0.2811931 -1.9790229
000030 ff db 0d bf 19 5a 9a be 4f 3e 8d be b9 98 5f 3f
       -0.5541381 -0.30146864 -0.275866 0.8734241
000040 5a 90 80 be e3 68 32 c0 20 62 1d 3f ac ea ea 3e
       -0.25110132 -2.7876518 0.6147785 0.45882165
000050 48 48 39 bf 88 8a 0f 3f 63 ae 71 3f 10 88 12 3f
       -0.7237592 0.56070757 0.9440672 0.57238865
000060 e2 be ef bf 4c ed 94 3f 6b 1f e9 3f 78 fc 27 bf
       -1.8730128 1.1634917 1.8212713 -0.6561961
000070 7b a1 cc 3e d2 56 e5 be e0 fe 3b bf 3e 91 b1 3e
       0.3996695 -0.447928 -0.73435783 0.34681123
000080 1e c1 38 3f 68 89 63 3f 06 e7 87 3e 01 85 8d be
       0.72169673 0.8888154 0.26543444 -0.27640536
000090 3d 56 de be 15 33 90 bf 60 4a 49 bf e2 d3 c6 bd
       -0.4342517 -1.1265589 -0.7862911 -0.09708382
0000a0 c2 89 9f 3f 77 64 13 3f fd 92 a2 be b2 dc 8d 3e
       1.2463915 0.5757517 -0.31752768 0.2770744
0000b0 59 16 19 3f f0 51 1f bf ce 1e 2c 3f 3b be 3a 3f
       0.59799725 -0.622344 0.67234504 0.7294652
0000c0 f0 e7 75 3f e9 b7 24 bf d9 c6 7f be e4 c9 14 be
       0.96057034 -0.64343125 -0.24978198 -0.1453014
0000d0 91 9e de bd 88 8b 39 3d 8a ad 41 bf ee 7a b1 3e
       -0.10870088 0.045299083 -0.75655425 0.346641
0000e0 35 d6 52 3e d7 df 02 be bc b6 16 bf 51 7c 22 bf
       0.20589526 -0.127807 -0.5887258 -0.6347094
0000f0 b7 8d 56 bf 1c 7d 11 3f 05 bd 99 bf 86 75 01 bf
       -0.8380999 0.56831527 -1.2010809 -0.5056995
000100 16 4a 55 3f 93 ab 05 bf 48 08 a3 3e 0f 9e 83 be
       0.8331617 -0.52214926 0.31842256 -0.25706527
000110 a5 0a 3e 3f 2c 99 d1 3e ed 05 0c 3e f0 c2 48 bf
       0.7423499 0.40937173 0.13674136 -0.7842245
000120 22 f4 2d bf c0 27 b3 3e 2e 22 1b bf 87 a0 ec be
       -0.6795064 0.34991264 -0.6059903 -0.46216223
000130 5c a6 92 be 78 b1 0a 40 9b 5c 68 3f 94 d3 2d bf
       -0.28642547 2.1670818 0.90766305 -0.6790097
000140 e2 e2 95 3d 15 a0 d9 3b 07 96 61 3f ad 3d 43 bf
       0.07318665 0.0066413977 0.8811955 -0.76265985
000150 b9 fa f4 ba e5 43 92 3f e7 b2 1f 3f 23 39 0e 3f
       -0.0018690444 1.142697 0.6238236 0.55555934
000160 9e e4 22 3f 8a f5 9d 3f d1 db 8f 3f e9 3b 93 bf
       0.6363009 1.2340558 1.1238958 -1.1502658
000170 5d 36 88 bf d4 17 89 be 53 5e 94 bf e8 70 ba 3e
       -1.064159 -0.26775992 -1.1591285 0.36414266
000180 3d ac 3c 3f 1e 5e 67 bf 3a 66 b0 3e 40 6f 3c bf
       0.73700315 -0.90377986 0.34452993 -0.73607254
000190 3b 53 bb be a9 9c 3c bf 06 d0 8c bf 03 26 8a bf
       -0.36586937 -0.73676544 -1.1000984 -1.079285
0001a0 77 b9 5e 3f 79 60 10 3f 98 98 1a 3f fe c5 33 bf
       0.87001747 0.56397206 0.6038909 -0.7022399
0001b0 b6 a1 36 bf 21 a5 38 be aa 71 42 be bb d3 d3 3f
       -0.713405 -0.18031742 -0.18988672 1.654899
0001c0 9b 38 48 3f b2 07 8f be 69 b1 f3 3f a4 b0 84 bf
       0.78211373 -0.2793556 1.9038516 -1.0366406
0001d0 3b dc 68 be 3a db 3f be 7c 91 6c bf 5c 67 b6 be
       -0.22740261 -0.18735972 -0.9240949 -0.35625732
0001e0 1c af 9f 3f 4f 8e f9 bd 98 01 00 bf 40 dc ac be
       1.2475314 -0.12185346 -0.5000243 -0.33761787
0001f0 29 0c ce 3f 5c ff 85 bf c0 3f 14 c0 aa b8 35 3f
       1.6097461 -1.0468554 -2.316391 0.709849
000200 f7 3b 0b bf 9f 2e ac 3e dc e3 26 3f 6f 72 b6 be
       -0.54388374 0.3362932 0.65191436 -0.3563418
000210 ac d9 26 3f d1 12 32 bf 56 12 2e bf 23 f6 ad be
       0.6517589 -0.6955996 -0.6799673 -0.3397685
000220 02 af 15 3d 4c 24 de 3e f4 ea 2d 3f 6c 22 90 3f
       0.036543854 0.43387067 0.67936635 1.1260505
000230 b0 09 57 bf 8a 20 12 bf 40 5b 20 3f a3 bb d5 be
       -0.83999157 -0.570809 0.62639236 -0.41744718
000240 18 c1 6e bf ce e4 48 3f 3e c2 9e be a3 33 75 bf
       -0.9326339 0.7847413 -0.3100757 -0.95781916
000250 12 8a 2e bf 07 89 a1 be 50 ff 2f 3e 03 50 3f bf
       -0.6817943 -0.31549856 0.17187238 -0.74731463
000260 27 6e 95 be e6 9f 08 3f 89 e5 08 3f e4 0b bf be
       -0.29185602 0.53368986 0.5347524 -0.3731376
000270 73 8e 4f 3e 4e 8f d2 be 6b f6 16 3f 9d 88 35 3f
       0.20269184 -0.41124958 0.58969754 0.7091158
000280 c5 1b 4c 3f 95 39 96 be 6a 9b 2f 3f c7 a4 36 3f
       0.7972987 -0.29340807 0.6859652 0.7134518
000290 cd c6 1e bf 2d 3d 8d 3e 5a 35 8e be d2 33 fa 3e
       -0.62022096 0.27585736 -0.2777508 0.4886766
0002a0 fc fd 70 bf ee 79 d5 3a 24 ba 07 3e 1d 7c a6 bf
       -0.9413755 0.0016286948 0.13254601 -1.3006626
0002b0 32 38 9a 3e ba 26 9f bd c7 27 22 3f d0 4f b8 3e
       0.30121 -0.077710584 0.63341945 0.35998392
0002c0 78 65 bb 3e 94 75 9d bf 00 03 93 bf 31 97 0d 3f
       0.36600852 -1.2301507 -1.148529 0.55308825
0002d0 9f e0 0e 3f de 4e 57 be 6f 8f 3a bf bc c6 48 3f
       0.55811495 -0.21026179 -0.7287511 0.78428245
0002e0 eb 48 19 3f 4c b5 28 bf e5 9c 34 bf 7f 47 cd bd
       0.5987689 -0.6590164 -0.705519 -0.100234024
0002f0 28 40 88 bf e3 c2 b8 bf 0b 28 3c bf 47 c5 5a 3f
       -1.0644579 -1.4434475 -0.734986 0.8545727
000300 6b a5 57 3f bf f7 fc 3d 3e 2e 86 3f a4 8e 5e bf
       0.8423678 0.12351941 1.0482862 -0.869364
000310 b4 12 67 bf a2 98 8d 3f ea 46 52 3f 82 7e 1b 3f
       -0.90262914 1.1062205 0.82139456 0.6073991
000320 69 8a 20 3d 90 89 b9 3d 7a 0c a7 3d 7d ad 64 3d
       0.0391945 0.09059441 0.081566766 0.055829514
000330 70 c6 fb bd bc 76 07 be 6c 01 01 3d 7c 7b 6f bc
       -0.12293708 -0.13228887 0.031495497 -0.014616843
000340 35 b2 d8 bc 70 22 bb bd c8 77 f2 bb 6d 4e 9d bd
       -0.026452163 -0.09137428 -0.007399533 -0.07680974
000350 22 50 c3 bc b5 ef d9 3c d4 e9 12 bd dd 6d ad 3d
       -0.023841921 0.026603559 -0.035867527 0.084682204
000360 c3 55 db 3d c7 b9 e3 3c de 33 8a 3d 69 e9 2f 3d
       0.10709717 0.027798546 0.06748174 0.042947207
000370 d3 25 40 bd 71 25 0b 3e 22 fb 48 3d 0f 5d 14 3d
       -0.046911072 0.13588502 0.049067624 0.03622156
000380 c6 42 a4 bd 44 21 da 3d 33 eb f8 3d 8a e2 ab 3c
       -0.080205485 0.10650876 0.12154236 0.020982046
000390 13 b7 b0 3d 51 cd 85 3d 26 9e a8 be 8c 00 82 3e
       0.08628669 0.065333016 -0.32933158 0.25391042
0003a0 e8 8b de 3c 46 d2 1b 3e 70 02 9a 3d a3 47 95 bc
       0.027166322 0.15216932 0.07519996 -0.018222636
0003b0 03 10 bb 3d b6 94 0f 3e 18 0c 2b bd a1 1b a8 be
       0.09133913 0.14021572 -0.04175958 -0.3283358
0003c0 f9 b0 17 bd eb bb 74 be 0e 8b 65 be f2 f0 17 3e
       -0.03703401 -0.2389981 -0.22416326 0.14838007
0003d0 de 97 77 bd 2a 15 cf bc 37 8b a8 be c0 e4 04 be
       -0.060447566 -0.025278646 -0.32918712 -0.12977886
0003e0 f2 5f 8b 3d 2b ec 7e be 34 73 0f be 56 d9 38 3d
       0.068054095 -0.24894778 -0.1400879 0.045129143
0003f0 4f 47 14 3e 20 3c ad 3b d2 5d 9f bd 03 aa 54 bd
       0.14480327 0.0052867085 -0.07781567 -0.05191995

Y.net.2.bias f4 [4]
000000 61 57 c4 bd af af b3 3d 73 e9 ab 3c df df c8 bc
       -0.09586979 0.08773743 0.02098534 -0.024520813

Y.U.0.weight f4 [100, 4]
000000 1a 8e 95 bd 16 43 d3 3d 1b 69 64 3b d3 e8 11 3b
       -0.07302494 0.1031553 0.0034852687 0.0022264018
000010 c6 dc 95 3d df a0 18 bc d6 f5 37 3e eb 0d c3 bd
       0.073175 -0.009315698 0.17964873 -0.09524139
000020 83 5d be 3d 58 3b b0 3b 77 8e fd 3d 5b 3d 33 3d
       0.0929518 0.005378168 0.12380689 0.043759685
000030 0b e2 68 3d d4 5d e3 3d 2b f8 91 bd e6 8a 13 be
       0.056856196 0.11101881 -0.071274124 -0.14408454
000040 91 e4 73 3e ff ad b8 3d b8 f1 bc be 73 e9 12 3c
       0.2381766 0.09017562 -0.36903167 0.008966791
000050 98 e7 8e bc 98 44 25 3d 3f 05 f0 bb db 1a 02 bb
       -0.017444417 0.04034862 -0.007324844 -0.0019852433
000060 ee cc 81 bd d4 d5 ac bc 45 aa b8 bd 84 6f 27 bd
       -0.06337915 -0.021098055 -0.09016851 -0.040877834
000070 4c 3e d1 bd 91 a8 27 3e a2 bb ae 3d cb 9c 74 be
       -0.1021696 0.16372897 0.08531882 -0.23887937
000080 13 ca bf bd da 65 30 be 92 74 e6 3d a3 2d 05 3e
       -0.093647145 -0.17226353 0.11252703 0.1300569
000090 87 63 81 bc 9c c9 44 3b eb bc 90 3c 06 fb 56 3e
       -0.015794529 0.0030027395 0.017668208 0.20994195
0000a0 aa b8 a1 bd fb e3 94 bd 41 47 bb 3c 0d d6 08 be
       -0.0789655 -0.07270046 0.022861125 -0.13362904
0000b0 d3 8a 81 bc c5 f4 50 3b 23 99 24 bd 11 9d 11 3d
       -0.015813267 0.0031884175 -0.040185105 0.03555018
0000c0 cc 4f 41 3b 86 06 83 3b 1f 7d 01 bb d5 5e 1c 3b
       0.0029497026 0.0039985804 -0.0019758416 0.0023860235
0000d0 67 a9 35 be af 65 77 bc 7f 27 d6 bc 1a ed 01 3e
       -0.17740403 -0.015099927 -0.02614188 0.12688103
0000e0 b5 7b 01 bd da ee 95 bb 35 1f 0b bb 92 9a e3 3c
       -0.031612117 -0.0045755925 -0.0021228318 0.027783666
0000f0 f0 e6 48 3d 3b e8 c7 bd 47 c5 9c 3d 02 f9 1c bd
       0.049048364 -0.09761091 0.07654815 -0.03832341
000100 a7 ab f7 bd 71 a1 45 3d c8 9c cb 3c 24 07 b5 bd
       -0.12093287 0.048249666 0.024855033 -0.088392526
000110 50 02 af bd f8 d8 47 bc 77 42 47 bd 2d 94 9f 3d
       -0.08545363 -0.0121977255 -0.04864737 0.07791934
000120 ab 00 0d be 31 00 eb bd f0 64 0a 3e 8f a6 5f bd
       -0.13769786 -0.11474646 0.13515067 -0.054602202
000130 d2 26 07 be f9 78 0e 3e 03 0e 33 3e f9 e4 e4 3b
       -0.13198403 0.13913335 0.17485814 0.0069853035
000140 80 bb 99 3c b4 4f 64 bd eb d6 e9 bc 74 63 ad 3c
       0.018766165 -0.055740073 -0.028544864 0.021165587
000150 ee d1 20 3d b2 10 08 3e c3 fd e4 3d b3 f3 1c be
       0.039262705 0.13287619 0.11181214 -0.15327339
000160 a0 11 79 3d 23 81 ec ba 5d 3b 63 3d ec 96 51 3d
       0.060807824 -0.0018043857 0.055476535 0.05116932
000170 9d 22 ff bc c5 c7 2b 3d 59 3b 86 3d 31 bb 7b 3e
       -0.031144435 0.041938562 0.065542884 0.24583127
000180 66 73 68 3c 16 2c 7d 3c ba ed 8a bc d7 2f 3f 3b
       0.014187669 0.015452405 -0.01695906 0.0029172802
000190 0d 8c 17 bd 89 b9 81 bc 26 b3 d0 3d f3 8c e7 bb
       -0.036998797 -0.01583554 0.1019042 -0.007066363
0001a0 d7 59 ce ba 42 d9 1c 3b d4 08 a5 bb d3 40 5f b9
       -0.0015743327 0.0023933207 -0.005036453 -0.00021291086
0001b0 5e 50 e2 bb 24 29 ec 3c 45 7a 20 bd dc 47 44 3b
       -0.006906553 0.028828211 -0.039179105 0.0029950058
0001c0 e0 f4 df 3c ca 18 18 be 1c ca c1 3c 77 26 69 3d
       0.027338445 -0.14853206 0.023655944 0.05692145
0001d0 9b 46 a7 bb 08 5b ff bb 05 09 6a bb 7d 9a 93 3b
       -0.0051048524 -0.007792834 -0.0035710942 0.0045045004
0001e0 0b 67 c0 bd df e9 24 3d 2c c1 11 be aa 66 74 3d
       -0.09394654 0.0402621 -0.14233845 0.05966822
0001f0 98 ca 18 be 8d 9f 4a 3e 91 02 82 3e 8a f9 05 3e
       -0.14921033 0.19787426 0.25392583 0.13083473
000200 c2 a5 4a bc 2c a6 b1 3b e0 c4 b9 bc d6 ff 30 bc
       -0.012368621 0.0054214206 -0.022676885 -0.010803184
000210 ec d9 d5 3c 06 69 d6 bb 92 4c f0 3c cd 59 95 3b
       0.02610489 -0.0065432815 0.029333387 0.004557824
000220 d2 f0 f2 bc a7 42 b5 bd 47 0b 34 3e 59 2c 18 be
       -0.029655848 -0.088506036 0.17582427 -0.14860667
000230 1c b7 31 39 90 f9 21 bb 29 35 17 39 4f 86 b4 ba
       0.00016948249 -0.0024715401 0.00014420286 -0.0013772937
000240 92 52 d1 3d 40 29 bd bd 10 3b d6 bd bd c0 83 3e
       0.10220827 -0.092363834 -0.10460484 0.25732985
000250 69 cb e2 bd 8b 79 5f bd 77 0f 12 be aa bf 88 3d
       -0.11073954 -0.05455927 -0.14263712 0.06677182
000260 cc ea e9 bc 0e 96 ad bd 74 61 49 be f2 1b 29 bc
       -0.028554343 -0.08475886 -0.19666082 -0.010321604
000270 5f c1 db ba c9 8d a7 bb e7 89 b0 38 3a 10 ca bb
       -0.0016766003 -0.0051133377 8.41802e-05 -0.006166485
000280 44 e7 e8 ba b3 75 f1 b8 92 40 01 39 55 81 0c 3b
       -0.0017769118 -0.00011513699 0.00012326453 0.0021439393
000290 b4 29 8b bb 8b 78 7a 3a d8 51 14 3c 69 26 ff bb
       -0.0042469148 0.00095547055 0.009052716 -0.0077865613
0002a0 84 0a ad bd 4e dd 24 3e 69 5f 09 bd 31 50 da bc
       -0.08449271 0.16100046 -0.033538256 -0.026649566
0002b0 7c b1 79 bd 02 5b 88 3e 88 bc 34 3e 43 d6 e3 3b
       -0.060960278 0.26631933 0.17650044 0.006953032
0002c0 2f 7e 78 bc 1e 73 f7 bd b0 59 d2 3d 04 a5 d4 3d
       -0.015166803 -0.12082504 0.10271013 0.10383037
0002d0 b5 ff 3b 3d 4a db b1 3c 12 b8 3e bd e2 2f 1b bd
       0.045898158 0.02171101 -0.046562262 -0.03788746
0002e0 51 15 b6 3b 89 8e d7 bd 73 81 7d 3d 88 8d 05 3e
       0.0055567403 -0.10525233 0.06189103 0.13042271
0002f0 03 d0 a8 bd 66 0c 26 bd 39 3a 13 3e b5 f7 a6 bd
       -0.082428 -0.040539168 0.14377679 -0.08152715
000300 e1 f9 a6 3d 87 49 f4 bc 50 9a 2c 3e b0 ff de 3d
       0.08153129 -0.029820217 0.1685574 0.10888612
000310 b3 01 bb bc d8 52 79 bd f4 71 63 ba 48 3e ba 3b
       -0.022827959 -0.06087002 -0.0008676343 0.005683694
000320 29 54 53 bd ae e1 7e 3b 2d ee 72 bd 76 95 cd 3d
       -0.051593933 0.003889184 -0.059309173 0.10038273
000330 e5 94 12 bc 15 10 2b 39 ac 52 25 3c 74 a0 b2 3b
       -0.008946632 0.00016313822 0.010090511 0.0054512564
000340 77 c7 aa bd d9 b7 c9 bc 9b 2e 2e 3c de ea aa 3b
       -0.08338826 -0.024623798 0.010631229 0.0052159866
000350 e6 6b 98 3a bb f4 ee ba 60 2b 92 ba 7f 87 b4 ba
       0.0011628836 -0.0018230894 -0.0011151843 -0.0013773291
000360 e8 db e3 bc ae f4 84 bc 93 cd a3 bd 71 84 ac 3d
       -0.02781482 -0.016229954 -0.079981945 0.08423699
000370 af c0 53 be 0e ca c0 3a d4 cf b8 3d 01 39 1d 3e
       -0.20678972 0.0014708654 0.09024015 0.15353777
000380 81 c4 b5 3e c2 e1 7b 3e 0e 9b 53 3c 74 a5 08 be
       0.35501483 0.24597839 0.012915386 -0.13344365
000390 ab ae d0 bd 1d 59 16 be f4 43 ff 3c cb b7 11 be
       -0.10189565 -0.14682432 0.031160332 -0.14230268
0003a0 1f 4a d5 3d f7 8b 91 3e 58 e8 5b bd d3 15 04 be
       0.10414528 0.28427097 -0.053688377 -0.1289895
0003b0 10 8f 48 ba f5 f9 ca 3b ae 1e b6 39 ec 41 3a 3b
       -0.00076507125 0.006194348 0.00034736603 0.002842064
0003c0 1c a7 4c bd 8c 17 82 3c 6b 9a 1e be 02 83 d8 3d
       -0.049964055 0.015880369 -0.15488593 0.10571863
0003d0 49 3d 59 bc 37 bf 1f 3e 52 62 82 3d 6f 67 34 3e
       -0.01325924 0.15600286 0.06366409 0.17617582
0003e0 ba 63 80 bb 1d e0 38 b7 8a 8a 0d bc 2e e7 80 3a
       -0.0039181383 -1.1019435e-05 -0.008638987 0.0009834522
0003f0 d8 5f a4 3d b8 59 de 3d 07 59 98 bd 20 06 39 bb
       0.08026093 0.10856956 -0.074388556 -0.002823241

Y.U.0.bias f4 [100]
000000 ad cf 60 3b 03 f1 9f 3c f4 86 73 bc 2b 69 7f 3c
       0.0034303472 0.019524103 -0.014863718 0.015589039
000010 47 3a 8b bc ff 73 a7 3b 27 52 7e 3b 01 62 96 bc
       -0.016995562 0.0051102634 0.003880629 -0.018357279
000020 29 3b a8 3c db 7f ea bb e7 32 b9 3b 60 62 d5 39
       0.020536022 -0.007156355 0.00565182 0.0004069982
000030 39 e6 cc ba 3c fa 95 bc 2c bd 22 3c 90 5b 4d bb
       -0.0015632577 -0.018307798 0.009932797 -0.0031335093
000040 10 30 b0 bc 9d 2b 7d bc f1 f5 a7 bc 6c be 2c 3c
       -0.021507293 -0.015452293 -0.020503016 0.010543447
000050 a2 4d 52 3c 8c d6 43 3c 65 64 d6 ba 38 e3 7c 3c
       0.012835892 0.011953007 -0.0016356824 0.015435033
000060 14 4a 94 b8 8b 2d f3 bc 11 f1 75 3a 6f fc 04 bb
       -7.070988e-05 -0.029684803 0.000938193 -0.0020292064
000070 92 a3 9b 3c b0 eb f9 b8 61 9e 08 3c c9 b7 8f 3c
       0.018998895 -0.000119171455 0.008338542 0.01754369
000080 5c d4 54 3c 2d f8 3c 38 62 9a 88 3b 68 60 da b9
       0.012990084 4.5053825e-05 0.0041687945 -0.00041652028
000090 20 09 a9 bc 7a bb a7 3c 18 15 99 bc d8 17 86 b9
       -0.020634234 0.020475138 -0.018686816 -0.00025576237
0000a0 04 d3 5b b7 37 93 34 ba a2 07 86 bc fb af 89 3c
       -1.3102548e-05 -0.0006888392 -0.016361061 0.016807547
0000b0 66 8e a8 3c 94 c5 93 3c ce f9 a7 3c e9 c2 75 bc
       0.020575713 0.018038549 0.020504858 -0.0150000835
0000c0 16 9d 6a 3b f0 8e 84 bb 71 88 84 3c e3 25 3c bb
       0.0035799197 -0.00404536 0.016178342 -0.0028709106
0000d0 96 08 31 3c ef 44 f2 39 1a 47 92 bb 6a cb 20 3c
       0.01080527 0.00046209196 -0.0044640424 0.009814123
0000e0 0c 32 59 3c 3d ca 8c 3c b0 aa 8e 3c 42 4e db 37
       0.013256561 0.017186278 0.017415375 2.6143276e-05
0000f0 45 8e 69 3c fc fc a2 3c 4d 35 18 bb 0d 72 70 bc
       0.014255111 0.019896023 -0.002322513 -0.014675629
000100 46 68 ab bc f5 ad a9 bc 22 05 85 3c e8 a5 9e bc
       -0.020923745 -0.020712832 0.0162378 -0.01936622
000110 8f 11 41 3c 99 04 b7 3c f3 bb 96 3c 5a 78 45 39
       0.011783971 0.02234106 0.018400168 0.00018832218
000120 5f bf 5b bc 40 4c 01 bb 59 af ad bc b5 e2 97 3a
       -0.013412326 -0.0019729286 -0.021201776 0.001158795
000130 49 48 a3 bc cd 9d f1 b9 53 f1 95 bc 50 1c 9c 3c
       -0.01993193 -0.00046084673 -0.018303549 0.01905647
000140 49 bd 04 3c 60 9f 75 bc 96 95 8d bc ec 67 98 3c
       0.00810177 -0.014991611 -0.017283242 0.018604241
000150 d7 04 a7 bc eb 53 8d 3c c4 1c 8f bc 92 70 86 3c
       -0.02038805 0.01725193 -0.017469771 0.0164111
000160 b6 1f ab bc f4 8c 3b bc 2e 2a 95 bc c6 2c 8a 3c
       -0.020889144 -0.01144718 -0.01820859 0.016867053
000170 29 ba 65 3c 61 df b5 3c cd 63 90 bb e0 d1 80 3c
       0.014021435 0.022201242 -0.0044064284 0.015725076
000180 db 3c b1 3c ca 50 2e 3c 44 57 e0 b9 55 5f 6f 3c
       0.021635463 0.010639379 -0.00042789627 0.014610131

Y.V.0.weight f4 [100, 4]
000000 fd 69 af bd 8c d8 d9 3d 90 bf 9c 3c a9 c0 3a 3c
       -0.085651375 0.10637006 0.019134313 0.011398473
000010 71 53 40 3c 06 8b c8 3d 29 cf 01 3e 5c 96 c9 3c
       0.011738644 0.097921416 0.12676682 0.02460783
000020 bb 51 36 bc 6e cf 72 bb e3 5f 65 3c 5a 7b 56 bc
       -0.0111278845 -0.0037049907 0.013999912 -0.013090933
000030 f4 be 80 bd cb 0d f8 bd 77 28 9e 3d fb d5 22 3e
       -0.062864214 -0.12112006 0.07722562 0.1590194
000040 b8 a9 24 bd c4 41 81 3d a3 58 b8 bd c3 7d ff 3d
       -0.04020092 0.06311372 -0.09001281 0.12475159
000050 0a 04 cd bb c9 da 15 3e af 9c 64 3d 09 54 22 bd
       -0.006256585 0.14634241 0.055813488 -0.039630923
000060 79 c5 6f be 4c 56 9c bd 05 22 ac be 62 e5 1f be
       -0.23415174 -0.07633647 -0.33619705 -0.15614846
000070 90 bd b2 bd 05 5f c6 3d 01 2c 4c 3d 45 70 76 be
       -0.087275624 0.09686092 0.049846653 -0.24066265
000080 9e e2 85 be c6 89 71 be a5 c7 93 3c d4 d3 f4 bc
       -0.26149458 -0.23587713 0.018039534 -0.029886164
000090 6c 15 2c 3d ea 46 05 3d 89 88 90 bc 03 dd 1e be
       0.042012617 0.032538332 -0.01764323 -0.15513997
0000a0 c2 d1 96 bd 72 51 77 bd 08 a9 68 3d c3 ca 11 be
       -0.07364227 -0.060380407 0.056801826 -0.14237504
0000b0 d2 16 74 3d 1a b9 67 bc 51 f9 22 3e 13 4a 0f be
       0.059592076 -0.014143253 0.15915419 -0.13993101
0000c0 fc 89 59 bd 8f 4a f7 bd a0 58 4d bc da 37 9e bd
       -0.053110108 -0.12074768 -0.012533337 -0.077254966
0000d0 35 e0 27 be 0c b4 de 3c 28 37 2e bd e4 52 d9 3d
       -0.16394122 0.027185462 -0.04253307 0.10611513
0000e0 84 b3 b0 3d 26 c1 67 3c 5d 74 d4 3b 7e 7c a0 bd
       0.0862799 0.014145171 0.006483598 -0.07836245
0000f0 f3 43 14 be 2a 3a 04 bd f1 e7 5f be 79 76 ce 3d
       -0.14479046 -0.032282032 -0.21865822 0.100811906
000100 b0 d8 42 bd fe d8 9a bd 6e d0 d2 3d be 97 ac 3c
       -0.04756993 -0.07560919 0.10293661 0.02106845
000110 79 20 b8 bd 6c 70 e4 bc 8e 89 10 bd 0e 0b 9d 3d
       -0.08990569 -0.027885638 -0.035287432 0.07668124
000120 b7 b5 04 be 7d 83 fa bd 97 6a 02 3e f6 4a 73 bd
       -0.12959944 -0.12232111 0.12735973 -0.05939766
000130 12 aa 59 be 58 5c 4f 3e 2e 6c 6d be 8b 65 cf bd
       -0.21256283 0.2025007 -0.23185799 -0.1012679
000140 d0 ba 4c 3c a5 02 49 bc 5c d9 07 be 94 94 74 bc
       0.012495711 -0.012268697 -0.1326651 -0.014928002
000150 d7 5d 28 bc 1a 1a a3 bd 1d a2 2e be 38 63 14 be
       -0.010276279 -0.07963963 -0.17054029 -0.14490974
000160 af ec b7 3d e8 72 7c bd bb 1a 42 3d 40 65 e5 3d
       0.08980691 -0.06163302 0.047388773 0.112009525
000170 38 99 a2 3c db 19 50 3d fc 88 b9 bb 71 f9 46 3e
       0.019848451 0.050805908 -0.0056620818 0.19431092
000180 7c 01 1a be 3e 62 26 be 27 10 2f 3e 1a de 0a bd
       -0.15039629 -0.16248414 0.17096005 -0.03390322
000190 bd de a0 3d 6a 68 ae 3c bc 1b 5b bd 1b 90 03 3c
       0.07854984 0.021290023 -0.053493246 0.008029963
0001a0 1c 7f 9a 3d 88 3b 9f bd 69 ce 69 3e 03 25 39 3c
       0.075437754 -0.077750266 0.22832645 0.011300328
0001b0 cb fd 0d 3d 53 4d 20 be 53 0f 58 3e 28 4e 25 bc
       0.034665864 -0.15654497 0.21099596 -0.010089435
0001c0 4d 77 ef 3c c4 05 0c be 02 9d 97 3c 78 02 38 3d
       0.029231692 -0.13674074 0.018507484 0.04492423
0001d0 1f f2 71 3d bd 8b c6 3d 23 1b 29 3d 18 b8 5d bd
       0.059068795 0.09694622 0.041285645 -0.054130644
0001e0 05 56 83 bc 0d f0 59 bd d2 86 d9 bb 89 53 32 3e
       -0.016032228 -0.053207446 -0.0066383863 0.17414679
0001f0 a7 12 04 be af f7 35 3e d6 29 e1 bd 65 e4 86 bd
       -0.1289774 0.17770265 -0.10994308 -0.065865315
000200 30 30 28 3e 8b 0f d1 bc e4 48 91 3d 22 20 08 3d
       0.16424632 -0.025520107 0.07093981 0.03323377
000210 6a 6a d5 3c 57 c5 d2 bb f9 57 f0 3c 9b 66 96 3b
       0.026051719 -0.006432216 0.029338824 0.0045898682
000220 19 07 b1 3d d1 4f ad bc 37 78 b2 3d d0 0f 06 be
       0.08643932 -0.021156223 0.087143354 -0.1309197
000230 ca 9b f6 3b 20 0d 59 3e 71 e6 fa 3b b6 83 b1 3d
       0.0075258957 0.21196413 0.0076568653 0.086677
000240 cb 63 ca 3c a7 fa a5 bd e8 86 b0 bd ad e7 40 3e
       0.024705788 -0.08104449 -0.08619481 0.18838377
000250 46 84 0f be be b0 29 3c 9c d9 da bd 6f 21 d6 bc
       -0.14015302 0.01035708 -0.10686037 -0.02613899
000260 56 86 9f 3c 6c 0c 1b be 82 15 41 bd 41 20 a1 ba
       0.019473236 -0.15141457 -0.047139652 -0.0012292938
000270 0a ee e6 bd 0b ca b4 3d 5f 98 db bd 70 1b 14 3e
       -0.11275871 0.08827599 -0.10722422 0.14463592
000280 59 f9 8b 3d 1b 80 46 3c 5c b3 a2 bb a1 3e c8 bd
       0.06834669 0.012115504 -0.004965229 -0.097775705
000290 dc 85 a2 3d 9f 26 20 bd 6a 6e 40 be 18 37 23 3e
       0.07935688 -0.039099332 -0.1879212 0.15938985
0002a0 1a d3 55 be b4 4d 0d 3c b5 0a 09 bc f1 1a 33 3d
       -0.2088131 0.008624483 -0.008364369 0.043726865
0002b0 03 49 22 bc 99 02 79 3e e0 8f 2f 3e d6 21 93 bc
       -0.009905103 0.24317397 0.17144728 -0.01796047
0002c0 71 81 78 bc 68 73 f7 bd c0 59 d2 3d a4 a5 d4 3d
       -0.01516758 -0.12082559 0.10271025 0.10383156
0002d0 a5 02 3c 3d 7e d8 b1 3c 87 b0 3e bd 23 29 1b bd
       0.04590096 0.021709677 -0.04655507 -0.037881028
0002e0 2d bb a1 bc 29 28 99 bd ad 41 71 bd 76 35 86 3d
       -0.019742573 -0.07478363 -0.058900524 0.065531656
0002f0 50 a6 87 bc 90 21 c2 3c 7f 77 32 3d 0b 8e af 3d
       -0.016558796 0.023697644 0.04357099 0.085720144
000300 9f be 65 bd 9d 88 8f bc 49 63 71 bd b5 46 48 be
       -0.056089994 -0.017521197 -0.058932576 -0.19558223
000310 18 58 bc 3d f5 76 88 3e fd 10 54 bc 80 b3 d1 bc
       0.0919649 0.26653257 -0.012943503 -0.025598288
000320 1b 33 85 bd 24 1e 46 3b dc 11 90 bd 69 83 55 3d
       -0.06503888 0.0030230368 -0.070346564 0.052127276
000330 15 e1 c1 3d ac d0 b7 ba 84 97 d7 bd 3f 49 6a bd
       0.09466759 -0.0014023981 -0.10526946 -0.05719876
000340 b4 d4 8e bd dd 88 aa bc af ea 5c 3c e8 9b cf 3b
       -0.06974164 -0.020817215 0.013483687 0.006335724
000350 a8 0b d3 bc a5 aa 51 bd 18 a7 f1 bd ae 02 34 bd
       -0.025762394 -0.05118813 -0.11799449 -0.043947868
000360 7d 1b e3 3b 24 6c 0e 3d 05 06 b7 bd f6 f1 a1 3c
       0.006930767 0.0347711 -0.08936695 0.019768696
000370 81 11 6e 3e 76 42 d3 ba 34 42 c7 bd 3a a4 2d be
       0.23248865 -0.0016117829 -0.09729424 -0.16957179
000380 9c b1 1a be 66 77 4c bd 76 bd 04 3e b2 64 cb bd
       -0.15106815 -0.049918555 0.12962899 -0.099313155
000390 82 bb 24 3d 22 e4 b2 bd db 74 33 3e 2c 27 79 bd
       0.040217884 -0.08734919 0.17525046 -0.060828373
0003a0 16 66 8e 3d e2 7b fc bd a7 4c ec 3d 79 81 97 bd
       0.06953065 -0.12328316 0.11538058 -0.07397742
0003b0 8e 13 0f ba 4a d6 d4 bd 48 66 fd bb 03 61 42 bd
       -0.0005457931 -0.10392435 -0.00773314 -0.0474558
0003c0 bb 92 c2 bc a2 d5 62 3c 54 8f 14 be 7d 83 e8 3d
       -0.023751607 0.013844879 -0.145078 0.113532044
0003d0 cf 3e 59 bc fd be 1f 3e dc 61 82 3d 48 67 34 3e
       -0.013259604 0.156002 0.063663214 0.17617524
0003e0 90 98 29 3d 43 4f 98 3a f7 71 c3 3d f3 38 2d bc
       0.04140526 0.0011620302 0.095432214 -0.01057266
0003f0 85 8b b4 3d 74 06 f6 3d c6 aa 87 bd c6 55 fd bb
       0.08815674 0.120129496 -0.06624369 -0.0077311723

Y.V.0.bias f4 [100]
000000 40 f3 13 3e 5e f6 39 3b dd 61 87 bc f6 3e 8d bc
       0.14448261 0.0028375606 -0.016526157 -0.017241936
000010 1e cb 37 3b 31 f9 f3 3d 74 aa 73 3c 70 ed 9c bc
       0.0028044651 0.11912764 0.014872182 -0.019156188
000020 2a 4a 9d bc 52 c1 c9 3c a0 a8 c6 3c 23 fe ca ba
       -0.019200403 0.024628315 0.024250329 -0.0015487116
000030 1c 85 d2 3c a7 1e ab 3b ec 22 e7 bc 0b c1 07 3c
       0.025698237 0.00522216 -0.028214894 0.008285771
000040 93 b9 43 3c e0 26 83 3e b1 c5 a4 bc c8 c9 9c bc
       0.0119461 0.25615597 -0.020113798 -0.019139186
000050 2c 5f 06 be 1b 73 ba bc 7d 89 f3 bc 97 90 e4 bc
       -0.13122243 -0.022759965 -0.029728645 -0.027900977
000060 9d 59 c2 bb 73 c5 de 3c 37 19 dc 3c ca f6 df 3b
       -0.005931093 0.02719376 0.026867492 0.0068348395
000070 9e 31 8d 3c 07 05 8a 3a e0 68 93 bd 8e 3f 78 bc
       0.017235573 0.0010530063 -0.07197738 -0.015151871
000080 4f 93 a9 bd b8 23 53 38 61 ad 88 bc 22 b1 20 3d
       -0.0828005 5.0339586e-05 -0.016684236 0.039231427
000090 61 7b f9 3c 35 60 28 bc 12 46 9c 3c 23 e6 29 bc
       0.03045434 -0.010276844 0.01907638 -0.01036981
0000a0 42 73 d4 3b e8 5c 79 39 9c c1 41 bc f6 ed 33 3c
       0.0064834664 0.00023781101 -0.011825945 0.010982027
0000b0 27 8e a8 3c 17 c2 93 3c be af 46 3c d0 dd 4e bc
       0.020575596 0.018036885 0.012126861 -0.012626126
0000c0 f4 37 34 bc e4 a6 b9 3c 39 b5 0b be f4 a8 fb 3c
       -0.010999668 0.022662587 -0.1364335 0.030720212
0000d0 71 80 9b 3b 61 7f c2 3c ab 28 17 3d 52 e1 39 bc
       0.004745536 0.02374238 0.03690402 -0.011345224
0000e0 f2 75 41 3c 59 14 1b 3d 81 c0 96 3d e5 4a 1b 3b
       0.0118079055 0.037861202 0.07360936 0.0023695764
0000f0 a9 6d 2f be af fc a2 3c 23 b7 d2 3c ee aa e2 bb
       -0.17131676 0.01989588 0.025722092 -0.006917349
000100 e0 6b 24 ba 8c d1 a2 bc a7 5c 82 3b 6b a5 9e bc
       -0.0006272178 -0.01987531 0.00397833 -0.019365987
000110 dd 4f e9 bc 97 78 bf bc 55 8b d9 bc a1 7d fb ba
       -0.028480465 -0.023372931 -0.026555697 -0.0019187221
000120 f7 d1 5b bc 31 8d 5b bb 0b 6c cb 3b 27 1b b6 3a
       -0.013416759 -0.0033500905 0.006207948 0.001389359
000130 1e 9b 2d 3d dd df 65 3a 5a ca fe bb 63 66 0e 3c
       0.04238426 0.0008769015 -0.007775587 0.008691403
000140 ff c3 a4 bd de 82 fa 3a 36 4a bf bc 4a 9e 5e bd
       -0.08045196 0.0019112488 -0.023350816 -0.054350175
000150 46 4d 27 bc 44 0c 74 3b 3c 8a 8e bc 99 0e 44 3d
       -0.0102112945 0.0037238756 -0.0173999 0.047865484
000160 c6 ad 79 3c 77 16 02 bc b3 3b 95 bc ad 96 7f 3c
       0.015239185 -0.007939926 -0.018216943 0.015599889
000170 64 3b a8 bb d2 a9 d3 39 8f 6e 92 3d 47 44 44 bd
       -0.005134033 0.00040371582 0.07149994 -0.047916677
000180 37 28 38 3b 88 1c f9 bc a3 9a 1d 3b 4b 3a 10 bd
       0.0028100142 -0.030409113 0.002404847 -0.035211843
