src/logs/Backward-Euler/model.pth (torch, 672429 bytes, 75 tensors)

Y.net.0.0.weight f4 [100, 4]
00000000: ef26 063e faf0 ca3d b1be 843d a765 2e3e
00000010: 347e 2c3e ad81 a9bd 0457 82bc 75f8 a8bc
00000020: eb56 9fbd 7805 353c 11ee a1bd 1710 3bbe
00000030: 0b48 cbbe 4b61 c93c 0dfe 21be 277b 01bc
00000040: 5916 c5bc 0be8 343e d3ac 62be 9155 53be
00000050: 0aaa e8bd 6a53 01be a72d 4bbe 0ace df3d
00000060: 0bef 373d ecc4 14be 3e27 5f3e 2476 b63e
00000070: adcf f13a 11d1 6e3e a15d 58bd 8d07 443e
00000080: 8a44 34be c600 73bd 59d8 893d 439f cc3d
00000090: 1bf4 0fbe 0fd6 a4bd 7208 9bbd ecf5 d83d
000000a0: 9d84 5bbe 0395 203e 6ad6 8dbd aec2 89bd
000000b0: 708a 4c3c 3e41 e7bc 166b 26bb 20ec 9fbd
000000c0: 9eef f63d a69e ba3c b549 2dbe bedd 763e
000000d0: bd1b c13c 65d8 1dbe e9fc 2e3e 246b 9a3e
000000e0: ea36 363e 2a33 7d3b 8a87 3abd 6a28 af3c
000000f0: 2cd2 1cbe 7e8a ddbd 6c81 04be 12e2 353e
00000100: 12d6 99bb ea89 fdbc 58ba a43b eeee 28be
00000110: 4321 323e a4bb 45bc 24a9 d1bc da3e 8dbd
00000120: 5114 d4bc 274f 153d b6bb 553e d0a7 c63d
00000130: 7480 353d df6b 1cbe 36a1 033e ceab 8ebc
00000140: 3aac dbbe 8b55 fabd 367d 7b3d 28ac 203d
00000150: e4ad 613d de36 87bd 0afd 85bd f8ad ba3d
00000160: a099 82be 13cc 923d 1dae 05be 5d45 1dbd
00000170: 5036 15bd fe7b 453e 6186 29bd 25e9 bdbd
00000180: 1cf6 123d b0a8 c33d dc01 64be 4b14 05be
00000190: 8e3e 353e b1ff cf3d b44e 39be cadc 22bf
000001a0: 461a f13d 75c8 793e 1cd5 b53d fe58 3d3e
000001b0: 2c0c c33d 3ea0 1fbe 5bcd 063d 7628 093d
000001c0: 7792 e13c 2e17 0cbd e68a 773e 7bbb a63d
000001d0: b7ad 593e 0e25 88bd d84c 28be 43f3 01be
000001e0: dc6d fc3d 90dc 003c dd87 02be 3734 3a3e
000001f0: 24b6 f2bd c7b7 90bc d341 fabd 398b 25bc
00000200: ef7c b1bb 4d3d 17be 0119 863b e3d2 42be
00000210: d2b1 11bc 261e c7bc 333c d83c 99a4 9cbd
00000220: 868c 36bd 3a7c 8abd 7652 41be 6f39 24be
00000230: 7fd2 32bd 3f33 483d 2e43 bfbe c3c2 96bd
00000240: 3daf 10be a29d 2e3d 868c 3a3d 0a3e 44be
00000250: 31b9 e4bc 3aa7 a2bd de0b 86bd a70b 6bbe
00000260: 4957 c93c 5bca fa3d da00 093d f5e6 d03c
00000270: 5bbc fa3d ca53 603e 782d 98be e01e 813c
00000280: e1ab 983e 9525 82be 828f 533e 7135 a6be
00000290: 43f3 b53a a6f9 8d3e fb6c 38be 9e5c 113d
000002a0: 20be 48be 4b56 433d 2aa5 d93c ba9e ed3b
000002b0: 9224 29be 61b6 893e 9333 193e fc32 3ebd
000002c0: 64d9 363e 11e0 0e3a 2936 523e d466 babd
000002d0: 48fd 373d af3e fabc 98d8 343c 8fea 71bd
000002e0: 22b6 0abd c744 bd3c fb47 a43e b502 c43b
000002f0: 2636 1cbe 472c 2fbe cf9d a73d e9a9 0bbe
00000300: 940e 9a3d fbf0 afbd d6d3 ba3b 368c b8bd
00000310: 1d56 9b3d 7b2a 9bbd be31 4fbd 78c0 043e
00000320: 3308 a7bd 63c0 5abe 3904 2d3d f1ee 02be
00000330: f79a 49be e95e 2f3c fa13 4a3e d568 383e
00000340: 9eb4 c13d 6aaf 583d c6cc 883d 1d39 3d3d
00000350: d784 1d3e 224f 7fbd c167 8cbe 077a 393d
00000360: 0f26 203e f7c4 963d d1ed bbbd 690a 43be
00000370: 06e1 f8bc 30f0 bc3d ee35 ba3c 7bfb dbbd
00000380: 0aa9 93be 332e 3cbe a8ad 383e 8d58 b63d
00000390: c61c 23bd 0ba5 f93d e0fd 8f3d cf1f bb3d
000003a0: 292a a03d 3dbb 623c bb0f 8ebc 0b4b 393d
000003b0: cc17 c03c b6d9 e4bb 87b0 48be 4961 ccbe
000003c0: 9423 3cbe 7840 8dbc 5478 dd3d 9ef6 413d
000003d0: 60fa 43bd 5e4c c43d fa20 5ebe 1cd1 72be
000003e0: 15da 1b3e c7f6 e63d 919d 65bd fb1a c2bc
000003f0: e242 773e d499 bb3e d2c3 3fbe a296 05bd
0.1310079 0.09909244 0.06481684 0.17030965 0.16845018 -0.08276687 -0.015910633 -0.020626286
-0.0778025 0.011048667 -0.07906736 -0.18267857 -0.39703402 0.024582526 -0.15819569 -0.007902897
-0.024058508 0.17666642 -0.2213624 -0.2063811 -0.113605574 -0.12629476 -0.19841634 0.10927971
0.044905704 -0.14528245 0.21792313 0.3563701 0.0018448733 0.2332194 -0.052823666 0.19143505
-0.1760427 -0.05932691 0.06730718 0.09991314 -0.14057963 -0.08048641 -0.0756997 0.10593781
-0.21437307 0.15681843 -0.06925662 -0.06726585 0.012484178 -0.028229352 -0.0025393418 -0.07808709
0.12057422 0.022780728 -0.16922648 0.24108025 0.023572797 -0.15414579 0.17088665 0.30159867
0.17794386 0.0038635232 -0.045539416 0.021381576 -0.15314549 -0.10817431 -0.12939996 0.1776202
-0.0046947086 -0.030949552 0.0050270967 -0.16497394 0.17395501 -0.012068663 -0.025593348 -0.068967536
-0.025888594 0.03645244 0.20872387 0.096999764 0.044311956 -0.15275525 0.12854466 -0.017415907
-0.42904836 -0.12223347 0.061398707 0.03922668 0.055097476 -0.06602262 -0.06542404 0.09115213
-0.25507832 0.0716783 -0.130547 -0.038396228 -0.03642875 0.1928558 -0.04138792 -0.092729844
0.03587924 0.09553659 -0.22266334 -0.12996022 0.17699644 0.10156191 -0.18096429 -0.6361815
0.117725894 0.24392875 0.08878538 0.18490979 0.09523806 -0.15588471 0.032910686 0.033485852
0.02753566 -0.034201793 0.2417408 0.08141228 0.21257673 -0.066476926 -0.16435564 -0.12690453
0.123256415 0.007865086 -0.1274714 0.18183981 -0.11851147 -0.017665757 -0.12219586 -0.010103994
-0.0054165046 -0.14769478 0.004092336 -0.1902576 -0.008892493 -0.024306368 0.026395893 -0.07648582
-0.044567607 -0.067619756 -0.18879113 -0.16037534 -0.043657776 0.048876997 -0.37355942 -0.073613666
-0.14129348 0.0426308 0.04554417 -0.19164291 -0.027920337 -0.07942052 -0.06545232 -0.22953664
0.024577754 0.122456275 0.033448078 0.025500754 0.12242957 0.21906963 -0.2972219 0.015761793
0.29818633 -0.25419298 0.20660213 -0.32462648 0.0013881702 0.2772953 -0.18010323 0.035488717
-0.19603777 0.047689717 0.026568014 0.0072515877 -0.16517857 0.26896957 0.1496108 -0.04643534
0.17856365 0.00054502586 0.20528473 -0.09101644 0.044919282 -0.030547468 0.011037968 -0.059061583
-0.0338651 0.023104085 0.32086167 0.005981768 -0.15255031 -0.17106734 0.081843965 -0.13639034
0.07522312 -0.08590885 0.0057015223 -0.09011118 0.07584784 -0.07576462 -0.050584547 0.12964046
-0.08155861 -0.21362452 0.042240355 -0.12786461 -0.1968802 0.010703781 0.19734183 0.1800874
0.09458278 0.052901663 0.066796824 0.046197046 0.15382706 -0.062331326 -0.27422908 0.04528239
0.15639518 0.07361787 -0.09176219 -0.1904694 -0.030380737 0.092255 0.022730794 -0.107413255
-0.28839904 -0.18376999 0.18034995 0.089036085 -0.039822362 0.121896826 0.07030845 0.091369264
0.078205414 0.013838586 -0.017341485 0.045237582 0.023448847 -0.006983961 -0.1959859 -0.39917973
-0.18372947 -0.017242655 0.108139664 0.047354333 -0.047846198 0.095848784 -0.21692267 -0.23712581
0.1521991 0.11277538 -0.05605847 -0.023694506 0.24146608 0.366408 -0.18727043 -0.032614358

Y.net.0.0.bias f4 [100]
00000000: aad6 92bc 60b8 07bd 9d66 b93b d348 133d
00000010: 2fb6 993a 8850 65bb bb72 69bd 7eaa 173d
00000020: 42d1 0c3d 6342 f1bc f673 893b 5bfa 4dbd
00000030: 1a00 88bc 4c7e ca3b fc1a 98bb e5bc 86bc
00000040: 0189 60bd 084b 1c3c 5c06 633c 7c19 dfbb
00000050: 22e0 cfbc 1a39 a3bd a048 c4bb ccd8 dcbc
00000060: c1d8 2fbc 899e 2ebe d67a b33c 29c9 a0bc
00000070: 2302 f53b 001a 1bbc d9fa eabc df98 963c
00000080: 9c54 02bc fd7f c8bd 9ec2 81bc 0b86 04be
00000090: 1ec1 46bb 1cdd e8bd c76c f93a 48f5 4ebe
000000a0: 87fe b0bc b47f 893c 41a0 17bc 531a 203b
000000b0: deb7 94bc b6c0 89bc 25d9 c9bd 3f3a e8bc
000000c0: f98d 40bd 41a3 17bd 8ffd 05bd da15 17bd
000000d0: 087c d6bc 1072 2a3c 400a 9e3b 2389 8a3c
000000e0: a0c6 343b fbe3 babc e233 0bbd 1370 ed3c
000000f0: 07c4 9c3c 68f7 24bd 2ae2 73bc 32b7 cabc
00000100: 3f88 41bd 412e 69bd 317d cebc 9ae0 633d
00000110: c046 bebc d391 b3bc ff1b 3abd eeee cdbc
00000120: 9516 5a3d 94e0 33bc c47e 233c 62d7 083d
00000130: 77f0 41bd 6afa b5bc 8727 e0bc 4c6e 95bc
00000140: 2b42 d93b 8ce7 a5ba be2c 55bd c214 2bbc
00000150: 5b72 98bd 3ff3 9ebc 3c55 313c 89c8 debd
00000160: cfaf 51bc b30a 6abc 3596 d1bc 7518 0dbe
00000170: 7255 d0bb e99b 13bb 00fe e4bd 6610 eabc
00000180: 429c 3b3d 7ebb a1bc 003b 9f3a d624 90bc
-0.017924625 -0.033134818 0.0056579844 0.035958122 0.0011727269 -0.0034990627 -0.05699418 0.03702783
0.03437925 -0.029450601 0.004194732 -0.050287586 -0.01660161 0.0061796065 -0.0046418887 -0.016447494
-0.054818157 0.009539373 0.013856497 -0.006808458 -0.02537543 -0.07969876 -0.005990103 -0.026958846
-0.0107328305 -0.17052664 0.021909159 -0.01962717 0.0074770614 -0.009466648 -0.028684067 0.018383441
-0.007954743 -0.09790037 -0.015839871 -0.12941758 -0.003032751 -0.11370298 0.001902961 -0.20210755
-0.021605743 0.016784526 -0.009254516 0.0024429753 -0.018154081 -0.016815525 -0.0985587 -0.028348086
-0.047010396 -0.037020925 -0.032712515 -0.036886074 -0.02618219 0.010403171 0.0048229992 0.016911095
0.002758421 -0.022813788 -0.033985026 0.028984105 0.019136442 -0.040275007 -0.014885465 -0.024745557
-0.047249075 -0.056928877 -0.02520618 0.05563412 -0.023227096 -0.02192012 -0.045436855 -0.025138345
0.053244192 -0.010978837 0.009978954 0.03340853 -0.047348466 -0.022214133 -0.027362598 -0.01824107
0.0066302023 -0.0012657507 -0.052044623 -0.010441961 -0.074436866 -0.019403098 0.010823544 -0.10878093
-0.012798264 -0.014284777 -0.02558432 -0.13778861 -0.006357842 -0.002252335 -0.11181259 -0.028572273
0.045803316 -0.019742724 0.0012148321 -0.01759569

Y.net.1.0.weight f4 [100, 100]
00000000: e97f 32be 6b73 863d fd8b 3fbd 2415 b7bc
00000010: b8c3 3c3e 5f0c 073e 05b6 f5bd a124 f3bc
00000020: 6c8c 23bd e1af 093e 9089 85bd c42f 873d
00000030: be27 453e 1539 03be b0b7 0c3e 3add 993c
00000040: 91e6 acbc eb4f f53c a21a f43c 4894 7ebe
00000050: 9662 53bd bf0f ad3d fc3d e4bd b2c5 85bd
00000060: 6449 043c 8a29 65be ab03 ddbd 2bb2 c9bd
00000070: d614 e13c 23e1 21be 0521 b5bb 7118 c13d
00000080: e8ef b23d 2c70 7cbd 839a fbbd 7a77 b23d
00000090: 53fb 2bbc a7e3 5c3d 03f5 90bd 3f64 d5bd
000000a0: 9d1a 83be 75f4 c0bd bbc6 583d 53ed dabb
000000b0: fda6 bcbc d17a d4bb e373 12bd 920f 673d
000000c0: 1643 30be 193c f1bd 9e35 ff3d 51aa 8fbd
000000d0: b041 4c3e dd90 c9bc 5ad7 8a3c 6755 bcbc
000000e0: 418e 80be d194 e4bc ef72 a13d 7a2e 773c
000000f0: 9e8e f03d f271 4fbd 5637 553d 8096 013d
00000100: 50d6 e73d f77e b13c d5c5 cfbc 1de5 343e
00000110: eff0 013e ae89 56bd 31ba 3c3e cd5e d0bd
00000120: 45f2 67be 47b8 c4bd c0bc 80bd ecc2 c73d
00000130: a129 833d 5d77 62bd 2997 f7bc 193d 5d3d
00000140: fd45 68bd c0f1 e3bb b841 2bbe 9a7e f7bd
00000150: ffee 9bbd 6b0f 0cbd 322c 9dbd d707 00be
00000160: 981b 7f3c abfd ad3d e749 f7bd d6f2 693e
00000170: 1442 a1bd ff55 bb3d 299d 4a3e 8c7c 683c
00000180: 0df7 9fbd f1a1 90bd 636d ba3d 741b 31be
00000190: a655 29bd 0dee d03d 5073 603d a151 4d3c
000001a0: 5d53 413c 3263 713d d2e7 9d3d 1235 36bd
000001b0: 587a dfbd a2ae cb3c f361 8fbd 877a 88bc
000001c0: 87a7 393d bced e23d e62e bb3d f9c1 103b
000001d0: 304e 8cbc 12bd a53c cb64 fdbd 27d6 11bd
000001e0: c496 3bbe 2299 513d b9cf f2bd 9716 4bbd
000001f0: 0303 833d 1dd6 0abe 8b42 2e3e 73cd d23c
00000200: 86f7 aabd 6623 44bc e22f b23d 1f1f f63d
00000210: 79ee 913d 38a9 dbbc 32a7 c0bd 3476 dfbc
00000220: ddfb a53d a288 cabd edb8 e33d d34d 77be
00000230: 82c4 083e 5a7b 8c3d 9e9c d5bd c3a6 4bbe
00000240: 928e 97bd fb0f 893d e89e 163e 9fef 16bd
00000250: 3d0f 0c3e 3722 ca3d 427a 7cbd 5c0b a93c
00000260: c297 5e3c fc7d 4e3e b7f9 ab3d 2e81 48bd
00000270: f9a3 bfbd 8d71 aabb 3755 933d 593b fdbd
00000280: 0215 733e e1c6 5bbd 57ad 073e 088a 4abd
00000290: 2979 c83d 0abe 95bc cc74 45bd 74b6 17be
000002a0: 112c 143d 7d1f 263e a031 4dbe 7c43 d43d
000002b0: ec63 0abd 1a35 aebd 2b8e 81bc 89b8 a7bc
000002c0: fa71 383d 8ca4 a3bd 4576 4ebe f494 133e
000002d0: ed93 b7bd b001 e6bd 61fc 99bd c42f 4ebe
000002e0: 5951 0a3e ae52 c03d fd63 85bd 62d4 fe3d
000002f0: dba7 abbd bb44 80bd c9aa 1cbd 052f 133e
00000300: 6edd 783d a224 2cbd 56d1 02be cce3 733d
00000310: 2e81 6abb 0e7e 7bbe 4d70 99bb 3f38 603d
00000320: d4da 8abd c726 54bd 05b1 3e3d 9ec9 51bd
00000330: 8533 153d 5d5f 20be 8739 793e 60b7 e83d
00000340: 0406 3bbd e4aa 90bc d684 88bd b0b1 e8bd
00000350: f6b3 b33d f879 f9bd 6d86 1a3e 02de e8bd
00000360: 43b1 c23d b63c 8b3d 2b54 e4bd 8b8e 8bbe
00000370: cd44 f23d 3a80 293e 400c b73d 8492 b03d
00000380: d96b a4bb 7940 9c3b d703 853d 0522 91bd
00000390: a30a 0dbd c2e0 88bd 100c 9dbc 02eb dd3d
000003a0: 7862 c93d 1c8d e53d f091 abbd 90ad fabc
000003b0: 01ba 1bbd 2bc1 503d c5fc 3e3d 1a4b b83d
000003c0: 4194 d6bc c466 bf3d 3da2 caba ffea e2bd
000003d0: fe4d d5bb 2584 da3d 8c44 363e edb6 9b3b
000003e0: 3766 20bd 48f4 543e 638c 053d 8dc3 bd3d
000003f0: 534a 86bd 7332 f7bd ce66 9a3b a345 ffbd
-0.17431606 0.06564983 -0.046764363 -0.022348948 0.18434036 0.13188313 -0.11997608 -0.029680552
-0.03992884 0.13445999 -0.065203786 0.066009074 0.19253442 -0.12814744 0.13741946 0.018782247
-0.021106036 0.029945334 0.029797856 -0.24861252 -0.05160769 0.08450269 -0.11144635 -0.06531848
0.008074138 -0.22379127 -0.10791715 -0.09848436 0.027475756 -0.15808539 -0.005527618 0.0942849
0.08737165 -0.061630413 -0.1228533 0.087141946 -0.010496932 0.053928044 -0.07077982 -0.10419511
-0.25606242 -0.094216265 0.0529239 -0.0066811233 -0.023028845 -0.0064843674 -0.03575505 0.056411333
-0.17213091 -0.11779041 0.124613985 -0.07014907 0.19946933 -0.024605209 0.01694839 -0.022989942
-0.2510853 -0.027902992 0.0788325 0.0150867645 0.11745952 -0.050645776 0.052054726 0.03163767
0.11320174 0.021666987 -0.025362888 0.17665525 0.12689565 -0.052377395 0.18430401 -0.10174332
-0.22651012 -0.096054606 -0.06286001 0.09753975 0.064044245 -0.055289615 -0.030223446 0.054013345
-0.05670737 -0.006956309 -0.16724288 -0.12084694 -0.07613944 -0.03419439 -0.07674445 -0.1250299
0.015570544 0.08495649 -0.12074643 0.22846541 -0.078739315 0.09147262 0.19786514 0.014189851
-0.07810793 -0.07062138 0.09102895 -0.17295629 -0.041341446 0.102016546 0.05479747 0.012531669
0.0117996605 0.05893249 0.07710232 -0.044484206 -0.10912007 0.024863545 -0.07001104 -0.016659988
0.045325782 0.110805005 0.091398045 0.0022088273 -0.017127126 0.020231757 -0.1237274 -0.035604622
-0.18319231 0.05117143 -0.11856026 -0.04958209 0.06397059 -0.1355824 0.17017572 0.025732731
-0.083479926 -0.01197133 0.08700539 0.12017655 0.07125563 -0.026814088 -0.0940689 -0.027278043
0.0810468 -0.09889342 0.11119256 -0.24150781 0.13356212 0.06859465 -0.10430263 -0.19887833
-0.0740024 0.06692501 0.14709055 -0.036849614 0.13677688 0.09869807 -0.06164003 0.0206353
0.013585987 0.20165247 0.08397239 -0.04895132 -0.09357447 -0.0052015246 0.07193988 -0.12364835
0.23738483 -0.053656463 0.13249718 -0.049448043 0.097887345 -0.018279094 -0.04820709 -0.14815694
0.036174837 0.1622295 -0.20038462 0.10364434 -0.0337867 -0.08506222 -0.015814861 -0.020473735
0.04503057 -0.07990369 -0.20162304 0.1441229 -0.089637615 -0.112307906 -0.075188406 -0.20135409
0.13507594 0.0939077 -0.06513212 0.124428526 -0.08381625 -0.06263109 -0.03824881 0.14373405
0.060758047 -0.042027123 -0.12775168 0.059543416 -0.0035782564 -0.24559805 -0.0046825767 0.05474114
-0.067800194 -0.051794793 0.046555538 -0.051217668 0.036426086 -0.15661378 0.24338351 0.11363101
-0.045660034 -0.017659612 -0.066659614 -0.11362016 0.08774559 -0.12181467 0.15090342 -0.1137047
0.09506466 0.06798689 -0.11148866 -0.2725719 0.11829529 0.16552821 0.089378834 0.08621696
-0.0050177393 0.004768428 0.06494873 -0.07086567 -0.034433972 -0.06683494 -0.01917079 0.1083584
0.098332345 0.11208555 -0.08377445 -0.03060034 -0.038019184 0.05096547 0.04662778 0.089986995
-0.02619374 0.09345773 -0.0015459728 -0.11079978 -0.0065095415 0.10669736 0.17799586 0.004752031
-0.03915998 0.20796311 0.032604586 0.09265814 -0.06557145 -0.12070169 0.0047119623 -0.12464454

Y.net.1.0.bias f4 [100]
00000000: 088f 9fbc 2951 b1bc 8cfe c0bb f630 85bc
00000010: cdbf 27b9 72c3 983c 79c3 c03b c9be 35bc
00000020: 363f 02bc aa42 ddbb c96b 9fbb 583f 4ebb
00000030: 79e5 de3c 6304 53bc 502f aa3b e6d4 503c
00000040: 34fd b7bb 0ca5 8dbb 6add 2d3c 271a be3b
00000050: 29d8 2fba 9379 263c c64c 05bd e240 98bb
00000060: 50fd 69bc cd83 51bc b9f5 ec3c c20b 20bc
00000070: eedb 0f3c a6be 223c 1cd1 5b3c 0394 da3c
00000080: 5102 593c eb1b aebb cade c6bc 50a1 4dbc
00000090: 9c88 b23b 8565 d2bc 9a3e 09bd 7eb4 1c3c
000000a0: ff8a 58bb 382e 1cbc 5321 a4bb f15e 0fbd
000000b0: df74 213c e46b 7d3b fe1b 56bc 5e4d fa3b
000000c0: 33ce 47bb ae59 80ba e914 0f3d c484 0ebd
000000d0: 97ab ecbc 17b6 00bb 751f cf3b 3268 a5bc
000000e0: b48e 21bd 94fd aa3c 1e37 99bb 2a3e 9ebc
000000f0: d33d a83c 5ea0 05bb 8b5b c93c ef24 a73c
00000100: 3f83 a8bb b4f7 cebb db54 6ebb 5c8e 9ebb
00000110: 6159 9c3a bee2 f73d a982 0b3c c470 cc3c
00000120: d9c6 9fbb ce67 4c3c 7199 c63c 2ded de3a
00000130: d427 1c3d 1903 bd3c 6735 0f3c 2e11 15bd
00000140: e704 15bd 6f57 2bbd 342a 243c 2f98 e83c
00000150: 8cc2 af3c 93e9 c03a 7f17 2dbc 9a10 60bb
00000160: e9ee bf3c b4df 35bb 855c 703b f00c 91bc
00000170: a128 0d3c a23e 1dbd bbd2 cbbb 0052 e43a
00000180: 1b70 26bb eabf 4f3a 3b08 b13c 1df9 3fbc
-0.019477382 -0.021645145 -0.0058897194 -0.016258698 -0.00015997812 0.018647883 0.005882677 -0.01109285
-0.007949641 -0.0067523317 -0.004865144 -0.0031470861 0.02720903 -0.012879464 0.0051936284 0.012746071
-0.005614901 -0.0043226536 0.010611871 0.0058014574 -0.00067079306 0.0101608215 -0.03254392 -0.0046464065
-0.014281586 -0.012787771 0.028925763 -0.009768428 0.008780463 0.009933149 0.013416555 0.026681906
0.013245181 -0.0053133867 -0.024276156 -0.012550667 0.005448414 -0.025683174 -0.033506967 0.009564517
-0.0033041833 -0.009532504 -0.0050088554 -0.035002653 0.009854524 0.0038669044 -0.013068197 0.0076386174
-0.0030487895 -0.0009792352 0.03493205 -0.034794584 -0.028890414 -0.0019639784 0.0063208886 -0.020191286
-0.039442733 0.020872869 -0.00467576 -0.019316752 0.020537293 -0.0020389776 0.024579784 0.020403353
-0.005142599 -0.0063161496 -0.0036366496 -0.004838748 0.0011928492 0.121037945 0.0085150385 0.024956115
-0.0048759994 0.012475921 0.024243088 0.001700794 0.03812392 0.023072766 0.008740759 -0.036393337
-0.03638163 -0.04183143 0.010019828 0.02839288 0.021455072 0.0014718048 -0.010564684 -0.0034189583
0.02342935 -0.0027751746 0.003667624 -0.017706364 0.008615644 -0.03838981 -0.0062201894 0.0017419457
-0.002539641 0.0007925021 0.02161037 -0.011717108

Y.net.2.0.weight f4 [100, 100]
00000000: 4d78 bbbc c343 e33c d1e2 c6bc 5fd6 01bd
00000010: 4a09 3cbd e8a0 83bd 8bb9 133e fa81 0ebe
00000020: 85a8 66bc 8622 abbd 7456 22be 3b04 2c3d
00000030: 363b 233d e9e7 363d 0b76 7abd 8dfd 1e3d
00000040: 06dd bf3d 0041 203e 3d1f f33c 71d3 07bd
00000050: 3537 223d 7f4a 1bbd d5fc 1d3c 6e98 db3d
00000060: f1b7 3bbd 567e a3bc 7fb5 1b3e c339 5a3d
00000070: b161 da3d 3134 693d e0b1 3bbd e1d8 0dbd
00000080: cf35 84bd 72d4 9abc 7172 633d 2920 1dbe
00000090: 9551 46be e8ff 0a3e d32a 8abd 42c2 7d3d
000000a0: 9ae7 3e3e 3fb0 09bd f925 a63d b9ac b5bb
000000b0: 3d54 b33d dfdb bcbc b61f e1bd 1939 e53c
000000c0: b70e 3cbc 68d1 4fbd 7e04 aabd b8e5 98bd
000000d0: 2886 7fbe 7152 863d 00f3 643d a24b d83b
000000e0: 5b5b 64be 111d ad3d 3475 95bd efdd e8bd
000000f0: e816 213d ff83 5dbc 08a0 233d 7861 0c3e
00000100: e3fa e6bc 57fa 483c 80f9 913d a714 debb
00000110: 5182 ee3d f52f 773d 031e 223d da32 47bd
00000120: c26d 023e c47c b33d 9dc0 cb3d b1bb 99bd
00000130: fb5c 53bd 2224 8c3d ecdf a3bd 6efb 3abe
00000140: d481 37bd d009 7e3d 71c4 903d 8372 dcbd
00000150: 68e1 9ebc 6ca4 4b3e 9150 f4bc f1ba e13d
00000160: 461b 0cbe a311 293b 376d 95ba 630f 34bd
00000170: 16a1 acbc 1d32 72bd 84d8 afbb 77a7 96bd
00000180: c968 76bb dd3a d8bc 1fc4 9a3d 5fc9 953d
00000190: 48ca 53be 412f d0bd 072d b03c 1653 66bc
000001a0: aa7d a73b 07ee a13d 8a50 5c3d 82a4 053e
000001b0: 2300 de3c a34e 1e3a 3da8 57bc ab8f 4bbc
000001c0: 8a44 9c3d d39b b93d 0791 c83d 4b82 043e
000001d0: e438 df3d c97a 303e 3ad6 d3bc 03be 19be
000001e0: dc7f 6dbc 0481 55be e0bc 50be 6a0a 06bc
000001f0: 5619 083e d3e4 2b3d 7df6 3e3e ce60 073e
00000200: 7e7e a93c a198 733d 6b23 acbc a687 5dbe
00000210: c3a8 123e 94cb e5ba 445d 1b3d c4d8 053e
00000220: 96d5 503d 0a26 263c c528 fabc 53f8 c6bd
00000230: 7bb2 aa3d ddc9 8c3a f5ad 03be de43 f13c
00000240: c6e8 7d3d d8f6 af3c 2cda e9bc 9df1 dd3d
00000250: d04f afbd 6ea8 803e 20b9 92bd d636 dbbb
00000260: 0ec7 30be 8dec a63d fe6d ab3c e8b8 82bc
00000270: 3383 ce3d 96bb 96ba 0852 b93d 8fa4 3abd
00000280: 0c51 d2be e08b c4bd 213a ed3d 2e9f f13b
00000290: 2e29 c2bd bb15 5f3d f3b9 fabc 1646 82bd
000002a0: 144c 09be 9416 153d f7c9 4dbd 47bc b83c
000002b0: 210e 2abd 1358 323e 99e3 02be f322 a23d
000002c0: 89bb a23d b7cf 02be 133e 6cbd 0872 133e
000002d0: a250 d8bd 55eb f63d 423e bbbd f78a 01bd
000002e0: 5c16 9b3d d969 5fbd 52d0 5f3d 7b48 e63d
000002f0: ab27 303e 0136 debd e67a 52bd 3b0a 5dbe
00000300: d875 893d 959d 183d ec9f 19be 209f d93c
00000310: 3c3a 9dbc a316 8f3d 5703 d3bd e357 2fbe
00000320: 7d30 673c 75cb e93d 212a 49bc 71f7 2dbe
00000330: 28ff 853c 014f ccbd 0cbb 2abe 4917 f23c
00000340: 7a19 99bd 6af3 2c3d 55b3 c3bd 1333 05be
00000350: e060 cf3d ae4a 7cbd 5b2b a43d 28af 553d
00000360: 798e bd3c 28f6 e5bd 6e77 e8bc bc15 a53c
00000370: 0d80 ac3c ec00 0f3e 9f14 6d3d 570b d13d
00000380: 1948 9c3d b8d2 4bbb b918 fd3d d632 2f3d
00000390: feb2 bf3d 4856 f3bc a6b6 3b3d 23c1 30bd
000003a0: f982 8e3c e1cc 843d b72f bdbc 4b74 b43d
000003b0: 6928 26be 0ed8 913d c84c 253d 4f8d 8abb
000003c0: 661e 103d 9c64 fcbd 331f d23d c404 b4bd
000003d0: 8884 34be d875 60bd 7d5d 27bd fe14 19be
000003e0: ed81 2cbd 5971 ce3c b574 023b 0cda e2bd
000003f0: 8d8f 72bd c1f6 863d c56d 0cbd 2e74 89bd
-0.022884512 0.027742272 -0.024278076 -0.03169858 -0.045907296 -0.06427175 0.14426248 -0.1391677
-0.014078264 -0.08356194 -0.15853292 0.041996222 0.03985139 0.04465476 -0.06114773 0.038816024
0.09368329 0.15649796 0.029677982 -0.03316063 0.03960343 -0.037912842 0.009642799 0.10722433
-0.045829717 -0.019957703 0.15205954 0.053277742 0.106631644 0.05693454 -0.04582393 -0.03463066
-0.06455576 -0.01890013 0.05552906 -0.153443 -0.19367059 0.13574183 -0.06746449 0.061952837
0.18643036 -0.033615347 0.081127115 -0.005544272 0.087563016 -0.023054061 -0.109923765 0.027981328
-0.011478118 -0.050736815 -0.08301638 -0.074656904 -0.2495352 0.06558693 0.055895805 0.006600813
-0.22300474 0.084528096 -0.07297745 -0.113704555 0.039328486 -0.01352024 0.03994754 0.13709056
-0.028195804 0.012266717 0.071276665 -0.0067773643 0.1164595 0.06034847 0.039579403 -0.04863248
0.12737182 0.087640315 0.099488474 -0.075065024 -0.051602345 0.06842829 -0.08001694 -0.18259975
-0.044801548 0.062021077 0.07068718 -0.10764029 -0.019394591 0.1988694 -0.029823573 0.11021984
-0.13682279 0.0025797866 -0.0011400346 -0.043959986 -0.021072906 -0.059129823 -0.005366387 -0.0735616
-0.0037599078 -0.026395256 0.075569384 0.07313799 -0.20682633 -0.10165263 0.021505846 -0.014057895
0.005111416 0.07906728 0.053787746 0.13051036 0.027099675 0.00060389395 -0.01316267 -0.01242439
0.0763026 0.09062924 0.09793287 0.12940328 0.10899523 0.17234339 -0.025858987 -0.1501389
-0.014495816 -0.20849997 -0.2038455 -0.008181194 0.13290915 0.04196627 0.18648715 0.13220522
0.020690199 0.05947173 -0.021012982 -0.21633777 0.1432219 -0.0017531984 0.037930742 0.13070971
0.05098494 0.010140905 -0.030537019 -0.09715333 0.08334824 0.0010741312 -0.12859328 0.029451307
0.06198957 0.021480009 -0.028546415 0.108371 -0.08560145 0.25128502 -0.07164216 -0.0066898866
-0.17263433 0.08150587 0.020926472 -0.01595731 0.10083618 -0.0011499997 0.09048849 -0.04556709
-0.4107746 -0.095969915 0.11583353 0.007373712 -0.09480511 0.054464083 -0.030606246 -0.06361024
-0.13407928 0.036398485 -0.050241437 0.022550715 -0.04151738 0.1741641 -0.12782134 0.07916822
0.07945926 -0.1277455 -0.057676386 0.14398968 -0.105622545 0.12056605 -0.09142734 -0.031626668
0.07572624 -0.054544304 0.05464203 0.11244293 0.17202632 -0.10850144 -0.051386736 -0.21585934
0.0671193 0.037259657 -0.15002412 0.026565135 -0.019192807 0.069867395 -0.103033714 -0.1712337
0.014110682 0.114157595 -0.012278111 -0.16988923 0.01635702 -0.09976006 -0.16672915 0.029552119
-0.074755624 0.042224325 -0.09555689 -0.13007765 0.10125899 -0.061594658 0.08016082 0.052168995
0.023139225 -0.11228591 -0.028377261 0.020151965 0.021057153 0.13965195 0.057880994 0.10207241
0.07630939 -0.003110094 0.12358231 0.04277309 0.09360312 -0.029704228 0.045828484 -0.04315294
0.017396437 0.0648439 -0.023094041 0.088112436 -0.16226353 0.07121287 0.040356427 -0.004228271
0.03518524 -0.12323877 0.10259857 -0.087899715 -0.17628682 -0.054799885 -0.04086064 -0.14949414
-0.042116094 0.025200533 0.0019905989 -0.110767454 -0.059218932 0.06590033 -0.034284372 -0.06711613

Y.net.2.0.bias f4 [100]
00000000: 360c 8b3c 1c35 1bbd 4741 efbb 4a27 3f3c
00000010: c896 f2bc 0f24 453c 95e5 213d 16e9 0bbc
00000020: b2bf f8bc dd34 22bc a92a b13b e5eb 013d
00000030: d44f 33ba 6b65 cbbb 5b10 35bc 15d9 153c
00000040: cd60 5a3b 38a4 05bb 05a6 533c be41 0d3d
00000050: 3dee ccbb 5c4a d83c 9b67 cf3c e6c0 21bc
00000060: 110d 9a3c 7d37 133c 7271 d63c 5f20 00bc
00000070: e3e6 823b 1479 b8bd b481 183c 427a cc3b
00000080: 0418 98bc 8b2f 0937 46ae 6e3c 66bd 693c
00000090: c2b0 4239 cd11 2539 44ac 37bd 4e13 983b
000000a0: 9cdc 283c 6ea2 d5bb b4cf 443d d366 593c
000000b0: e5e1 6c3b 917e 553a 4a5c d73c d2b6 e8bb
000000c0: 0b44 a33b 79be d6bc de25 fbba c607 873a
000000d0: 0ffa e2bb 75f7 8fbc 4d19 fa3b f9d1 673c
000000e0: d2ed 05bd ca6c 86bb 19c9 e83a 41a5 b4bc
000000f0: 7112 4bbe 8cf4 51ba bba4 c3bb 0fb6 b53c
00000100: 8229 b7bc 11de 94bc c9cf 873c 8740 50bc
00000110: fff2 cc3b d262 67bc 3800 2f3c 6cd2 d63c
00000120: 260b 643c 7565 15bb 7328 ffbb a45e 3a3c
00000130: be6b 56bc 6517 f7bb 911b 983a 039f 6e3c
00000140: 384a a93a cd36 433d a7cb 353c 30d8 7a3c
00000150: e1b6 973c 1e24 993b 2bb9 f03b cf58 81bd
00000160: 03b1 8c3b e072 343b dc97 77bb 2c79 603b
00000170: f3d4 dbbb 2207 8cbb 4d79 78bc f5d1 4b3c
00000180: 2d1c b8bb 1c26 a1bc 015e 1c3c 238d 913c
0.016973596 -0.037892446 -0.007301483 0.011667082 -0.029612914 0.012032523 0.039525587 -0.008539459
-0.030364845 -0.009900299 0.005406697 0.031719107 -0.00068402034 -0.0062071583 -0.011051263 0.009145995
0.0033321858 -0.0020392071 0.012918 0.034486525 -0.006253986 0.026402645 0.025317958 -0.009872651
0.018805059 0.008985397 0.026177142 -0.007820218 0.003994809 -0.09007469 0.009308267 0.00624016
-0.018566139 8.176906e-06 0.014567917 0.0142663475 0.00018567129 0.00015742258 -0.04484202 0.004640973
0.010306504 -0.0065196073 0.048049644 0.013269144 0.0036145386 0.0008144165 0.026289124 -0.007101872
0.0049824766 -0.026213871 -0.0019161066 0.0010301999 -0.006926782 -0.017574051 0.0076324106 0.0141491825
-0.032697506 -0.004102324 0.0017760127 -0.022051455 -0.19831254 -0.00080091576 -0.005970565 0.022181539
-0.02235866 -0.018172296 0.016578572 -0.012710697 0.0062545533 -0.014122682 0.0106812045 0.026223384
0.013918674 -0.0022796069 -0.0077868043 0.011375103 -0.013087211 -0.0075406306 0.0011604895 0.014564279
0.0012915796 0.047659684 0.011095918 0.015310332 0.01851982 0.004673495 0.0073462925 -0.06315767
0.0042935624 0.002753429 -0.0037779724 0.0034251912 -0.006708735 -0.0042733112 -0.015165639 0.012440194
-0.005618593 -0.019671492 0.009543897 0.017767495

Y.net.3.0.weight f4 [100, 100]
00000000: ae9b ffbc 8bd1 7b3d 71c7 06be 28a0 ebbc
00000010: 447a 663b 0fc5 69be c37c 38be 4e21 86bd
00000020: 1918 fa3c f61a fdbd 69a7 943d 4651 04bd
00000030: 3e46 a73d 4f60 67bd b97f 113e 836c 0e3e
00000040: bd0e 7c3d 710e 52bd bc29 903d e32f 873c
00000050: 647e a0bd f1cf bebd 5047 b23d 391f dabd
00000060: 9b10 933b 6133 71bd 5642 57be 0032 293d
00000070: 823f 95bd 69a3 c33d f603 4fbb e074 a4bd
00000080: 3ffd 123d 6882 9f3d 75d2 0f3d fa26 3e3e
00000090: cbdb 353c b6c9 3e3e bc77 82be 1277 ca3c
000000a0: df73 0e3d 24ee 87bd 36a0 8cbc a717 6bbd
000000b0: 7794 9cbd 7f24 943d 447c 573d 6efc 4d3d
000000c0: 978a 4cbe 3e06 03be 9caf 843e 13df b4bd
000000d0: 8267 2cbe cc19 213e 1569 0abd 7457 793d
000000e0: b6b3 b93c 5be3 e8bc 26ee 10be 0061 4fbe
000000f0: 8097 063e b7cc bf3c fbfc 00bd 3595 473d
00000100: 00ca 39bd 2f8d 053e f6d2 b73c c310 c73a
00000110: 4de2 a43d aed5 77bd b5c8 513d 0c98 90bd
00000120: e20e a23d 3bb6 22bc 0fd5 45bd 0312 bc3c
00000130: 81b0 a43d 7a1a 3e3e c3b0 88ba d9db 733c
00000140: a412 533d 7b27 9d3c e88e 4b3d 3728 123d
00000150: a144 e2bb 2e51 103d 219c 9c3d 6949 b1bd
00000160: 58b6 36ba 8bf9 92bd 5b3d deba e55b 1a3e
00000170: 17de 263e 76b3 09be bc85 96bd 55a3 41be
00000180: c82a 633d 3544 0b3c cf21 c63d d8f8 673d
00000190: 853d c7bd 5683 063c 4843 fabc 999e 7a3e
000001a0: 66db 353e a998 703c 88de d43c 3c9a 2bbe
000001b0: 1d2b efbd a191 81bd 835b b23c 779f 9ebd
000001c0: 7e32 3c3e 6bee 12be 867c 823c c79c 963b
000001d0: 18ec bebd f4ba 47bd 0b3f a6bb 66c7 ed3c
000001e0: 1a97 0dbc c0df 253e a071 0c3c 6a3e 8c3d
000001f0: 0b15 523e 7af9 69bd 577e d43d fef0 11bc
00000200: 194e f63d d2db 8ebd 01f3 413b a81b f93c
00000210: 7f9d d13c ef76 43bd 2a85 88bc e68e 07be
00000220: b2ca 2dbe e07a 203e cb46 e63c 35bc 983d
00000230: 1b97 34bd 9538 0bbe e785 ca3d 2c89 063e
00000240: dc01 28bc ae6d 3dbd 2ef8 013e d115 d2bd
00000250: 5f14 a4bc 2fe3 54bd 8f17 093e f3e7 41be
00000260: bac1 ec3c 0975 c3bd 04d0 183e 8fe3 a13d
00000270: 9191 bfb9 53d7 393c e9fa 4a3d ffdb 993d
00000280: 940e 963c aac4 d3bc e8ab ae3d b2a7 48bd
00000290: 1363 5d3e 23fe 693b d6f4 403d aa99 07be
000002a0: 2036 f03d 970f 1dbd 2e7b a4bd 3a7e 783d
000002b0: d288 e43d 6f83 e53d 0240 79bd 632e ce3b
000002c0: 737c 093e 7735 133c 45bf 2a3e c3bd 203e
000002d0: 8740 983d 53d4 113e 72b9 903c cd41 bd3d
000002e0: d6fb 77bd 56ae 6c3d 3cea bbba 1453 66be
000002f0: 0663 25bb 22c8 d5ba a2a3 bd3d 6000 b63d
00000300: 9785 38bd 2274 98bb 55e6 653e 5221 093e
00000310: 6649 32bd 4d2f 473e d722 82be 2619 05be
00000320: e822 9f3d 65d3 cdbd 4cd1 cebd 881d 84bd
00000330: 0f81 5dbc 8912 debd 60dd e13d fdb5 c3bd
00000340: 5122 89bd bc40 36be 65a4 e73c d50c 623e
00000350: b9b5 7fbd 45d2 c5bd 290e cdbc 3175 0ebc
00000360: d6ab 043e a13c a7bd f5d4 da3d 3b7f d33d
00000370: b4b9 a23d b516 1bbd 0fc7 f03b 6880 ddbd
00000380: afba 9ebd 051e b6bc d1b0 343d 62ce 9c3a
00000390: bed1 c33d dd97 463d b5cb ea3d 0a48 df3c
000003a0: 06dc e53d e1f6 a7bd bfc4 233e cc1d 27be
000003b0: c05e e63a 8dc9 463c bb90 863d 493a d83c
000003c0: f4b6 3a3e 959e c13d 19c5 613b f0dd 733b
000003d0: c329 743d fa5e 243d 40f4 233d 52af a0bd
000003e0: 569a 723e a3f0 243e 2bc2 71be af95 8bbd
000003f0: b2de a23d 9687 04be 3b03 a7bd daa6 22be
-0.031202164 0.061479133 -0.13162018 -0.028762892 0.003516809 -0.22829078 -0.18016343 -0.06549321
0.030529069 -0.12358658 0.072584935 -0.03230407 0.081676945 -0.05648833 0.14208879 0.13908581
0.061537493 -0.051283304 0.0703921 0.016502326 -0.07836607 -0.093170054 0.08705008 -0.106504865
0.0044880635 -0.05888689 -0.21021399 0.04130745 -0.07287504 0.095526524 -0.0031588054 -0.08030105
0.035886046 0.07788545 0.035112817 0.18569556 0.011099766 0.18631634 -0.25481975 0.02471498
0.034778472 -0.066372186 -0.017166238 -0.057395604 -0.07645505 0.072335236 0.052608743 0.050289564
-0.19974743 -0.1279535 0.2591523 -0.088316105 -0.1683636 0.15732497 -0.03379162 0.060874417
0.0226687 -0.028428724 -0.14153346 -0.20251846 0.1314373 0.023413045 -0.03149126 0.04872628
-0.045358658 0.13042139 0.022439461 0.001518749 0.08050976 -0.060506515 0.0512168 -0.07060251
0.07912995 -0.009931142 -0.04829889 0.022957807 0.08041478 0.18564788 -0.0010428656 0.014883959
0.05153145 0.019183865 0.049696833 0.035682883 -0.006905154 0.03523367 0.07646967 -0.0865658
-0.00069699204 -0.07176503 -0.0016955541 0.15074117 0.16295658 -0.13447365 -0.073497266 -0.18909962
0.05546072 0.008500149 0.09674417 0.0566338 -0.09728531 0.008210024 -0.03054966 0.24474563
0.17759475 0.0146848345 0.025985017 -0.16758054 -0.11678145 -0.06326605 0.021772152 -0.07745259
0.18378636 -0.14348762 0.015928518 0.004596326 -0.09322375 -0.048762277 -0.0050734333 0.029025745
-0.008641982 0.16198635 0.008572012 0.06847842 0.2051584 -0.057122685 0.1037566 -0.008907555
0.12026615 -0.06975521 0.0029594305 0.030408695 0.025587795 -0.047720846 -0.01666506 -0.13238105
-0.16971853 0.15671873 0.028109929 0.07457773 -0.044089418 -0.13595803 0.09888821 0.13138264
-0.01025435 -0.046247177 0.1269233 -0.102580674 -0.020029245 -0.05197447 0.13387893 -0.18936138
0.02890097 -0.09543807 0.14923102 0.079047315 -0.00036538814 0.011342841 0.049555693 0.07512664
0.018317498 -0.025850613 0.08528882 -0.04898805 0.21619825 0.0035704456 0.047108494 -0.13242212
0.117290735 -0.038344946 -0.08031307 0.060667254 0.11158909 0.112067096 -0.06085206 0.006292151
0.1342638 0.008984915 0.16674526 0.15697388 0.074341826 0.14241152 0.017666552 0.09241066
-0.060542904 0.057783447 -0.0014336775 -0.2249263 -0.0025236025 -0.0016310255 0.09259726 0.0888679
-0.045049276 -0.004652516 0.22451146 0.13391617 -0.04352703 0.19451638 -0.25417206 -0.12997875
0.0777033 -0.10050086 -0.10098514 -0.06450945 -0.0135195395 -0.10843379 0.11028552 -0.09556196
-0.066959985 -0.17798132 0.028276632 0.22075208 -0.062429164 -0.09659246 -0.025031166 -0.008694933
0.12956175 -0.08165861 0.106851496 0.10327002 0.07945576 -0.037863452 0.0073479484 -0.10815507
-0.07750451 -0.022231111 0.044113938 0.0011963362 0.095614895 0.04848467 0.11464635 0.02725603
0.11223607 -0.08201385 0.15993021 -0.1631996 0.0017575845 0.012133014 0.06570574 0.02639498
0.18233854 0.09454075 0.0034449755 0.0037211142 0.05961014 0.04012964 0.040027857 -0.0784594
0.23691687 0.1610742 -0.23609225 -0.06815659 0.07952632 -0.12942347 -0.08154913 -0.15883961

Y.net.3.0.bias f4 [100]
00000000: 579a 013c 9d62 063b 1c64 cbbb 53f0 ac3b
00000010: cb1d 03bc 6829 8b3c d277 963c 0ddd c73b
00000020: 8e34 8ebb 9041 843b 847e 963b 7c61 913a
00000030: c717 c73c c460 e23c c15f b63b 49f2 da3c
00000040: 7087 cb3c b303 b83c fb70 bd3b e446 473a
00000050: d37f a53b 407d 173c 39ec 733b 79c8 233b
00000060: 77c1 783a 82ec 5d3c e6fe 573c 02de 90bc
00000070: 1a8b ad3c aaa5 ff39 bac8 bc3b e55c a63b
00000080: fab7 da3a c3a9 553b 73fd 813c 30c2 373c
00000090: 6950 153c e39d 023d 56ed 433b bdf9 073c
000000a0: 7483 bd3b 266b e1b9 12d8 aa3b 8015 c33a
000000b0: 077e c839 3b4f f63b c90d dc3c 75b5 743b
000000c0: 0ede 15ba c81d 953b f38d b83b 577b 293b
000000d0: a064 f53b 7d11 5e3b 4ba8 89bc 3514 63b9
000000e0: 68ef 60ba 84a1 a03b bac4 973c b572 d3bb
000000f0: b46b b53a 5c8a 75ba 225e f93b d389 db37
00000100: a18f ddba ab11 383a 563c 9d3c ba47 1d3b
00000110: 4aee e53c ca34 e0bb c23e 5e3b bc43 4e3c
00000120: adee 9b3b e67e 633a 6b57 073b 5530 123a
00000130: 7543 843c d84c 403b 6b70 d43b 4c88 6839
00000140: 7e9b 7b39 05e5 4d3b 5e72 273a 00ad 8e3c
00000150: 6816 a73a 6449 b63c 9338 b03a 42e4 f53b
00000160: 0b44 a3ba 4922 b53c 1ec1 9439 efd1 0a3c
00000170: 2ebc 653b a51e 003b 5182 da3c cbac 273c
00000180: 5f88 fb3a ef17 e33c eba2 c03a abab 06ba
0.007910333 0.0020505555 -0.0062070023 0.0052776723 -0.008002709 0.016987517 0.018367682 0.0060993494
-0.004339761 0.004036136 0.0045927186 0.0011091675 0.02430333 0.027634032 0.005565614 0.026726859
0.024844855 0.022462701 0.0057812906 0.0007601811 0.005050638 0.0092461705 0.0037219657 0.0024991317
0.0009489278 0.013545157 0.013183331 -0.017683987 0.021184493 0.0004876082 0.005761233 0.005076992
0.0016686909 0.0032602407 0.015867924 0.0112157315 0.00911341 0.031888854 0.0029896102 0.008299288
0.0057834927 -0.00042995176 0.005213746 0.0014883727 0.0003824087 0.007516769 0.026862042 0.0037339602
-0.00057169877 0.0045506693 0.005632156 0.002586087 0.007488802 0.0033884936 -0.016803881 -0.00021655935
-0.0008580596 0.0049020667 0.018526424 -0.006452883 0.0013841302 -0.00093666255 0.0076100985 2.6171014e-05
-0.0016903767 0.00070216757 0.01919381 0.0023999051 0.028067727 -0.0068422304 0.0033911918 0.012589391
0.004758677 0.0008678272 0.002065147 0.000557666 0.016145447 0.0029342677 0.006483128 0.00022176019
0.0002399515 0.0031417024 0.00063875865 0.017416477 0.0012747766 0.022251792 0.0013444595 0.007504017
-0.0012456191 0.022111075 0.00028372643 0.008472904 0.003505479 0.0019549516 0.026673468 0.010234068
0.0019190422 0.027721373 0.0014696991 -0.0005137275

Y.net.4.0.weight f4 [100, 100]
00000000: 34ea 803b 65a1 473c 0212 8ebd 4502 1f3c
00000010: 0cde cbbc 53b2 843e 5e40 9a3c b479 9d3d
00000020: 282b 6d3d 6862 11be 6a57 6b3d 8953 5dbc
00000030: a44d 663d 01b3 14be 3064 ac3c a368 a2bd
00000040: 0ce6 31bc 6d79 9a3d c3f5 ae3d 72d2 013c
00000050: 6457 64bd 9c3b 883d e11a bbbd 705c 353d
00000060: be41 a7bd 2fc2 c2bb 2037 923d 2f3f 39be
00000070: 9230 a4bd d3b2 8dbd 7825 2fbe dd32 84bd
00000080: c467 c7bd 5149 85bc ca99 b63d 37ee f03d
00000090: bd3e 5d3d e51d 023e 4792 19bc c618 e33d
000000a0: 2347 75bd d303 29be 9959 963d c75b 223e
000000b0: 5b8b 5a3c 4b13 c33d 068d 9d3d ebf5 5d3d
000000c0: bbd4 0c3d 5d88 3fbe e9a0 c33d c7fe 0fbe
000000d0: 9c2d c13d aeef 7c3d 9d55 47bc d61a cabd
000000e0: f009 0dbe 71d7 dc3d f6c0 173d 0bff 03be
000000f0: 6df4 d03c 247f 423d 8106 183e b22b 353e
00000100: a3bb 3abd c93a 18bc 4c80 0a3c dcd3 82bb
00000110: 476a e2bd f18c 28bd 2d69 50be 766f 583d
00000120: 9cfa 723d 89ec 123d 4c78 b7bc e74a 52bd
00000130: 5d78 4c3d 61cd 4fbd d171 5dbd ed19 543d
00000140: 638c 98bc 0a1f 0e3c 7c35 64bd df94 0a3e
00000150: a78e 9ebd 3211 53bd 75b9 72bd e63d 22be
00000160: ad03 9cbd 2937 c93d d6e7 dcbc e220 983d
00000170: 1ef4 a53d 6cf7 dbbd 5a92 1a3d 97c6 8dbc
00000180: 09fe 923c 4a1d 70bd 2eb5 8abe a55e c53d
00000190: f9b2 eb3d 62fe 02be a9b3 e2bd 9805 5dbd
000001a0: 83b2 7fbc e201 1c3d 5ae0 4e3c 542c 603c
000001b0: e83f 83bd 757f 20bd 6dda c5bd 8601 ef3c
000001c0: 6af2 943b 4c39 6c3e 3cb0 f1bd 9cf5 8dbd
000001d0: bb40 193e 1364 51bd 5ac5 c9bd e8e5 4d3d
000001e0: 10fd 28be b295 cbbc 10cf 013d e4fc dabd
000001f0: 2094 cab9 f5b6 a83d a120 97bc 2693 a23d
00000200: 39b1 d8bb c5e6 703c 9884 91bd 37db acbd
00000210: 5eba e13b 3cd4 573c 2240 b73d 0e6d 76bd
00000220: 986e 45bd c14f c1bd 79a8 26bd ab85 003e
00000230: d621 ffba fb69 2ebe 64d7 d5bd 7b90 9f3d
00000240: d710 25bc c6ed 703d 6de8 963d 8386 4f3d
00000250: c53a a9bd 31bc 923c 700c c03c 9f5f b43c
00000260: 33e6 783c 2288 e7bc 71c1 2abd 416f 06be
00000270: 12fd b3bd 5abf 573d edde 4fbe 7ea3 5ebe
00000280: ecc5 92bd d036 81bc 171b 133e 099c 47bd
00000290: 1181 223d 326e 4b3c c3b9 6abd 89e0 4abd
000002a0: 8b26 63bb 851e a5bd a1c7 0dbd fc54 b73c
000002b0: b26d 8dba fe2b edbd d28b 45be 8de2 2a3e
000002c0: de0f 8f3d efcb ad3c cdb5 5c3e 1038 b03d
000002d0: 7429 f1bc 2add 01bd de92 87ba fa82 4dbd
000002e0: 0d23 a13d a25b 0fbe 0789 acbd 42bc f53c
000002f0: 58ec 933d 98f5 9d3c 431c 34be 68d8 73bc
00000300: f459 ccbb 2dbb 13bc 41eb 363e 7991 123e
00000310: 8026 3a3e 6298 c2bd 294b 6abe d085 dcbd
00000320: 2e28 ff3c f843 253d 377b 19be 4449 c8bd
00000330: e344 d5bd 3137 acbd a4f6 cabb 59f7 333c
00000340: 5d85 3bbe eb11 b4bd 7f53 e0bc 66a8 dbbd
00000350: a0c5 673c 1055 58be 26e0 073e 871f 473d
00000360: a59f 0b3d 7699 adbc ee50 a8bd 05bf 0d3e
00000370: 5538 17bd 38f1 06bd ac47 183d c062 2ebe
00000380: f59e f9bd 6d59 dabd 117a d23d 9631 8b3b
00000390: 96a4 4fbc 8b1b d9bd 6431 b33d e97e 52be
000003a0: 2cd4 983d 9921 193d ae42 33be 6366 fcbc
000003b0: 58d8 a73c 03ff 333e d1e7 10bc 367a aabd
000003c0: aac8 58bd 8185 36bd d206 e73d 0203 21bd
000003d0: 9266 3abe 1c7d b73c e851 dcbc c784 a73c
000003e0: 1886 cb3c 9761 223e a402 08be 22a5 213b
000003f0: 6de2 623d 3695 bbbd b8b6 7f3d f266 8ebd
0.003934169 0.012184476 -0.069370285 0.009705131 -0.024886154 0.259173 0.01882952 0.07689229
0.057902485 -0.14197695 0.05745641 -0.013508686 0.056226388 -0.1452141 0.021043867 -0.07930114
-0.01085807 0.075426914 0.08542969 0.007923709 -0.055747405 0.066519946 -0.09135986 0.04427761
-0.08166836 -0.0059435586 0.071394205 -0.18090509 -0.080170766 -0.06918874 -0.17104137 -0.06455014
-0.097365886 -0.016270312 0.08916052 0.11764186 0.05401491 0.12706716 -0.009373254 0.110887095
-0.059882294 -0.16505365 0.07341308 0.15855323 0.013338889 0.09525164 0.07692914 0.054189604
0.034382563 -0.18704362 0.095521756 -0.14062034 0.094325274 0.061752014 -0.012166408 -0.098684
-0.13773322 0.1078328 0.037049256 -0.1289026 0.025507176 0.047484532 0.14846231 0.1769245
-0.0455891 -0.009291359 0.00845344 -0.0039925408 -0.11055427 -0.041150037 -0.20352621 0.052840672
0.05932103 0.03587011 -0.02239623 -0.051340964 0.049919475 -0.050732974 -0.054063622 0.051782537
-0.01862163 0.0086743925 -0.05571507 0.13533352 -0.077420525 -0.05153007 -0.059258897 -0.15843925
-0.076178886 0.09824974 -0.026966017 0.07428147 0.08103202 -0.10740551 0.037737228 -0.01730661
0.017943399 -0.058621682 -0.27091354 0.09637193 0.11508746 -0.12792352 -0.11069424 -0.053960413
-0.015606525 0.038087733 0.012626732 0.013682444 -0.064086735 -0.039184052 -0.09660802 0.029175531
0.0045454996 0.23068732 -0.11801192 -0.06931612 0.14966099 -0.05112083 -0.09852095 0.050268084
-0.16502786 -0.024851654 0.03169161 -0.10692766 -0.00038638804 0.08238021 -0.018448176 0.079382226
-0.0066129235 0.014703457 -0.071053684 -0.084402494 0.006888672 0.013173159 0.08947779 -0.060162596
-0.048201174 -0.0943904 -0.04068801 0.1255099 -0.001946504 -0.17032616 -0.10441473 0.07791229
-0.010074816 0.05882051 0.073685504 0.05066539 -0.082631625 0.017912002 0.02344343 0.022018252
0.0151916025 -0.028263155 -0.041688386 -0.13128377 -0.08788504 0.05267272 -0.20299883 -0.21742055
-0.07166657 -0.015773207 0.14365803 -0.04873279 0.03967387 0.012416409 -0.057306062 -0.04953054
-0.0034660425 -0.08062462 -0.03461421 0.02237939 -0.0010790138 -0.115806565 -0.19291618 0.16687985
0.06985448 0.021215407 0.21553726 0.08604443 -0.029438712 -0.03170506 -0.0010343452 -0.050173737
0.078680135 -0.13999799 -0.084245734 0.029996995 0.07222813 0.019282147 -0.17588906 -0.014883138
-0.006236309 -0.009016794 0.1786318 0.14313306 0.18178749 -0.09501721 -0.22880234 -0.1076771
0.031147089 0.040348023 -0.14988409 -0.09779599 -0.1041353 -0.084089644 -0.0061939526 0.010984265
-0.18312593 -0.0879248 -0.027383564 -0.10725479 0.014146239 -0.21126199 0.132691 0.04861405
0.034087796 -0.02119134 -0.08218561 0.138424 -0.036918957 -0.032944888 0.037177727 -0.17029858
-0.12188522 -0.10661588 0.102771886 0.0042478545 -0.012673518 -0.106009565 0.08749655 -0.20556225
0.074623436 0.037385557 -0.17505905 -0.03081054 0.020488903 0.17577748 -0.008844332 -0.08324091
-0.052925743 -0.044560913 0.11280598 -0.03930951 -0.1820319 0.022398524 -0.026894525 0.020449055
0.024844214 0.1585754 -0.13282257 0.0024665077 0.055391718 -0.09159319 0.062430114 -0.06953229

Y.net.4.0.bias f4 [100]
00000000: 50a8 6c3c 7d69 cf3b 536f 1abc 68b6 643c
00000010: 140a 2d3c a05a 393c 7780 df3b eb53 593c
00000020: e8a5 543c faea 22bc 5cb5 273a 73b9 6b3c
00000030: b5f4 4d3c 4af3 513c 51bd b2bb 62fa 14bc
00000040: 8af0 863a ceee 6cbc 64e7 833b b255 043d
00000050: eb3b 2c3c 971b f1bb 6648 733c b990 9e3a
00000060: 8a05 543c afe1 f93c c039 473c efbe 70bb
00000070: f751 a0ba 4a88 1bbc 83ea 2a3c 93ec 33bc
00000080: 9907 083c c3be d33b 81a8 e0bb a925 903c
00000090: 8729 89bb b854 07bc 6ba2 333b 3da1 07bc
000000a0: 9afc 01bc 5cb1 28bb 7087 1a3c 27a1 443c
000000b0: 7956 33bc 028b 9a3c 0c72 2d3c 277f b23c
000000c0: 7c56 eebb 1788 46bc 4665 0b3c cdc6 143d
000000d0: d3a4 963c f6ff 90ba c084 38bc e53d d8bc
000000e0: b193 083c 0148 bc3c 4f9d 75bc 257f 853c
000000f0: 28a0 2e3c f7be 0ebc 6eda c1ba dcb3 d23b
00000100: 923b 8d3c ac0d 67bc ff28 10bc 7073 83bb
00000110: 66d0 593c 07dc e3bb ff3e 17bc 0de8 4b3c
00000120: e699 4a3c 6bdb 4a3c aec8 703c a1f5 34bc
00000130: fba8 83bb 9479 1ebc 3216 21bc 72f2 0abc
00000140: 62ec f7bb 59c8 2b3c 5e69 99bb e29d b0bb
00000150: 484b 14bc 52a7 943c 87b6 6e3c 2047 dabc
00000160: 5580 693c d0da 1bbc c03e 28bc 4d09 4f3c
00000170: a4c5 893c 46e7 203d d120 693c 8811 92bc
00000180: 1c6c 843c e46b 173c 8801 453c 58bf d7bb
0.014444426 0.006329714 -0.009425956 0.013959505 0.010561485 0.011313111 0.006820734 0.0132646365
0.012979008 -0.009943718 0.0006397569 0.014387476 0.01257055 0.012814352 -0.005454697 -0.009092899
0.0010295075 -0.014461232 0.0040253866 0.032308288 0.010512332 -0.0073580253 0.014848804 0.0012097574
0.012940774 0.030503122 0.012159765 -0.00367349 -0.0012231459 -0.009492943 0.0104318885 -0.010981697
0.008302593 0.0064619496 -0.0068560247 0.017596083 -0.0041858586 -0.008259945 0.002741004 -0.008278188
-0.00793376 -0.002574048 0.009431705 0.012001312 -0.01094591 0.018865112 0.010586273 0.021789147
-0.0072734933 -0.012117407 0.008508032 0.036322404 0.018389141 -0.001106261 -0.011262119 -0.026396701
0.008335994 0.022983553 -0.014991119 0.016295979 0.010658301 -0.008712522 -0.0014789829 0.0064301323
0.01724032 -0.014102381 -0.008798837 -0.004011564 0.013294315 -0.0069537195 -0.009231328 0.012445462
0.012365794 0.012381415 0.014696283 -0.011044891 -0.004017947 -0.009672541 -0.009831952 -0.008480655
-0.007566021 0.010484778 -0.00468175 -0.005389915 -0.009051152 0.01814619 0.014569885 -0.026645243
0.014251788 -0.009512618 -0.010268867 0.012636495 0.016817875 0.03928306 0.014229015 -0.017830625
0.016164832 0.009242032 0.012024291 -0.0065840892

Y.net.5.weight f4 [4, 100]
00000000: f6f4 803c 0bdf f63d c718 4b3f f348 613e
00000010: fe49 77be 201e 403e 25d4 133e eff3 81be
00000020: 4ebb de3e ab50 253d a5b9 d4be e725 78bc
00000030: f1d9 cbbd f6f3 93bd ff91 083f 01c1 163b
00000040: 4e36 3d3f 361e 21bf 6288 983e 2137 1abe
00000050: fca3 b53e 0539 263d 640d 903e b840 61be
00000060: 2ffd f4be f50d 8e3d c99d 523e 9646 b33d
00000070: 2be7 6cbe c82a 853d 689f 353f e236 373f
00000080: 4e59 013f 87d4 1a3f 572b 71bc bf99 563d
00000090: 520d fabb 36ab f63e aee6 163f e551 aebd
000000a0: e161 843e 45a5 983e a8d6 ef3e 1c5a 2dbf
000000b0: 61a3 e6bd 0a9f 903e ee0a 233e 3247 2fbd
000000c0: 15e0 433e 6c6c 563e cf99 ffbe 3f10 283c
000000d0: e67f 24bf fd30 bfbd 3159 31bd 941e d0be
000000e0: c509 993e 806b b53e 62e8 d43d bc12 763d
000000f0: 7f57 bc3e 452d 21be c982 08be 9b23 b3bd
00000100: eea9 423e 2e3c ba3e d949 ef3e 7159 713e
00000110: 862f c23e dba1 8bbe 9e55 90be a740 403f
00000120: 9da8 4fbf d2b2 4abf 4219 353d d5ea 6c3e
00000130: fd2a 793e 41d9 8abe 4c0e 63be d4e1 2b3d
00000140: b100 7dbe 35a8 58be 6872 13bd fbaa 5f3c
00000150: 7770 623d 23b2 da3e d592 ef3d d6d6 f93c
00000160: 6706 ec3d a89c 183e ccab cfbe 768f 143e
00000170: e7df 5f3e 4eb3 de3e bfb9 273e 3e86 afbb
00000180: 5d2d 543d 6b27 c2bd 6220 6abd a41d aabe
00000190: b15c 1c3e da8e efbd ad33 32bf 116d 143d
000001a0: 699c 983d 60cf 22bf bd19 013e d195 073f
000001b0: 4052 3bbe d2f0 f6bd 73ec f63e 0928 a9bc
000001c0: 6652 a83d ad00 cb3d 186f f0bd 8ff4 90be
000001d0: bd54 20bf 3de7 003f 7240 87be 77f1 8b3d
000001e0: 7751 02bf b6dd 90be 1e60 b5be 5be2 f4bd
000001f0: 5d95 cb3e 1f76 183e e9c5 4cbe 15d0 5abe
00000200: d082 2ebe 05a9 98be 8829 e7be 80af 52be
00000210: 9eb7 29bf 4cdd 28bf 9cfd 85be 096d 2bbe
00000220: 88bc 88be 9344 f6be 8874 10bf c98c 183e
00000230: d1d8 38be 18f4 bcbe 0d54 bbbe 13b4 563f
00000240: 455d ca3e c312 6cbe c6d2 67be ea97 d23e
00000250: 0b85 b8be e908 1b3e 2a4b d3bd cf24 ef3e
00000260: f34d fa3e 899c 8dbe 39e7 37be c717 023f
00000270: 6079 d0bd 332a 80be df21 c8bd c59f b4be
00000280: 7d4d 96be c9ee 273e d4ae 943e 693b 0e3e
00000290: 7986 38bd 048c 5c3e a25e 9abe 1fbb 303d
000002a0: c1c6 c5be 9738 493e 37f7 ee3e 5698 3bbf
000002b0: c7ff 103f ba07 493f 904b 0bbe 3c16 cebe
000002c0: cbf9 f0bd c320 853e cc7f 4c3e 1259 2ebd
000002d0: 3967 e93c 93e0 ab3e a91c 3abe 16c1 983d
000002e0: 5491 b53b bb93 51be 89a1 b3bd cf4e 3abe
000002f0: f569 afbd 1217 28bf ca35 cf3e 8bf0 9abe
00000300: e79d 4dbd ae0d 2bbe a451 163d 1c2a c23b
00000310: 0d55 373e bbbf 6f3b 0c16 18be 9fbc e33e
00000320: b6d9 c93c b396 b83c e617 c9bd 218e 4ebe
00000330: 0146 073e 3e98 223a bf69 c73c 1f8a d0bc
00000340: e5f8 5cbd 3d30 abbd 8d58 a83c 7986 d4be
00000350: f89f 093e fe0f 25be 3d35 d33d bb52 0a3d
00000360: 4965 6d3e 8320 033e 5823 cd3d dd63 173e
00000370: 974a d43d 5b2a 2ebd 7860 5fbe d75c d4bd
00000380: 05b0 383b 5417 bc3d 88a6 833d 5ff2 213e
00000390: 6fdd 133e 850c 35be f939 963c 832f af3d
000003a0: 5137 15be 11d0 9d3b 328f 77be d18a b6bd
000003b0: 75f6 46bd 9cbf 733d c87f 1a3e 37c3 8c3d
000003c0: 3af8 713e 358a cebe f03c 0cbe 1cfb 7dbd
000003d0: 6c58 52be 5b11 3c3e cc5b e83d c61b 99bd
000003e0: 7270 7d3c da4f 14be 2df1 ef3c 1f30 bc3d
000003f0: 2f2a 37bd 5310 3f3e 3076 603e 17e9 49be
0.015741806 0.12054261 0.7933468 0.22000484 -0.2414932 0.18761492 0.14436395 -0.2538142
0.43502277 0.040360134 -0.41547886 -0.015145755 -0.099536784 -0.07224266 0.5334777 0.0023003223
0.7391099 -0.62936723 0.29791552 -0.15060093 0.35476673 0.04058172 0.28135216 -0.21997344
-0.47849414 0.06936256 0.20568003 0.087536976 -0.23135059 0.065023005 0.7094636 0.7156812
0.50526893 0.6048054 -0.014719806 0.052392717 -0.0076309824 0.481775 0.5894574 -0.08511714
0.25855926 0.2981359 0.46843457 -0.6771562 -0.11261631 0.28246337 0.15922138 -0.042792507
0.1912845 0.20939797 -0.49922034 0.01025778 -0.6425766 -0.09335516 -0.04329795 -0.4064833
0.29890266 0.35433578 0.10395886 0.06007646 0.36785504 -0.15739925 -0.1333114 -0.087470256
0.19010136 0.36374038 0.4673603 0.23569275 0.37926883 -0.27271923 -0.2819032 0.7509865
-0.8111666 -0.7917911 0.04421354 0.23136456 0.24332805 -0.27118877 -0.22173423 0.041963413
-0.24707295 -0.21157916 -0.03599778 0.013651605 0.055283036 0.42714033 0.11697928 0.03049795
0.11524659 0.1490351 -0.40560758 0.14507851 0.21862756 0.43496174 0.1637945 -0.005356579
0.051801074 -0.09480175 -0.05715979 -0.3322574 0.15269734 -0.11697169 -0.696101 0.036236826
0.07451708 -0.6359768 0.12607475 0.52962977 -0.18293095 -0.120576516 0.4822727 -0.020648973
0.08218841 0.09912238 -0.117399395 -0.28311583 -0.626293 0.5035284 -0.26416355 0.06833165
-0.50905555 -0.28294152 -0.35424894 -0.119572364 0.39762393 0.1488881 -0.19997372 -0.2136844
-0.17042089 -0.29816452 -0.45148873 -0.2057476 -0.662958 -0.6596267 -0.2617005 -0.16740812
-0.26706338 -0.48099193 -0.5642781 0.14897455 -0.18051459 -0.3690498 -0.36587563 0.8386852
0.39524284 -0.23054032 -0.22638997 0.41131526 -0.36039004 0.15140118 -0.10317071 0.4670777
0.48887596 -0.2765849 -0.17959298 0.5081753 -0.101794004 -0.25032195 -0.097720854 -0.35278144
-0.29355994 0.16399683 0.29039633 0.1388985 -0.045050118 0.21537787 -0.30150324 0.043147203
-0.386282 0.19650494 0.46672985 -0.7327932 0.56640285 0.78527415 -0.13603044 -0.40251338
-0.11766394 0.26001558 0.19970626 -0.042565413 0.028491603 0.33569774 -0.18174995 0.07458703
0.005541006 -0.20466511 -0.08771045 -0.18194126 -0.085651316 -0.656602 0.40470725 -0.30261645
-0.050199416 -0.16704437 0.036698952 0.00592543 0.17903538 0.0036582786 -0.1485216 0.44479844
0.024639945 0.022532796 -0.098190114 -0.20171405 0.13210298 0.00062024954 0.024342416 -0.025456486
-0.0539483 -0.0835881 0.020550037 -0.41508844 0.1343993 -0.16119382 0.10312889 0.033770304
0.23183168 0.12805371 0.10016507 0.14784189 0.103657894 -0.042520862 -0.21814144 -0.1036927
0.0028181088 0.09184137 0.06428248 0.15815113 0.14439939 -0.17680557 0.01833819 0.08553984
-0.14571883 0.004816063 -0.24175718 -0.08913196 -0.048574883 0.059508905 0.15087807 0.06873172
0.23629847 -0.4033982 -0.13695121 -0.062007055 -0.20541543 0.18365996 0.11345634 -0.074760005
0.015468704 -0.14483586 0.029289806 0.09188866 -0.044717964 0.18658571 0.21920085 -0.19717823
